…
18-09-2015 09:58:24 - ERROR: I0918 09:58:24.519335 26551 net.cpp:435] Input 0 -> data
18-09-2015 09:58:24 - ERROR: I0918 09:58:24.519412 26551 layer_factory.hpp:76] Creating layer conv1
18-09-2015 09:58:24 - ERROR: I0918 09:58:24.519435 26551 net.cpp:110] Creating Layer conv1
18-09-2015 09:58:24 - ERROR: I0918 09:58:24.519443 26551 net.cpp:477] conv1 <- data
18-09-2015 09:58:24 - ERROR: I0918 09:58:24.519454 26551 net.cpp:433] conv1 -> conv1
18-09-2015 09:58:24 - ERROR: I0918 09:58:24.520071 26551 net.cpp:155] Setting up conv1
18-09-2015 09:58:24 - ERROR: I0918 09:58:24.520105 26551 net.cpp:163] Top shape: 256 12 48 48 (7077888)
18-09-2015 09:58:24 - ERROR: I0918 09:58:24.520141 26551 layer_factory.hpp:76] Creating layer relu1
18-09-2015 09:58:24 - ERROR: I0918 09:58:24.520149 26551 net.cpp:110] Creating Layer relu1
18-09-2015 09:58:24 - ERROR: I0918 09:58:24.520153 26551 net.cpp:477] relu1 <- conv1
18-09-2015 09:58:24 - ERROR: I0918 09:58:24.520158 26551 net.cpp:419] relu1 -> conv1 (in-place)
18-09-2015 09:58:24 - ERROR: I0918 09:58:24.520166 26551 net.cpp:155] Setting up relu1
18-09-2015 09:58:24 - ERROR: I0918 09:58:24.520171 26551 net.cpp:163] Top shape: 256 12 48 48 (7077888)
18-09-2015 09:58:24 - ERROR: I0918 09:58:24.520174 26551 layer_factory.hpp:76] Creating layer pool1
18-09-2015 09:58:24 - ERROR: I0918 09:58:24.520179 26551 net.cpp:110] Creating Layer pool1
18-09-2015 09:58:24 - ERROR: I0918 09:58:24.520182 26551 net.cpp:477] pool1 <- conv1
18-09-2015 09:58:24 - ERROR: I0918 09:58:24.520186 26551 net.cpp:433] pool1 -> pool1
18-09-2015 09:58:24 - ERROR: I0918 09:58:24.520208 26551 net.cpp:155] Setting up pool1
18-09-2015 09:58:24 - ERROR: I0918 09:58:24.520218 26551 net.cpp:163] Top shape: 256 12 24 24 (1769472)
18-09-2015 09:58:24 - ERROR: I0918 09:58:24.520222 26551 layer_factory.hpp:76] Creating layer conv2
18-09-2015 09:58:24 - ERROR: I0918 09:58:24.520227 26551 net.cpp:110] Creating Layer conv2
18-09-2015 09:58:24 - ERROR: I0918 09:58:24.520231 26551 net.cpp:477] conv2 <- pool1
18-09-2015 09:58:24 - ERROR: I0918 09:58:24.520236 26551 net.cpp:433] conv2 -> conv2
18-09-2015 09:58:24 - ERROR: I0918 09:58:24.520537 26551 net.cpp:155] Setting up conv2
18-09-2015 09:58:24 - ERROR: I0918 09:58:24.520544 26551 net.cpp:163] Top shape: 256 48 25 25 (7680000)
18-09-2015 09:58:24 - ERROR: I0918 09:58:24.520550 26551 layer_factory.hpp:76] Creating layer relu2
18-09-2015 09:58:24 - ERROR: I0918 09:58:24.520555 26551 net.cpp:110] Creating Layer relu2
18-09-2015 09:58:24 - ERROR: I0918 09:58:24.520558 26551 net.cpp:477] relu2 <- conv2
18-09-2015 09:58:24 - ERROR: I0918 09:58:24.520563 26551 net.cpp:419] relu2 -> conv2 (in-place)
18-09-2015 09:58:24 - ERROR: I0918 09:58:24.520567 26551 net.cpp:155] Setting up relu2
18-09-2015 09:58:24 - ERROR: I0918 09:58:24.520571 26551 net.cpp:163] Top shape: 256 48 25 25 (7680000)
18-09-2015 09:58:24 - ERROR: I0918 09:58:24.520573 26551 layer_factory.hpp:76] Creating layer pool2
18-09-2015 09:58:24 - ERROR: I0918 09:58:24.520577 26551 net.cpp:110] Creating Layer pool2
18-09-2015 09:58:24 - ERROR: I0918 09:58:24.520580 26551 net.cpp:477] pool2 <- conv2
18-09-2015 09:58:24 - ERROR: I0918 09:58:24.520583 26551 net.cpp:433] pool2 -> pool2
18-09-2015 09:58:24 - ERROR: I0918 09:58:24.520589 26551 net.cpp:155] Setting up pool2
18-09-2015 09:58:24 - ERROR: I0918 09:58:24.520594 26551 net.cpp:163] Top shape: 256 48 12 12 (1769472)
18-09-2015 09:58:24 - ERROR: I0918 09:58:24.520596 26551 layer_factory.hpp:76] Creating layer fc3
18-09-2015 09:58:24 - ERROR: I0918 09:58:24.520602 26551 net.cpp:110] Creating Layer fc3
18-09-2015 09:58:24 - ERROR: I0918 09:58:24.520606 26551 net.cpp:477] fc3 <- pool2
18-09-2015 09:58:24 - ERROR: I0918 09:58:24.520609 26551 net.cpp:433] fc3 -> fc3
18-09-2015 09:58:24 - ERROR: I0918 09:58:24.761226 26551 net.cpp:155] Setting up fc3
18-09-2015 09:58:24 - ERROR: I0918 09:58:24.761317 26551 net.cpp:163] Top shape: 256 1024 (262144)
18-09-2015 09:58:24 - ERROR: I0918 09:58:24.761338 26551 layer_factory.hpp:76] Creating layer relu3
18-09-2015 09:58:24 - ERROR: I0918 09:58:24.761348 26551 net.cpp:110] Creating Layer relu3
18-09-2015 09:58:24 - ERROR: I0918 09:58:24.761351 26551 net.cpp:477] relu3 <- fc3
18-09-2015 09:58:24 - ERROR: I0918 09:58:24.761356 26551 net.cpp:419] relu3 -> fc3 (in-place)
18-09-2015 09:58:24 - ERROR: I0918 09:58:24.761365 26551 net.cpp:155] Setting up relu3
18-09-2015 09:58:24 - ERROR: I0918 09:58:24.761369 26551 net.cpp:163] Top shape: 256 1024 (262144)
18-09-2015 09:58:24 - ERROR: I0918 09:58:24.761373 26551 layer_factory.hpp:76] Creating layer fc4
18-09-2015 09:58:24 - ERROR: I0918 09:58:24.761380 26551 net.cpp:110] Creating Layer fc4
18-09-2015 09:58:24 - ERROR: I0918 09:58:24.761384 26551 net.cpp:477] fc4 <- fc3
18-09-2015 09:58:24 - ERROR: I0918 09:58:24.761391 26551 net.cpp:433] fc4 -> fc4
18-09-2015 09:58:24 - ERROR: I0918 09:58:24.761533 26551 net.cpp:155] Setting up fc4
18-09-2015 09:58:24 - ERROR: I0918 09:58:24.761544 26551 net.cpp:163] Top shape: 256 2 (512)
18-09-2015 09:58:24 - ERROR: I0918 09:58:24.761551 26551 layer_factory.hpp:76] Creating layer prob
18-09-2015 09:58:24 - ERROR: I0918 09:58:24.761562 26551 net.cpp:110] Creating Layer prob
18-09-2015 09:58:24 - ERROR: I0918 09:58:24.761567 26551 net.cpp:477] prob <- fc4
18-09-2015 09:58:24 - ERROR: I0918 09:58:24.761572 26551 net.cpp:433] prob -> prob
18-09-2015 09:58:24 - ERROR: I0918 09:58:24.761648 26551 net.cpp:155] Setting up prob
18-09-2015 09:58:24 - ERROR: I0918 09:58:24.761654 26551 net.cpp:163] Top shape: 256 2 (512)
18-09-2015 09:58:24 - ERROR: I0918 09:58:24.761658 26551 net.cpp:240] prob does not need backward computation.
18-09-2015 09:58:24 - ERROR: I0918 09:58:24.761662 26551 net.cpp:240] fc4 does not need backward computation.
18-09-2015 09:58:24 - ERROR: I0918 09:58:24.761675 26551 net.cpp:240] relu3 does not need backward computation.
18-09-2015 09:58:24 - ERROR: I0918 09:58:24.761678 26551 net.cpp:240] fc3 does not need backward computation.
…
