…
17-09-2015 09:16:29 - ERROR: I0917 09:16:29.219679 31799 net.cpp:435] Input 0 -> data
17-09-2015 09:16:29 - ERROR: I0917 09:16:29.219956 31799 layer_factory.hpp:76] Creating layer conv1
17-09-2015 09:16:29 - ERROR: I0917 09:16:29.219986 31799 net.cpp:110] Creating Layer conv1
17-09-2015 09:16:29 - ERROR: I0917 09:16:29.219997 31799 net.cpp:477] conv1 <- data
17-09-2015 09:16:29 - ERROR: I0917 09:16:29.220062 31799 net.cpp:433] conv1 -> conv1
17-09-2015 09:16:29 - ERROR: I0917 09:16:29.221392 31799 net.cpp:155] Setting up conv1
17-09-2015 09:16:29 - ERROR: I0917 09:16:29.221448 31799 net.cpp:163] Top shape: 256 12 48 48 (7077888)
17-09-2015 09:16:29 - ERROR: I0917 09:16:29.221596 31799 layer_factory.hpp:76] Creating layer relu1
17-09-2015 09:16:29 - ERROR: I0917 09:16:29.221657 31799 net.cpp:110] Creating Layer relu1
17-09-2015 09:16:29 - ERROR: I0917 09:16:29.221668 31799 net.cpp:477] relu1 <- conv1
17-09-2015 09:16:29 - ERROR: I0917 09:16:29.221673 31799 net.cpp:419] relu1 -> conv1 (in-place)
17-09-2015 09:16:29 - ERROR: I0917 09:16:29.221688 31799 net.cpp:155] Setting up relu1
17-09-2015 09:16:29 - ERROR: I0917 09:16:29.221698 31799 net.cpp:163] Top shape: 256 12 48 48 (7077888)
17-09-2015 09:16:29 - ERROR: I0917 09:16:29.221703 31799 layer_factory.hpp:76] Creating layer pool1
17-09-2015 09:16:29 - ERROR: I0917 09:16:29.221709 31799 net.cpp:110] Creating Layer pool1
17-09-2015 09:16:29 - ERROR: I0917 09:16:29.221711 31799 net.cpp:477] pool1 <- conv1
17-09-2015 09:16:29 - ERROR: I0917 09:16:29.221715 31799 net.cpp:433] pool1 -> pool1
17-09-2015 09:16:29 - ERROR: I0917 09:16:29.221746 31799 net.cpp:155] Setting up pool1
17-09-2015 09:16:29 - ERROR: I0917 09:16:29.221843 31799 net.cpp:163] Top shape: 256 12 24 24 (1769472)
17-09-2015 09:16:29 - ERROR: I0917 09:16:29.221879 31799 layer_factory.hpp:76] Creating layer conv2
17-09-2015 09:16:29 - ERROR: I0917 09:16:29.221889 31799 net.cpp:110] Creating Layer conv2
17-09-2015 09:16:29 - ERROR: I0917 09:16:29.221891 31799 net.cpp:477] conv2 <- pool1
17-09-2015 09:16:29 - ERROR: I0917 09:16:29.221897 31799 net.cpp:433] conv2 -> conv2
17-09-2015 09:16:29 - ERROR: I0917 09:16:29.222761 31799 net.cpp:155] Setting up conv2
17-09-2015 09:16:29 - ERROR: I0917 09:16:29.222839 31799 net.cpp:163] Top shape: 256 48 25 25 (7680000)
17-09-2015 09:16:29 - ERROR: I0917 09:16:29.222894 31799 layer_factory.hpp:76] Creating layer relu2
17-09-2015 09:16:29 - ERROR: I0917 09:16:29.222934 31799 net.cpp:110] Creating Layer relu2
17-09-2015 09:16:29 - ERROR: I0917 09:16:29.222942 31799 net.cpp:477] relu2 <- conv2
17-09-2015 09:16:29 - ERROR: I0917 09:16:29.222949 31799 net.cpp:419] relu2 -> conv2 (in-place)
17-09-2015 09:16:29 - ERROR: I0917 09:16:29.222954 31799 net.cpp:155] Setting up relu2
17-09-2015 09:16:29 - ERROR: I0917 09:16:29.222961 31799 net.cpp:163] Top shape: 256 48 25 25 (7680000)
17-09-2015 09:16:29 - ERROR: I0917 09:16:29.222970 31799 layer_factory.hpp:76] Creating layer pool2
17-09-2015 09:16:29 - ERROR: I0917 09:16:29.222978 31799 net.cpp:110] Creating Layer pool2
17-09-2015 09:16:29 - ERROR: I0917 09:16:29.222981 31799 net.cpp:477] pool2 <- conv2
17-09-2015 09:16:29 - ERROR: I0917 09:16:29.223019 31799 net.cpp:433] pool2 -> pool2
17-09-2015 09:16:29 - ERROR: I0917 09:16:29.223074 31799 net.cpp:155] Setting up pool2
17-09-2015 09:16:29 - ERROR: I0917 09:16:29.223083 31799 net.cpp:163] Top shape: 256 48 12 12 (1769472)
17-09-2015 09:16:29 - ERROR: I0917 09:16:29.223086 31799 layer_factory.hpp:76] Creating layer fc3
17-09-2015 09:16:29 - ERROR: I0917 09:16:29.223096 31799 net.cpp:110] Creating Layer fc3
17-09-2015 09:16:29 - ERROR: I0917 09:16:29.223099 31799 net.cpp:477] fc3 <- pool2
17-09-2015 09:16:29 - ERROR: I0917 09:16:29.223108 31799 net.cpp:433] fc3 -> fc3
17-09-2015 09:16:29 - ERROR: I0917 09:16:29.458303 31799 net.cpp:155] Setting up fc3
17-09-2015 09:16:29 - ERROR: I0917 09:16:29.458389 31799 net.cpp:163] Top shape: 256 1024 (262144)
17-09-2015 09:16:29 - ERROR: I0917 09:16:29.458401 31799 layer_factory.hpp:76] Creating layer relu3
17-09-2015 09:16:29 - ERROR: I0917 09:16:29.458410 31799 net.cpp:110] Creating Layer relu3
17-09-2015 09:16:29 - ERROR: I0917 09:16:29.458412 31799 net.cpp:477] relu3 <- fc3
17-09-2015 09:16:29 - ERROR: I0917 09:16:29.458418 31799 net.cpp:419] relu3 -> fc3 (in-place)
17-09-2015 09:16:29 - ERROR: I0917 09:16:29.458425 31799 net.cpp:155] Setting up relu3
17-09-2015 09:16:29 - ERROR: I0917 09:16:29.458428 31799 net.cpp:163] Top shape: 256 1024 (262144)
17-09-2015 09:16:29 - ERROR: I0917 09:16:29.458431 31799 layer_factory.hpp:76] Creating layer fc4
17-09-2015 09:16:29 - ERROR: I0917 09:16:29.458442 31799 net.cpp:110] Creating Layer fc4
17-09-2015 09:16:29 - ERROR: I0917 09:16:29.458446 31799 net.cpp:477] fc4 <- fc3
17-09-2015 09:16:29 - ERROR: I0917 09:16:29.458451 31799 net.cpp:433] fc4 -> fc4
17-09-2015 09:16:29 - ERROR: I0917 09:16:29.458602 31799 net.cpp:155] Setting up fc4
17-09-2015 09:16:29 - ERROR: I0917 09:16:29.458616 31799 net.cpp:163] Top shape: 256 2 (512)
17-09-2015 09:16:29 - ERROR: I0917 09:16:29.458622 31799 layer_factory.hpp:76] Creating layer prob
17-09-2015 09:16:29 - ERROR: I0917 09:16:29.458629 31799 net.cpp:110] Creating Layer prob
17-09-2015 09:16:29 - ERROR: I0917 09:16:29.458632 31799 net.cpp:477] prob <- fc4
17-09-2015 09:16:29 - ERROR: I0917 09:16:29.458636 31799 net.cpp:433] prob -> prob
17-09-2015 09:16:29 - ERROR: I0917 09:16:29.458649 31799 net.cpp:155] Setting up prob
17-09-2015 09:16:29 - ERROR: I0917 09:16:29.458689 31799 net.cpp:163] Top shape: 256 2 (512)
17-09-2015 09:16:29 - ERROR: I0917 09:16:29.458695 31799 net.cpp:240] prob does not need backward computation.
17-09-2015 09:16:29 - ERROR: I0917 09:16:29.458699 31799 net.cpp:240] fc4 does not need backward computation.
17-09-2015 09:16:29 - ERROR: I0917 09:16:29.458703 31799 net.cpp:240] relu3 does not need backward computation.
17-09-2015 09:16:29 - ERROR: I0917 09:16:29.458704 31799 net.cpp:240] fc3 does not need backward computation.
…
