…
19-09-2015 09:07:34 - ERROR: I0919 09:07:34.000969 43969 net.cpp:435] Input 0 -> data
19-09-2015 09:07:34 - ERROR: I0919 09:07:34.001049 43969 layer_factory.hpp:76] Creating layer conv1
19-09-2015 09:07:34 - ERROR: I0919 09:07:34.001073 43969 net.cpp:110] Creating Layer conv1
19-09-2015 09:07:34 - ERROR: I0919 09:07:34.001082 43969 net.cpp:477] conv1 <- data
19-09-2015 09:07:34 - ERROR: I0919 09:07:34.001092 43969 net.cpp:433] conv1 -> conv1
19-09-2015 09:07:34 - ERROR: I0919 09:07:34.001732 43969 net.cpp:155] Setting up conv1
19-09-2015 09:07:34 - ERROR: I0919 09:07:34.001770 43969 net.cpp:163] Top shape: 256 12 48 48 (7077888)
19-09-2015 09:07:34 - ERROR: I0919 09:07:34.001816 43969 layer_factory.hpp:76] Creating layer relu1
19-09-2015 09:07:34 - ERROR: I0919 09:07:34.001826 43969 net.cpp:110] Creating Layer relu1
19-09-2015 09:07:34 - ERROR: I0919 09:07:34.001828 43969 net.cpp:477] relu1 <- conv1
19-09-2015 09:07:34 - ERROR: I0919 09:07:34.001833 43969 net.cpp:419] relu1 -> conv1 (in-place)
19-09-2015 09:07:34 - ERROR: I0919 09:07:34.001843 43969 net.cpp:155] Setting up relu1
19-09-2015 09:07:34 - ERROR: I0919 09:07:34.001847 43969 net.cpp:163] Top shape: 256 12 48 48 (7077888)
19-09-2015 09:07:34 - ERROR: I0919 09:07:34.001852 43969 layer_factory.hpp:76] Creating layer pool1
19-09-2015 09:07:34 - ERROR: I0919 09:07:34.001857 43969 net.cpp:110] Creating Layer pool1
19-09-2015 09:07:34 - ERROR: I0919 09:07:34.001859 43969 net.cpp:477] pool1 <- conv1
19-09-2015 09:07:34 - ERROR: I0919 09:07:34.001863 43969 net.cpp:433] pool1 -> pool1
19-09-2015 09:07:34 - ERROR: I0919 09:07:34.001886 43969 net.cpp:155] Setting up pool1
19-09-2015 09:07:34 - ERROR: I0919 09:07:34.001896 43969 net.cpp:163] Top shape: 256 12 24 24 (1769472)
19-09-2015 09:07:34 - ERROR: I0919 09:07:34.001900 43969 layer_factory.hpp:76] Creating layer conv2
19-09-2015 09:07:34 - ERROR: I0919 09:07:34.001906 43969 net.cpp:110] Creating Layer conv2
19-09-2015 09:07:34 - ERROR: I0919 09:07:34.001909 43969 net.cpp:477] conv2 <- pool1
19-09-2015 09:07:34 - ERROR: I0919 09:07:34.001914 43969 net.cpp:433] conv2 -> conv2
19-09-2015 09:07:34 - ERROR: I0919 09:07:34.002234 43969 net.cpp:155] Setting up conv2
19-09-2015 09:07:34 - ERROR: I0919 09:07:34.002241 43969 net.cpp:163] Top shape: 256 48 25 25 (7680000)
19-09-2015 09:07:34 - ERROR: I0919 09:07:34.002249 43969 layer_factory.hpp:76] Creating layer relu2
19-09-2015 09:07:34 - ERROR: I0919 09:07:34.002254 43969 net.cpp:110] Creating Layer relu2
19-09-2015 09:07:34 - ERROR: I0919 09:07:34.002257 43969 net.cpp:477] relu2 <- conv2
19-09-2015 09:07:34 - ERROR: I0919 09:07:34.002261 43969 net.cpp:419] relu2 -> conv2 (in-place)
19-09-2015 09:07:34 - ERROR: I0919 09:07:34.002266 43969 net.cpp:155] Setting up relu2
19-09-2015 09:07:34 - ERROR: I0919 09:07:34.002269 43969 net.cpp:163] Top shape: 256 48 25 25 (7680000)
19-09-2015 09:07:34 - ERROR: I0919 09:07:34.002272 43969 layer_factory.hpp:76] Creating layer pool2
19-09-2015 09:07:34 - ERROR: I0919 09:07:34.002276 43969 net.cpp:110] Creating Layer pool2
19-09-2015 09:07:34 - ERROR: I0919 09:07:34.002279 43969 net.cpp:477] pool2 <- conv2
19-09-2015 09:07:34 - ERROR: I0919 09:07:34.002282 43969 net.cpp:433] pool2 -> pool2
19-09-2015 09:07:34 - ERROR: I0919 09:07:34.002288 43969 net.cpp:155] Setting up pool2
19-09-2015 09:07:34 - ERROR: I0919 09:07:34.002293 43969 net.cpp:163] Top shape: 256 48 12 12 (1769472)
19-09-2015 09:07:34 - ERROR: I0919 09:07:34.002295 43969 layer_factory.hpp:76] Creating layer fc3
19-09-2015 09:07:34 - ERROR: I0919 09:07:34.002302 43969 net.cpp:110] Creating Layer fc3
19-09-2015 09:07:34 - ERROR: I0919 09:07:34.002305 43969 net.cpp:477] fc3 <- pool2
19-09-2015 09:07:34 - ERROR: I0919 09:07:34.002310 43969 net.cpp:433] fc3 -> fc3
19-09-2015 09:07:34 - ERROR: I0919 09:07:34.242946 43969 net.cpp:155] Setting up fc3
19-09-2015 09:07:34 - ERROR: I0919 09:07:34.243039 43969 net.cpp:163] Top shape: 256 1024 (262144)
19-09-2015 09:07:34 - ERROR: I0919 09:07:34.243055 43969 layer_factory.hpp:76] Creating layer relu3
19-09-2015 09:07:34 - ERROR: I0919 09:07:34.243064 43969 net.cpp:110] Creating Layer relu3
19-09-2015 09:07:34 - ERROR: I0919 09:07:34.243068 43969 net.cpp:477] relu3 <- fc3
19-09-2015 09:07:34 - ERROR: I0919 09:07:34.243074 43969 net.cpp:419] relu3 -> fc3 (in-place)
19-09-2015 09:07:34 - ERROR: I0919 09:07:34.243083 43969 net.cpp:155] Setting up relu3
19-09-2015 09:07:34 - ERROR: I0919 09:07:34.243087 43969 net.cpp:163] Top shape: 256 1024 (262144)
19-09-2015 09:07:34 - ERROR: I0919 09:07:34.243089 43969 layer_factory.hpp:76] Creating layer fc4
19-09-2015 09:07:34 - ERROR: I0919 09:07:34.243098 43969 net.cpp:110] Creating Layer fc4
19-09-2015 09:07:34 - ERROR: I0919 09:07:34.243100 43969 net.cpp:477] fc4 <- fc3
19-09-2015 09:07:34 - ERROR: I0919 09:07:34.243111 43969 net.cpp:433] fc4 -> fc4
19-09-2015 09:07:34 - ERROR: I0919 09:07:34.243252 43969 net.cpp:155] Setting up fc4
19-09-2015 09:07:34 - ERROR: I0919 09:07:34.243259 43969 net.cpp:163] Top shape: 256 2 (512)
19-09-2015 09:07:34 - ERROR: I0919 09:07:34.243265 43969 layer_factory.hpp:76] Creating layer prob
19-09-2015 09:07:34 - ERROR: I0919 09:07:34.243276 43969 net.cpp:110] Creating Layer prob
19-09-2015 09:07:34 - ERROR: I0919 09:07:34.243279 43969 net.cpp:477] prob <- fc4
19-09-2015 09:07:34 - ERROR: I0919 09:07:34.243288 43969 net.cpp:433] prob -> prob
19-09-2015 09:07:34 - ERROR: I0919 09:07:34.243343 43969 net.cpp:155] Setting up prob
19-09-2015 09:07:34 - ERROR: I0919 09:07:34.243353 43969 net.cpp:163] Top shape: 256 2 (512)
19-09-2015 09:07:34 - ERROR: I0919 09:07:34.243393 43969 net.cpp:240] prob does not need backward computation.
19-09-2015 09:07:34 - ERROR: I0919 09:07:34.243402 43969 net.cpp:240] fc4 does not need backward computation.
19-09-2015 09:07:34 - ERROR: I0919 09:07:34.243420 43969 net.cpp:240] relu3 does not need backward computation.
19-09-2015 09:07:34 - ERROR: I0919 09:07:34.243423 43969 net.cpp:240] fc3 does not need backward computation.
…
