…
17-09-2015 09:16:20 - ERROR: I0917 09:16:20.869714 33462 net.cpp:435] Input 0 -> data
17-09-2015 09:16:20 - ERROR: I0917 09:16:20.869956 33462 layer_factory.hpp:76] Creating layer conv1
17-09-2015 09:16:20 - ERROR: I0917 09:16:20.870003 33462 net.cpp:110] Creating Layer conv1
17-09-2015 09:16:20 - ERROR: I0917 09:16:20.870014 33462 net.cpp:477] conv1 <- data
17-09-2015 09:16:20 - ERROR: I0917 09:16:20.870026 33462 net.cpp:433] conv1 -> conv1
17-09-2015 09:16:20 - ERROR: I0917 09:16:20.871492 33462 net.cpp:155] Setting up conv1
17-09-2015 09:16:20 - ERROR: I0917 09:16:20.871590 33462 net.cpp:163] Top shape: 256 12 48 48 (7077888)
17-09-2015 09:16:20 - ERROR: I0917 09:16:20.871759 33462 layer_factory.hpp:76] Creating layer relu1
17-09-2015 09:16:20 - ERROR: I0917 09:16:20.871773 33462 net.cpp:110] Creating Layer relu1
17-09-2015 09:16:20 - ERROR: I0917 09:16:20.871775 33462 net.cpp:477] relu1 <- conv1
17-09-2015 09:16:20 - ERROR: I0917 09:16:20.871780 33462 net.cpp:419] relu1 -> conv1 (in-place)
17-09-2015 09:16:20 - ERROR: I0917 09:16:20.871793 33462 net.cpp:155] Setting up relu1
17-09-2015 09:16:20 - ERROR: I0917 09:16:20.871803 33462 net.cpp:163] Top shape: 256 12 48 48 (7077888)
17-09-2015 09:16:20 - ERROR: I0917 09:16:20.871806 33462 layer_factory.hpp:76] Creating layer pool1
17-09-2015 09:16:20 - ERROR: I0917 09:16:20.871815 33462 net.cpp:110] Creating Layer pool1
17-09-2015 09:16:20 - ERROR: I0917 09:16:20.871819 33462 net.cpp:477] pool1 <- conv1
17-09-2015 09:16:20 - ERROR: I0917 09:16:20.871861 33462 net.cpp:433] pool1 -> pool1
17-09-2015 09:16:20 - ERROR: I0917 09:16:20.871944 33462 net.cpp:155] Setting up pool1
17-09-2015 09:16:20 - ERROR: I0917 09:16:20.871961 33462 net.cpp:163] Top shape: 256 12 24 24 (1769472)
17-09-2015 09:16:20 - ERROR: I0917 09:16:20.872007 33462 layer_factory.hpp:76] Creating layer conv2
17-09-2015 09:16:20 - ERROR: I0917 09:16:20.872025 33462 net.cpp:110] Creating Layer conv2
17-09-2015 09:16:20 - ERROR: I0917 09:16:20.872030 33462 net.cpp:477] conv2 <- pool1
17-09-2015 09:16:20 - ERROR: I0917 09:16:20.872036 33462 net.cpp:433] conv2 -> conv2
17-09-2015 09:16:20 - ERROR: I0917 09:16:20.872628 33462 net.cpp:155] Setting up conv2
17-09-2015 09:16:20 - ERROR: I0917 09:16:20.872678 33462 net.cpp:163] Top shape: 256 48 25 25 (7680000)
17-09-2015 09:16:20 - ERROR: I0917 09:16:20.872689 33462 layer_factory.hpp:76] Creating layer relu2
17-09-2015 09:16:20 - ERROR: I0917 09:16:20.872702 33462 net.cpp:110] Creating Layer relu2
17-09-2015 09:16:20 - ERROR: I0917 09:16:20.872705 33462 net.cpp:477] relu2 <- conv2
17-09-2015 09:16:20 - ERROR: I0917 09:16:20.872710 33462 net.cpp:419] relu2 -> conv2 (in-place)
17-09-2015 09:16:20 - ERROR: I0917 09:16:20.872715 33462 net.cpp:155] Setting up relu2
17-09-2015 09:16:20 - ERROR: I0917 09:16:20.872721 33462 net.cpp:163] Top shape: 256 48 25 25 (7680000)
17-09-2015 09:16:20 - ERROR: I0917 09:16:20.872725 33462 layer_factory.hpp:76] Creating layer pool2
17-09-2015 09:16:20 - ERROR: I0917 09:16:20.872728 33462 net.cpp:110] Creating Layer pool2
17-09-2015 09:16:20 - ERROR: I0917 09:16:20.872774 33462 net.cpp:477] pool2 <- conv2
17-09-2015 09:16:20 - ERROR: I0917 09:16:20.872787 33462 net.cpp:433] pool2 -> pool2
17-09-2015 09:16:20 - ERROR: I0917 09:16:20.872797 33462 net.cpp:155] Setting up pool2
17-09-2015 09:16:20 - ERROR: I0917 09:16:20.872802 33462 net.cpp:163] Top shape: 256 48 12 12 (1769472)
17-09-2015 09:16:20 - ERROR: I0917 09:16:20.872804 33462 layer_factory.hpp:76] Creating layer fc3
17-09-2015 09:16:20 - ERROR: I0917 09:16:20.872817 33462 net.cpp:110] Creating Layer fc3
17-09-2015 09:16:20 - ERROR: I0917 09:16:20.872820 33462 net.cpp:477] fc3 <- pool2
17-09-2015 09:16:20 - ERROR: I0917 09:16:20.872830 33462 net.cpp:433] fc3 -> fc3
17-09-2015 09:16:21 - ERROR: I0917 09:16:21.111387 33462 net.cpp:155] Setting up fc3
17-09-2015 09:16:21 - ERROR: I0917 09:16:21.111467 33462 net.cpp:163] Top shape: 256 1024 (262144)
17-09-2015 09:16:21 - ERROR: I0917 09:16:21.111482 33462 layer_factory.hpp:76] Creating layer relu3
17-09-2015 09:16:21 - ERROR: I0917 09:16:21.111490 33462 net.cpp:110] Creating Layer relu3
17-09-2015 09:16:21 - ERROR: I0917 09:16:21.111495 33462 net.cpp:477] relu3 <- fc3
17-09-2015 09:16:21 - ERROR: I0917 09:16:21.111500 33462 net.cpp:419] relu3 -> fc3 (in-place)
17-09-2015 09:16:21 - ERROR: I0917 09:16:21.111507 33462 net.cpp:155] Setting up relu3
17-09-2015 09:16:21 - ERROR: I0917 09:16:21.111511 33462 net.cpp:163] Top shape: 256 1024 (262144)
17-09-2015 09:16:21 - ERROR: I0917 09:16:21.111513 33462 layer_factory.hpp:76] Creating layer fc4
17-09-2015 09:16:21 - ERROR: I0917 09:16:21.111527 33462 net.cpp:110] Creating Layer fc4
17-09-2015 09:16:21 - ERROR: I0917 09:16:21.111531 33462 net.cpp:477] fc4 <- fc3
17-09-2015 09:16:21 - ERROR: I0917 09:16:21.111536 33462 net.cpp:433] fc4 -> fc4
17-09-2015 09:16:21 - ERROR: I0917 09:16:21.111722 33462 net.cpp:155] Setting up fc4
17-09-2015 09:16:21 - ERROR: I0917 09:16:21.111737 33462 net.cpp:163] Top shape: 256 2 (512)
17-09-2015 09:16:21 - ERROR: I0917 09:16:21.111743 33462 layer_factory.hpp:76] Creating layer prob
17-09-2015 09:16:21 - ERROR: I0917 09:16:21.111754 33462 net.cpp:110] Creating Layer prob
17-09-2015 09:16:21 - ERROR: I0917 09:16:21.111767 33462 net.cpp:477] prob <- fc4
17-09-2015 09:16:21 - ERROR: I0917 09:16:21.111810 33462 net.cpp:433] prob -> prob
17-09-2015 09:16:21 - ERROR: I0917 09:16:21.111826 33462 net.cpp:155] Setting up prob
17-09-2015 09:16:21 - ERROR: I0917 09:16:21.111831 33462 net.cpp:163] Top shape: 256 2 (512)
17-09-2015 09:16:21 - ERROR: I0917 09:16:21.111835 33462 net.cpp:240] prob does not need backward computation.
17-09-2015 09:16:21 - ERROR: I0917 09:16:21.111837 33462 net.cpp:240] fc4 does not need backward computation.
17-09-2015 09:16:21 - ERROR: I0917 09:16:21.111840 33462 net.cpp:240] relu3 does not need backward computation.
17-09-2015 09:16:21 - ERROR: I0917 09:16:21.111842 33462 net.cpp:240] fc3 does not need backward computation.
…
