…
2015-09-17 21:16:47 - ERROR: I0917 21:16:46.991966 23557 net.cpp:434] Input 0 -> data
2015-09-17 21:16:47 - ERROR: I0917 21:16:46.992002 23557 layer_factory.hpp:75] Creating layer conv1
2015-09-17 21:16:47 - ERROR: I0917 21:16:46.992017 23557 net.cpp:110] Creating Layer conv1
2015-09-17 21:16:47 - ERROR: I0917 21:16:46.992023 23557 net.cpp:476] conv1 <- data
2015-09-17 21:16:47 - ERROR: I0917 21:16:46.992033 23557 net.cpp:432] conv1 -> conv1
2015-09-17 21:16:47 - ERROR: I0917 21:16:46.992447 23557 net.cpp:155] Setting up conv1
2015-09-17 21:16:47 - ERROR: I0917 21:16:46.992466 23557 net.cpp:163] Top shape: 256 12 48 48 (7077888)
2015-09-17 21:16:47 - ERROR: I0917 21:16:46.992487 23557 layer_factory.hpp:75] Creating layer relu1
2015-09-17 21:16:47 - ERROR: I0917 21:16:46.992496 23557 net.cpp:110] Creating Layer relu1
2015-09-17 21:16:47 - ERROR: I0917 21:16:46.992501 23557 net.cpp:476] relu1 <- conv1
2015-09-17 21:16:47 - ERROR: I0917 21:16:46.992507 23557 net.cpp:419] relu1 -> conv1 (in-place)
2015-09-17 21:16:47 - ERROR: I0917 21:16:46.992519 23557 net.cpp:155] Setting up relu1
2015-09-17 21:16:47 - ERROR: I0917 21:16:46.992525 23557 net.cpp:163] Top shape: 256 12 48 48 (7077888)
2015-09-17 21:16:47 - ERROR: I0917 21:16:46.992530 23557 layer_factory.hpp:75] Creating layer pool1
2015-09-17 21:16:47 - ERROR: I0917 21:16:46.992537 23557 net.cpp:110] Creating Layer pool1
2015-09-17 21:16:47 - ERROR: I0917 21:16:46.992542 23557 net.cpp:476] pool1 <- conv1
2015-09-17 21:16:47 - ERROR: I0917 21:16:46.992548 23557 net.cpp:432] pool1 -> pool1
2015-09-17 21:16:47 - ERROR: I0917 21:16:46.992566 23557 net.cpp:155] Setting up pool1
2015-09-17 21:16:47 - ERROR: I0917 21:16:46.992573 23557 net.cpp:163] Top shape: 256 12 24 24 (1769472)
2015-09-17 21:16:47 - ERROR: I0917 21:16:46.992578 23557 layer_factory.hpp:75] Creating layer conv2
2015-09-17 21:16:47 - ERROR: I0917 21:16:46.992586 23557 net.cpp:110] Creating Layer conv2
2015-09-17 21:16:47 - ERROR: I0917 21:16:46.992590 23557 net.cpp:476] conv2 <- pool1
2015-09-17 21:16:47 - ERROR: I0917 21:16:46.992599 23557 net.cpp:432] conv2 -> conv2
2015-09-17 21:16:47 - ERROR: I0917 21:16:46.992777 23557 net.cpp:155] Setting up conv2
2015-09-17 21:16:47 - ERROR: I0917 21:16:46.992786 23557 net.cpp:163] Top shape: 256 48 25 25 (7680000)
2015-09-17 21:16:47 - ERROR: I0917 21:16:46.992797 23557 layer_factory.hpp:75] Creating layer relu2
2015-09-17 21:16:47 - ERROR: I0917 21:16:46.992816 23557 net.cpp:110] Creating Layer relu2
2015-09-17 21:16:47 - ERROR: I0917 21:16:46.992822 23557 net.cpp:476] relu2 <- conv2
2015-09-17 21:16:47 - ERROR: I0917 21:16:46.992828 23557 net.cpp:419] relu2 -> conv2 (in-place)
2015-09-17 21:16:47 - ERROR: I0917 21:16:46.992835 23557 net.cpp:155] Setting up relu2
2015-09-17 21:16:47 - ERROR: I0917 21:16:46.992842 23557 net.cpp:163] Top shape: 256 48 25 25 (7680000)
2015-09-17 21:16:47 - ERROR: I0917 21:16:46.992846 23557 layer_factory.hpp:75] Creating layer pool2
2015-09-17 21:16:47 - ERROR: I0917 21:16:46.992852 23557 net.cpp:110] Creating Layer pool2
2015-09-17 21:16:47 - ERROR: I0917 21:16:46.992856 23557 net.cpp:476] pool2 <- conv2
2015-09-17 21:16:47 - ERROR: I0917 21:16:46.992863 23557 net.cpp:432] pool2 -> pool2
2015-09-17 21:16:47 - ERROR: I0917 21:16:46.992872 23557 net.cpp:155] Setting up pool2
2015-09-17 21:16:47 - ERROR: I0917 21:16:46.992879 23557 net.cpp:163] Top shape: 256 48 12 12 (1769472)
2015-09-17 21:16:47 - ERROR: I0917 21:16:46.992884 23557 layer_factory.hpp:75] Creating layer fc3
2015-09-17 21:16:47 - ERROR: I0917 21:16:46.992892 23557 net.cpp:110] Creating Layer fc3
2015-09-17 21:16:47 - ERROR: I0917 21:16:46.992895 23557 net.cpp:476] fc3 <- pool2
2015-09-17 21:16:47 - ERROR: I0917 21:16:46.992902 23557 net.cpp:432] fc3 -> fc3
2015-09-17 21:16:47 - ERROR: I0917 21:16:47.137547 23557 net.cpp:155] Setting up fc3
2015-09-17 21:16:47 - ERROR: I0917 21:16:47.139895 23557 net.cpp:163] Top shape: 256 1024 (262144)
2015-09-17 21:16:47 - ERROR: I0917 21:16:47.141827 23557 layer_factory.hpp:75] Creating layer relu3
2015-09-17 21:16:47 - ERROR: I0917 21:16:47.143633 23557 net.cpp:110] Creating Layer relu3
2015-09-17 21:16:47 - ERROR: I0917 21:16:47.143703 23557 net.cpp:476] relu3 <- fc3
2015-09-17 21:16:47 - ERROR: I0917 21:16:47.145476 23557 net.cpp:419] relu3 -> fc3 (in-place)
2015-09-17 21:16:47 - ERROR: I0917 21:16:47.147244 23557 net.cpp:155] Setting up relu3
2015-09-17 21:16:47 - ERROR: I0917 21:16:47.147301 23557 net.cpp:163] Top shape: 256 1024 (262144)
2015-09-17 21:16:47 - ERROR: I0917 21:16:47.147357 23557 layer_factory.hpp:75] Creating layer fc4
2015-09-17 21:16:47 - ERROR: I0917 21:16:47.147413 23557 net.cpp:110] Creating Layer fc4
2015-09-17 21:16:47 - ERROR: I0917 21:16:47.147456 23557 net.cpp:476] fc4 <- fc3
2015-09-17 21:16:47 - ERROR: I0917 21:16:47.147505 23557 net.cpp:432] fc4 -> fc4
2015-09-17 21:16:47 - ERROR: I0917 21:16:47.147617 23557 net.cpp:155] Setting up fc4
2015-09-17 21:16:47 - ERROR: I0917 21:16:47.147667 23557 net.cpp:163] Top shape: 256 2 (512)
2015-09-17 21:16:47 - ERROR: I0917 21:16:47.147724 23557 layer_factory.hpp:75] Creating layer prob
2015-09-17 21:16:47 - ERROR: I0917 21:16:47.147771 23557 net.cpp:110] Creating Layer prob
2015-09-17 21:16:47 - ERROR: I0917 21:16:47.147814 23557 net.cpp:476] prob <- fc4
2015-09-17 21:16:47 - ERROR: I0917 21:16:47.147857 23557 net.cpp:432] prob -> prob
2015-09-17 21:16:47 - ERROR: I0917 21:16:47.147907 23557 net.cpp:155] Setting up prob
2015-09-17 21:16:47 - ERROR: I0917 21:16:47.147951 23557 net.cpp:163] Top shape: 256 2 (512)
2015-09-17 21:16:47 - ERROR: I0917 21:16:47.147994 23557 net.cpp:240] prob does not need backward computation.
2015-09-17 21:16:47 - ERROR: I0917 21:16:47.148036 23557 net.cpp:240] fc4 does not need backward computation.
2015-09-17 21:16:47 - ERROR: I0917 21:16:47.148077 23557 net.cpp:240] relu3 does not need backward computation.
2015-09-17 21:16:47 - ERROR: I0917 21:16:47.148115 23557 net.cpp:240] fc3 does not need backward computation.
…
