…
17-09-2015 09:16:33 - ERROR: I0917 09:16:33.137006 11417 net.cpp:435] Input 0 -> data
17-09-2015 09:16:33 - ERROR: I0917 09:16:33.137274 11417 layer_factory.hpp:76] Creating layer conv1
17-09-2015 09:16:33 - ERROR: I0917 09:16:33.137395 11417 net.cpp:110] Creating Layer conv1
17-09-2015 09:16:33 - ERROR: I0917 09:16:33.137408 11417 net.cpp:477] conv1 <- data
17-09-2015 09:16:33 - ERROR: I0917 09:16:33.137424 11417 net.cpp:433] conv1 -> conv1
17-09-2015 09:16:33 - ERROR: I0917 09:16:33.138847 11417 net.cpp:155] Setting up conv1
17-09-2015 09:16:33 - ERROR: I0917 09:16:33.138978 11417 net.cpp:163] Top shape: 256 12 48 48 (7077888)
17-09-2015 09:16:33 - ERROR: I0917 09:16:33.139039 11417 layer_factory.hpp:76] Creating layer relu1
17-09-2015 09:16:33 - ERROR: I0917 09:16:33.139050 11417 net.cpp:110] Creating Layer relu1
17-09-2015 09:16:33 - ERROR: I0917 09:16:33.139053 11417 net.cpp:477] relu1 <- conv1
17-09-2015 09:16:33 - ERROR: I0917 09:16:33.139058 11417 net.cpp:419] relu1 -> conv1 (in-place)
17-09-2015 09:16:33 - ERROR: I0917 09:16:33.139071 11417 net.cpp:155] Setting up relu1
17-09-2015 09:16:33 - ERROR: I0917 09:16:33.139145 11417 net.cpp:163] Top shape: 256 12 48 48 (7077888)
17-09-2015 09:16:33 - ERROR: I0917 09:16:33.139159 11417 layer_factory.hpp:76] Creating layer pool1
17-09-2015 09:16:33 - ERROR: I0917 09:16:33.139169 11417 net.cpp:110] Creating Layer pool1
17-09-2015 09:16:33 - ERROR: I0917 09:16:33.139209 11417 net.cpp:477] pool1 <- conv1
17-09-2015 09:16:33 - ERROR: I0917 09:16:33.139216 11417 net.cpp:433] pool1 -> pool1
17-09-2015 09:16:33 - ERROR: I0917 09:16:33.139262 11417 net.cpp:155] Setting up pool1
17-09-2015 09:16:33 - ERROR: I0917 09:16:33.139276 11417 net.cpp:163] Top shape: 256 12 24 24 (1769472)
17-09-2015 09:16:33 - ERROR: I0917 09:16:33.139279 11417 layer_factory.hpp:76] Creating layer conv2
17-09-2015 09:16:33 - ERROR: I0917 09:16:33.139286 11417 net.cpp:110] Creating Layer conv2
17-09-2015 09:16:33 - ERROR: I0917 09:16:33.139288 11417 net.cpp:477] conv2 <- pool1
17-09-2015 09:16:33 - ERROR: I0917 09:16:33.139297 11417 net.cpp:433] conv2 -> conv2
17-09-2015 09:16:33 - ERROR: I0917 09:16:33.140092 11417 net.cpp:155] Setting up conv2
17-09-2015 09:16:33 - ERROR: I0917 09:16:33.140106 11417 net.cpp:163] Top shape: 256 48 25 25 (7680000)
17-09-2015 09:16:33 - ERROR: I0917 09:16:33.140120 11417 layer_factory.hpp:76] Creating layer relu2
17-09-2015 09:16:33 - ERROR: I0917 09:16:33.140130 11417 net.cpp:110] Creating Layer relu2
17-09-2015 09:16:33 - ERROR: I0917 09:16:33.140133 11417 net.cpp:477] relu2 <- conv2
17-09-2015 09:16:33 - ERROR: I0917 09:16:33.140173 11417 net.cpp:419] relu2 -> conv2 (in-place)
17-09-2015 09:16:33 - ERROR: I0917 09:16:33.140189 11417 net.cpp:155] Setting up relu2
17-09-2015 09:16:33 - ERROR: I0917 09:16:33.140194 11417 net.cpp:163] Top shape: 256 48 25 25 (7680000)
17-09-2015 09:16:33 - ERROR: I0917 09:16:33.140199 11417 layer_factory.hpp:76] Creating layer pool2
17-09-2015 09:16:33 - ERROR: I0917 09:16:33.140204 11417 net.cpp:110] Creating Layer pool2
17-09-2015 09:16:33 - ERROR: I0917 09:16:33.140213 11417 net.cpp:477] pool2 <- conv2
17-09-2015 09:16:33 - ERROR: I0917 09:16:33.140218 11417 net.cpp:433] pool2 -> pool2
17-09-2015 09:16:33 - ERROR: I0917 09:16:33.140226 11417 net.cpp:155] Setting up pool2
17-09-2015 09:16:33 - ERROR: I0917 09:16:33.140231 11417 net.cpp:163] Top shape: 256 48 12 12 (1769472)
17-09-2015 09:16:33 - ERROR: I0917 09:16:33.140234 11417 layer_factory.hpp:76] Creating layer fc3
17-09-2015 09:16:33 - ERROR: I0917 09:16:33.140243 11417 net.cpp:110] Creating Layer fc3
17-09-2015 09:16:33 - ERROR: I0917 09:16:33.140244 11417 net.cpp:477] fc3 <- pool2
17-09-2015 09:16:33 - ERROR: I0917 09:16:33.140249 11417 net.cpp:433] fc3 -> fc3
17-09-2015 09:16:33 - ERROR: I0917 09:16:33.380163 11417 net.cpp:155] Setting up fc3
17-09-2015 09:16:33 - ERROR: I0917 09:16:33.380250 11417 net.cpp:163] Top shape: 256 1024 (262144)
17-09-2015 09:16:33 - ERROR: I0917 09:16:33.380267 11417 layer_factory.hpp:76] Creating layer relu3
17-09-2015 09:16:33 - ERROR: I0917 09:16:33.380282 11417 net.cpp:110] Creating Layer relu3
17-09-2015 09:16:33 - ERROR: I0917 09:16:33.380287 11417 net.cpp:477] relu3 <- fc3
17-09-2015 09:16:33 - ERROR: I0917 09:16:33.380293 11417 net.cpp:419] relu3 -> fc3 (in-place)
17-09-2015 09:16:33 - ERROR: I0917 09:16:33.380307 11417 net.cpp:155] Setting up relu3
17-09-2015 09:16:33 - ERROR: I0917 09:16:33.380353 11417 net.cpp:163] Top shape: 256 1024 (262144)
17-09-2015 09:16:33 - ERROR: I0917 09:16:33.380360 11417 layer_factory.hpp:76] Creating layer fc4
17-09-2015 09:16:33 - ERROR: I0917 09:16:33.380412 11417 net.cpp:110] Creating Layer fc4
17-09-2015 09:16:33 - ERROR: I0917 09:16:33.380451 11417 net.cpp:477] fc4 <- fc3
17-09-2015 09:16:33 - ERROR: I0917 09:16:33.380473 11417 net.cpp:433] fc4 -> fc4
17-09-2015 09:16:33 - ERROR: I0917 09:16:33.380615 11417 net.cpp:155] Setting up fc4
17-09-2015 09:16:33 - ERROR: I0917 09:16:33.380661 11417 net.cpp:163] Top shape: 256 2 (512)
17-09-2015 09:16:33 - ERROR: I0917 09:16:33.380671 11417 layer_factory.hpp:76] Creating layer prob
17-09-2015 09:16:33 - ERROR: I0917 09:16:33.380676 11417 net.cpp:110] Creating Layer prob
17-09-2015 09:16:33 - ERROR: I0917 09:16:33.380681 11417 net.cpp:477] prob <- fc4
17-09-2015 09:16:33 - ERROR: I0917 09:16:33.380692 11417 net.cpp:433] prob -> prob
17-09-2015 09:16:33 - ERROR: I0917 09:16:33.380702 11417 net.cpp:155] Setting up prob
17-09-2015 09:16:33 - ERROR: I0917 09:16:33.380707 11417 net.cpp:163] Top shape: 256 2 (512)
17-09-2015 09:16:33 - ERROR: I0917 09:16:33.380710 11417 net.cpp:240] prob does not need backward computation.
17-09-2015 09:16:33 - ERROR: I0917 09:16:33.380713 11417 net.cpp:240] fc4 does not need backward computation.
17-09-2015 09:16:33 - ERROR: I0917 09:16:33.380717 11417 net.cpp:240] relu3 does not need backward computation.
17-09-2015 09:16:33 - ERROR: I0917 09:16:33.380718 11417 net.cpp:240] fc3 does not need backward computation.
…
