…
21-09-2015 03:53:14 - ERROR: I0921 15:53:14.246222 19113 net.cpp:435] Input 0 -> data
21-09-2015 03:53:14 - ERROR: I0921 15:53:14.246300 19113 layer_factory.hpp:76] Creating layer conv1
21-09-2015 03:53:14 - ERROR: I0921 15:53:14.246323 19113 net.cpp:110] Creating Layer conv1
21-09-2015 03:53:14 - ERROR: I0921 15:53:14.246331 19113 net.cpp:477] conv1 <- data
21-09-2015 03:53:14 - ERROR: I0921 15:53:14.246341 19113 net.cpp:433] conv1 -> conv1
21-09-2015 03:53:14 - ERROR: I0921 15:53:14.247001 19113 net.cpp:155] Setting up conv1
21-09-2015 03:53:14 - ERROR: I0921 15:53:14.247036 19113 net.cpp:163] Top shape: 256 12 48 48 (7077888)
21-09-2015 03:53:14 - ERROR: I0921 15:53:14.247072 19113 layer_factory.hpp:76] Creating layer relu1
21-09-2015 03:53:14 - ERROR: I0921 15:53:14.247081 19113 net.cpp:110] Creating Layer relu1
21-09-2015 03:53:14 - ERROR: I0921 15:53:14.247083 19113 net.cpp:477] relu1 <- conv1
21-09-2015 03:53:14 - ERROR: I0921 15:53:14.247088 19113 net.cpp:419] relu1 -> conv1 (in-place)
21-09-2015 03:53:14 - ERROR: I0921 15:53:14.247097 19113 net.cpp:155] Setting up relu1
21-09-2015 03:53:14 - ERROR: I0921 15:53:14.247102 19113 net.cpp:163] Top shape: 256 12 48 48 (7077888)
21-09-2015 03:53:14 - ERROR: I0921 15:53:14.247104 19113 layer_factory.hpp:76] Creating layer pool1
21-09-2015 03:53:14 - ERROR: I0921 15:53:14.247109 19113 net.cpp:110] Creating Layer pool1
21-09-2015 03:53:14 - ERROR: I0921 15:53:14.247112 19113 net.cpp:477] pool1 <- conv1
21-09-2015 03:53:14 - ERROR: I0921 15:53:14.247117 19113 net.cpp:433] pool1 -> pool1
21-09-2015 03:53:14 - ERROR: I0921 15:53:14.247139 19113 net.cpp:155] Setting up pool1
21-09-2015 03:53:14 - ERROR: I0921 15:53:14.247149 19113 net.cpp:163] Top shape: 256 12 24 24 (1769472)
21-09-2015 03:53:14 - ERROR: I0921 15:53:14.247153 19113 layer_factory.hpp:76] Creating layer conv2
21-09-2015 03:53:14 - ERROR: I0921 15:53:14.247159 19113 net.cpp:110] Creating Layer conv2
21-09-2015 03:53:14 - ERROR: I0921 15:53:14.247161 19113 net.cpp:477] conv2 <- pool1
21-09-2015 03:53:14 - ERROR: I0921 15:53:14.247166 19113 net.cpp:433] conv2 -> conv2
21-09-2015 03:53:14 - ERROR: I0921 15:53:14.247484 19113 net.cpp:155] Setting up conv2
21-09-2015 03:53:14 - ERROR: I0921 15:53:14.247491 19113 net.cpp:163] Top shape: 256 48 25 25 (7680000)
21-09-2015 03:53:14 - ERROR: I0921 15:53:14.247499 19113 layer_factory.hpp:76] Creating layer relu2
21-09-2015 03:53:14 - ERROR: I0921 15:53:14.247504 19113 net.cpp:110] Creating Layer relu2
21-09-2015 03:53:14 - ERROR: I0921 15:53:14.247508 19113 net.cpp:477] relu2 <- conv2
21-09-2015 03:53:14 - ERROR: I0921 15:53:14.247512 19113 net.cpp:419] relu2 -> conv2 (in-place)
21-09-2015 03:53:14 - ERROR: I0921 15:53:14.247516 19113 net.cpp:155] Setting up relu2
21-09-2015 03:53:14 - ERROR: I0921 15:53:14.247520 19113 net.cpp:163] Top shape: 256 48 25 25 (7680000)
21-09-2015 03:53:14 - ERROR: I0921 15:53:14.247524 19113 layer_factory.hpp:76] Creating layer pool2
21-09-2015 03:53:14 - ERROR: I0921 15:53:14.247526 19113 net.cpp:110] Creating Layer pool2
21-09-2015 03:53:14 - ERROR: I0921 15:53:14.247529 19113 net.cpp:477] pool2 <- conv2
21-09-2015 03:53:14 - ERROR: I0921 15:53:14.247532 19113 net.cpp:433] pool2 -> pool2
21-09-2015 03:53:14 - ERROR: I0921 15:53:14.247539 19113 net.cpp:155] Setting up pool2
21-09-2015 03:53:14 - ERROR: I0921 15:53:14.247545 19113 net.cpp:163] Top shape: 256 48 12 12 (1769472)
21-09-2015 03:53:14 - ERROR: I0921 15:53:14.247546 19113 layer_factory.hpp:76] Creating layer fc3
21-09-2015 03:53:14 - ERROR: I0921 15:53:14.247553 19113 net.cpp:110] Creating Layer fc3
21-09-2015 03:53:14 - ERROR: I0921 15:53:14.247555 19113 net.cpp:477] fc3 <- pool2
21-09-2015 03:53:14 - ERROR: I0921 15:53:14.247560 19113 net.cpp:433] fc3 -> fc3
21-09-2015 03:53:14 - ERROR: I0921 15:53:14.482034 19113 net.cpp:155] Setting up fc3
21-09-2015 03:53:14 - ERROR: I0921 15:53:14.482126 19113 net.cpp:163] Top shape: 256 1024 (262144)
21-09-2015 03:53:14 - ERROR: I0921 15:53:14.482143 19113 layer_factory.hpp:76] Creating layer relu3
21-09-2015 03:53:14 - ERROR: I0921 15:53:14.482152 19113 net.cpp:110] Creating Layer relu3
21-09-2015 03:53:14 - ERROR: I0921 15:53:14.482156 19113 net.cpp:477] relu3 <- fc3
21-09-2015 03:53:14 - ERROR: I0921 15:53:14.482161 19113 net.cpp:419] relu3 -> fc3 (in-place)
21-09-2015 03:53:14 - ERROR: I0921 15:53:14.482169 19113 net.cpp:155] Setting up relu3
21-09-2015 03:53:14 - ERROR: I0921 15:53:14.482174 19113 net.cpp:163] Top shape: 256 1024 (262144)
21-09-2015 03:53:14 - ERROR: I0921 15:53:14.482177 19113 layer_factory.hpp:76] Creating layer fc4
21-09-2015 03:53:14 - ERROR: I0921 15:53:14.482184 19113 net.cpp:110] Creating Layer fc4
21-09-2015 03:53:14 - ERROR: I0921 15:53:14.482192 19113 net.cpp:477] fc4 <- fc3
21-09-2015 03:53:14 - ERROR: I0921 15:53:14.482198 19113 net.cpp:433] fc4 -> fc4
21-09-2015 03:53:14 - ERROR: I0921 15:53:14.482349 19113 net.cpp:155] Setting up fc4
21-09-2015 03:53:14 - ERROR: I0921 15:53:14.482357 19113 net.cpp:163] Top shape: 256 2 (512)
21-09-2015 03:53:14 - ERROR: I0921 15:53:14.482363 19113 layer_factory.hpp:76] Creating layer prob
21-09-2015 03:53:14 - ERROR: I0921 15:53:14.482369 19113 net.cpp:110] Creating Layer prob
21-09-2015 03:53:14 - ERROR: I0921 15:53:14.482372 19113 net.cpp:477] prob <- fc4
21-09-2015 03:53:14 - ERROR: I0921 15:53:14.482378 19113 net.cpp:433] prob -> prob
21-09-2015 03:53:14 - ERROR: I0921 15:53:14.482388 19113 net.cpp:155] Setting up prob
21-09-2015 03:53:14 - ERROR: I0921 15:53:14.482393 19113 net.cpp:163] Top shape: 256 2 (512)
21-09-2015 03:53:14 - ERROR: I0921 15:53:14.482395 19113 net.cpp:240] prob does not need backward computation.
21-09-2015 03:53:14 - ERROR: I0921 15:53:14.482398 19113 net.cpp:240] fc4 does not need backward computation.
21-09-2015 03:53:14 - ERROR: I0921 15:53:14.482422 19113 net.cpp:240] relu3 does not need backward computation.
21-09-2015 03:53:14 - ERROR: I0921 15:53:14.482426 19113 net.cpp:240] fc3 does not need backward computation.
…
