…
23-09-2015 05:35:20 - ERROR: I0923 17:35:20.742090 47816 net.cpp:435] Input 0 -> data
23-09-2015 05:35:20 - ERROR: I0923 17:35:20.742168 47816 layer_factory.hpp:76] Creating layer conv1
23-09-2015 05:35:20 - ERROR: I0923 17:35:20.742192 47816 net.cpp:110] Creating Layer conv1
23-09-2015 05:35:20 - ERROR: I0923 17:35:20.742199 47816 net.cpp:477] conv1 <- data
23-09-2015 05:35:20 - ERROR: I0923 17:35:20.742209 47816 net.cpp:433] conv1 -> conv1
23-09-2015 05:35:20 - ERROR: I0923 17:35:20.742826 47816 net.cpp:155] Setting up conv1
23-09-2015 05:35:20 - ERROR: I0923 17:35:20.742861 47816 net.cpp:163] Top shape: 256 12 48 48 (7077888)
23-09-2015 05:35:20 - ERROR: I0923 17:35:20.742897 47816 layer_factory.hpp:76] Creating layer relu1
23-09-2015 05:35:20 - ERROR: I0923 17:35:20.742907 47816 net.cpp:110] Creating Layer relu1
23-09-2015 05:35:20 - ERROR: I0923 17:35:20.742909 47816 net.cpp:477] relu1 <- conv1
23-09-2015 05:35:20 - ERROR: I0923 17:35:20.742914 47816 net.cpp:419] relu1 -> conv1 (in-place)
23-09-2015 05:35:20 - ERROR: I0923 17:35:20.742923 47816 net.cpp:155] Setting up relu1
23-09-2015 05:35:20 - ERROR: I0923 17:35:20.742928 47816 net.cpp:163] Top shape: 256 12 48 48 (7077888)
23-09-2015 05:35:20 - ERROR: I0923 17:35:20.742931 47816 layer_factory.hpp:76] Creating layer pool1
23-09-2015 05:35:20 - ERROR: I0923 17:35:20.742936 47816 net.cpp:110] Creating Layer pool1
23-09-2015 05:35:20 - ERROR: I0923 17:35:20.742938 47816 net.cpp:477] pool1 <- conv1
23-09-2015 05:35:20 - ERROR: I0923 17:35:20.742944 47816 net.cpp:433] pool1 -> pool1
23-09-2015 05:35:20 - ERROR: I0923 17:35:20.742965 47816 net.cpp:155] Setting up pool1
23-09-2015 05:35:20 - ERROR: I0923 17:35:20.742976 47816 net.cpp:163] Top shape: 256 12 24 24 (1769472)
23-09-2015 05:35:20 - ERROR: I0923 17:35:20.742980 47816 layer_factory.hpp:76] Creating layer conv2
23-09-2015 05:35:20 - ERROR: I0923 17:35:20.742985 47816 net.cpp:110] Creating Layer conv2
23-09-2015 05:35:20 - ERROR: I0923 17:35:20.742987 47816 net.cpp:477] conv2 <- pool1
23-09-2015 05:35:20 - ERROR: I0923 17:35:20.742992 47816 net.cpp:433] conv2 -> conv2
23-09-2015 05:35:20 - ERROR: I0923 17:35:20.743295 47816 net.cpp:155] Setting up conv2
23-09-2015 05:35:20 - ERROR: I0923 17:35:20.743302 47816 net.cpp:163] Top shape: 256 48 25 25 (7680000)
23-09-2015 05:35:20 - ERROR: I0923 17:35:20.743309 47816 layer_factory.hpp:76] Creating layer relu2
23-09-2015 05:35:20 - ERROR: I0923 17:35:20.743314 47816 net.cpp:110] Creating Layer relu2
23-09-2015 05:35:20 - ERROR: I0923 17:35:20.743317 47816 net.cpp:477] relu2 <- conv2
23-09-2015 05:35:20 - ERROR: I0923 17:35:20.743321 47816 net.cpp:419] relu2 -> conv2 (in-place)
23-09-2015 05:35:20 - ERROR: I0923 17:35:20.743326 47816 net.cpp:155] Setting up relu2
23-09-2015 05:35:20 - ERROR: I0923 17:35:20.743330 47816 net.cpp:163] Top shape: 256 48 25 25 (7680000)
23-09-2015 05:35:20 - ERROR: I0923 17:35:20.743332 47816 layer_factory.hpp:76] Creating layer pool2
23-09-2015 05:35:20 - ERROR: I0923 17:35:20.743336 47816 net.cpp:110] Creating Layer pool2
23-09-2015 05:35:20 - ERROR: I0923 17:35:20.743338 47816 net.cpp:477] pool2 <- conv2
23-09-2015 05:35:20 - ERROR: I0923 17:35:20.743342 47816 net.cpp:433] pool2 -> pool2
23-09-2015 05:35:20 - ERROR: I0923 17:35:20.743348 47816 net.cpp:155] Setting up pool2
23-09-2015 05:35:20 - ERROR: I0923 17:35:20.743353 47816 net.cpp:163] Top shape: 256 48 12 12 (1769472)
23-09-2015 05:35:20 - ERROR: I0923 17:35:20.743355 47816 layer_factory.hpp:76] Creating layer fc3
23-09-2015 05:35:20 - ERROR: I0923 17:35:20.743361 47816 net.cpp:110] Creating Layer fc3
23-09-2015 05:35:20 - ERROR: I0923 17:35:20.743365 47816 net.cpp:477] fc3 <- pool2
23-09-2015 05:35:20 - ERROR: I0923 17:35:20.743368 47816 net.cpp:433] fc3 -> fc3
23-09-2015 05:35:20 - ERROR: I0923 17:35:20.983616 47816 net.cpp:155] Setting up fc3
23-09-2015 05:35:20 - ERROR: I0923 17:35:20.983706 47816 net.cpp:163] Top shape: 256 1024 (262144)
23-09-2015 05:35:20 - ERROR: I0923 17:35:20.983723 47816 layer_factory.hpp:76] Creating layer relu3
23-09-2015 05:35:20 - ERROR: I0923 17:35:20.983733 47816 net.cpp:110] Creating Layer relu3
23-09-2015 05:35:20 - ERROR: I0923 17:35:20.983737 47816 net.cpp:477] relu3 <- fc3
23-09-2015 05:35:20 - ERROR: I0923 17:35:20.983744 47816 net.cpp:419] relu3 -> fc3 (in-place)
23-09-2015 05:35:20 - ERROR: I0923 17:35:20.983753 47816 net.cpp:155] Setting up relu3
23-09-2015 05:35:20 - ERROR: I0923 17:35:20.983757 47816 net.cpp:163] Top shape: 256 1024 (262144)
23-09-2015 05:35:20 - ERROR: I0923 17:35:20.983763 47816 layer_factory.hpp:76] Creating layer fc4
23-09-2015 05:35:20 - ERROR: I0923 17:35:20.983772 47816 net.cpp:110] Creating Layer fc4
23-09-2015 05:35:20 - ERROR: I0923 17:35:20.983775 47816 net.cpp:477] fc4 <- fc3
23-09-2015 05:35:20 - ERROR: I0923 17:35:20.983782 47816 net.cpp:433] fc4 -> fc4
23-09-2015 05:35:20 - ERROR: I0923 17:35:20.983965 47816 net.cpp:155] Setting up fc4
23-09-2015 05:35:20 - ERROR: I0923 17:35:20.983973 47816 net.cpp:163] Top shape: 256 2 (512)
23-09-2015 05:35:20 - ERROR: I0923 17:35:20.983979 47816 layer_factory.hpp:76] Creating layer prob
23-09-2015 05:35:20 - ERROR: I0923 17:35:20.984028 47816 net.cpp:110] Creating Layer prob
23-09-2015 05:35:20 - ERROR: I0923 17:35:20.984050 47816 net.cpp:477] prob <- fc4
23-09-2015 05:35:20 - ERROR: I0923 17:35:20.984091 47816 net.cpp:433] prob -> prob
23-09-2015 05:35:20 - ERROR: I0923 17:35:20.984103 47816 net.cpp:155] Setting up prob
23-09-2015 05:35:20 - ERROR: I0923 17:35:20.984108 47816 net.cpp:163] Top shape: 256 2 (512)
23-09-2015 05:35:20 - ERROR: I0923 17:35:20.984112 47816 net.cpp:240] prob does not need backward computation.
23-09-2015 05:35:20 - ERROR: I0923 17:35:20.984117 47816 net.cpp:240] fc4 does not need backward computation.
23-09-2015 05:35:20 - ERROR: I0923 17:35:20.984146 47816 net.cpp:240] relu3 does not need backward computation.
23-09-2015 05:35:20 - ERROR: I0923 17:35:20.984190 47816 net.cpp:240] fc3 does not need backward computation.
…
