…
17-09-2015 09:20:35 - ERROR: I0917 09:20:35.822398 32892 net.cpp:435] Input 0 -> data
17-09-2015 09:20:35 - ERROR: I0917 09:20:35.822715 32892 layer_factory.hpp:76] Creating layer conv1
17-09-2015 09:20:35 - ERROR: I0917 09:20:35.822890 32892 net.cpp:110] Creating Layer conv1
17-09-2015 09:20:35 - ERROR: I0917 09:20:35.822971 32892 net.cpp:477] conv1 <- data
17-09-2015 09:20:35 - ERROR: I0917 09:20:35.823062 32892 net.cpp:433] conv1 -> conv1
17-09-2015 09:20:35 - ERROR: I0917 09:20:35.824518 32892 net.cpp:155] Setting up conv1
17-09-2015 09:20:35 - ERROR: I0917 09:20:35.824656 32892 net.cpp:163] Top shape: 256 12 48 48 (7077888)
17-09-2015 09:20:35 - ERROR: I0917 09:20:35.824789 32892 layer_factory.hpp:76] Creating layer relu1
17-09-2015 09:20:35 - ERROR: I0917 09:20:35.824811 32892 net.cpp:110] Creating Layer relu1
17-09-2015 09:20:35 - ERROR: I0917 09:20:35.824816 32892 net.cpp:477] relu1 <- conv1
17-09-2015 09:20:35 - ERROR: I0917 09:20:35.824863 32892 net.cpp:419] relu1 -> conv1 (in-place)
17-09-2015 09:20:35 - ERROR: I0917 09:20:35.824954 32892 net.cpp:155] Setting up relu1
17-09-2015 09:20:35 - ERROR: I0917 09:20:35.824998 32892 net.cpp:163] Top shape: 256 12 48 48 (7077888)
17-09-2015 09:20:35 - ERROR: I0917 09:20:35.825043 32892 layer_factory.hpp:76] Creating layer pool1
17-09-2015 09:20:35 - ERROR: I0917 09:20:35.825053 32892 net.cpp:110] Creating Layer pool1
17-09-2015 09:20:35 - ERROR: I0917 09:20:35.825057 32892 net.cpp:477] pool1 <- conv1
17-09-2015 09:20:35 - ERROR: I0917 09:20:35.825064 32892 net.cpp:433] pool1 -> pool1
17-09-2015 09:20:35 - ERROR: I0917 09:20:35.825186 32892 net.cpp:155] Setting up pool1
17-09-2015 09:20:35 - ERROR: I0917 09:20:35.825242 32892 net.cpp:163] Top shape: 256 12 24 24 (1769472)
17-09-2015 09:20:35 - ERROR: I0917 09:20:35.825253 32892 layer_factory.hpp:76] Creating layer conv2
17-09-2015 09:20:35 - ERROR: I0917 09:20:35.825296 32892 net.cpp:110] Creating Layer conv2
17-09-2015 09:20:35 - ERROR: I0917 09:20:35.825341 32892 net.cpp:477] conv2 <- pool1
17-09-2015 09:20:35 - ERROR: I0917 09:20:35.825387 32892 net.cpp:433] conv2 -> conv2
17-09-2015 09:20:35 - ERROR: I0917 09:20:35.826175 32892 net.cpp:155] Setting up conv2
17-09-2015 09:20:35 - ERROR: I0917 09:20:35.826184 32892 net.cpp:163] Top shape: 256 48 25 25 (7680000)
17-09-2015 09:20:35 - ERROR: I0917 09:20:35.826206 32892 layer_factory.hpp:76] Creating layer relu2
17-09-2015 09:20:35 - ERROR: I0917 09:20:35.826217 32892 net.cpp:110] Creating Layer relu2
17-09-2015 09:20:35 - ERROR: I0917 09:20:35.826220 32892 net.cpp:477] relu2 <- conv2
17-09-2015 09:20:35 - ERROR: I0917 09:20:35.826268 32892 net.cpp:419] relu2 -> conv2 (in-place)
17-09-2015 09:20:35 - ERROR: I0917 09:20:35.826282 32892 net.cpp:155] Setting up relu2
17-09-2015 09:20:35 - ERROR: I0917 09:20:35.826287 32892 net.cpp:163] Top shape: 256 48 25 25 (7680000)
17-09-2015 09:20:35 - ERROR: I0917 09:20:35.826288 32892 layer_factory.hpp:76] Creating layer pool2
17-09-2015 09:20:35 - ERROR: I0917 09:20:35.826293 32892 net.cpp:110] Creating Layer pool2
17-09-2015 09:20:35 - ERROR: I0917 09:20:35.826297 32892 net.cpp:477] pool2 <- conv2
17-09-2015 09:20:35 - ERROR: I0917 09:20:35.826303 32892 net.cpp:433] pool2 -> pool2
17-09-2015 09:20:35 - ERROR: I0917 09:20:35.826351 32892 net.cpp:155] Setting up pool2
17-09-2015 09:20:35 - ERROR: I0917 09:20:35.826359 32892 net.cpp:163] Top shape: 256 48 12 12 (1769472)
17-09-2015 09:20:35 - ERROR: I0917 09:20:35.826362 32892 layer_factory.hpp:76] Creating layer fc3
17-09-2015 09:20:35 - ERROR: I0917 09:20:35.826370 32892 net.cpp:110] Creating Layer fc3
17-09-2015 09:20:35 - ERROR: I0917 09:20:35.826375 32892 net.cpp:477] fc3 <- pool2
17-09-2015 09:20:35 - ERROR: I0917 09:20:35.826382 32892 net.cpp:433] fc3 -> fc3
17-09-2015 09:20:36 - ERROR: I0917 09:20:36.061449 32892 net.cpp:155] Setting up fc3
17-09-2015 09:20:36 - ERROR: I0917 09:20:36.061532 32892 net.cpp:163] Top shape: 256 1024 (262144)
17-09-2015 09:20:36 - ERROR: I0917 09:20:36.061552 32892 layer_factory.hpp:76] Creating layer relu3
17-09-2015 09:20:36 - ERROR: I0917 09:20:36.061559 32892 net.cpp:110] Creating Layer relu3
17-09-2015 09:20:36 - ERROR: I0917 09:20:36.061563 32892 net.cpp:477] relu3 <- fc3
17-09-2015 09:20:36 - ERROR: I0917 09:20:36.061568 32892 net.cpp:419] relu3 -> fc3 (in-place)
17-09-2015 09:20:36 - ERROR: I0917 09:20:36.061575 32892 net.cpp:155] Setting up relu3
17-09-2015 09:20:36 - ERROR: I0917 09:20:36.061579 32892 net.cpp:163] Top shape: 256 1024 (262144)
17-09-2015 09:20:36 - ERROR: I0917 09:20:36.061583 32892 layer_factory.hpp:76] Creating layer fc4
17-09-2015 09:20:36 - ERROR: I0917 09:20:36.061590 32892 net.cpp:110] Creating Layer fc4
17-09-2015 09:20:36 - ERROR: I0917 09:20:36.061595 32892 net.cpp:477] fc4 <- fc3
17-09-2015 09:20:36 - ERROR: I0917 09:20:36.061604 32892 net.cpp:433] fc4 -> fc4
17-09-2015 09:20:36 - ERROR: I0917 09:20:36.061923 32892 net.cpp:155] Setting up fc4
17-09-2015 09:20:36 - ERROR: I0917 09:20:36.061931 32892 net.cpp:163] Top shape: 256 2 (512)
17-09-2015 09:20:36 - ERROR: I0917 09:20:36.061939 32892 layer_factory.hpp:76] Creating layer prob
17-09-2015 09:20:36 - ERROR: I0917 09:20:36.061945 32892 net.cpp:110] Creating Layer prob
17-09-2015 09:20:36 - ERROR: I0917 09:20:36.061950 32892 net.cpp:477] prob <- fc4
17-09-2015 09:20:36 - ERROR: I0917 09:20:36.061960 32892 net.cpp:433] prob -> prob
17-09-2015 09:20:36 - ERROR: I0917 09:20:36.061976 32892 net.cpp:155] Setting up prob
17-09-2015 09:20:36 - ERROR: I0917 09:20:36.062016 32892 net.cpp:163] Top shape: 256 2 (512)
17-09-2015 09:20:36 - ERROR: I0917 09:20:36.062062 32892 net.cpp:240] prob does not need backward computation.
17-09-2015 09:20:36 - ERROR: I0917 09:20:36.062070 32892 net.cpp:240] fc4 does not need backward computation.
17-09-2015 09:20:36 - ERROR: I0917 09:20:36.062074 32892 net.cpp:240] relu3 does not need backward computation.
17-09-2015 09:20:36 - ERROR: I0917 09:20:36.062077 32892 net.cpp:240] fc3 does not need backward computation.
…
