…
21-09-2015 03:48:15 - ERROR: I0921 15:48:15.265928 34604 net.cpp:435] Input 0 -> data
21-09-2015 03:48:15 - ERROR: I0921 15:48:15.266006 34604 layer_factory.hpp:76] Creating layer conv1
21-09-2015 03:48:15 - ERROR: I0921 15:48:15.266029 34604 net.cpp:110] Creating Layer conv1
21-09-2015 03:48:15 - ERROR: I0921 15:48:15.266037 34604 net.cpp:477] conv1 <- data
21-09-2015 03:48:15 - ERROR: I0921 15:48:15.266047 34604 net.cpp:433] conv1 -> conv1
21-09-2015 03:48:15 - ERROR: I0921 15:48:15.266662 34604 net.cpp:155] Setting up conv1
21-09-2015 03:48:15 - ERROR: I0921 15:48:15.266696 34604 net.cpp:163] Top shape: 256 12 48 48 (7077888)
21-09-2015 03:48:15 - ERROR: I0921 15:48:15.266732 34604 layer_factory.hpp:76] Creating layer relu1
21-09-2015 03:48:15 - ERROR: I0921 15:48:15.266741 34604 net.cpp:110] Creating Layer relu1
21-09-2015 03:48:15 - ERROR: I0921 15:48:15.266743 34604 net.cpp:477] relu1 <- conv1
21-09-2015 03:48:15 - ERROR: I0921 15:48:15.266748 34604 net.cpp:419] relu1 -> conv1 (in-place)
21-09-2015 03:48:15 - ERROR: I0921 15:48:15.266758 34604 net.cpp:155] Setting up relu1
21-09-2015 03:48:15 - ERROR: I0921 15:48:15.266762 34604 net.cpp:163] Top shape: 256 12 48 48 (7077888)
21-09-2015 03:48:15 - ERROR: I0921 15:48:15.266765 34604 layer_factory.hpp:76] Creating layer pool1
21-09-2015 03:48:15 - ERROR: I0921 15:48:15.266770 34604 net.cpp:110] Creating Layer pool1
21-09-2015 03:48:15 - ERROR: I0921 15:48:15.266773 34604 net.cpp:477] pool1 <- conv1
21-09-2015 03:48:15 - ERROR: I0921 15:48:15.266777 34604 net.cpp:433] pool1 -> pool1
21-09-2015 03:48:15 - ERROR: I0921 15:48:15.266799 34604 net.cpp:155] Setting up pool1
21-09-2015 03:48:15 - ERROR: I0921 15:48:15.266809 34604 net.cpp:163] Top shape: 256 12 24 24 (1769472)
21-09-2015 03:48:15 - ERROR: I0921 15:48:15.266813 34604 layer_factory.hpp:76] Creating layer conv2
21-09-2015 03:48:15 - ERROR: I0921 15:48:15.266819 34604 net.cpp:110] Creating Layer conv2
21-09-2015 03:48:15 - ERROR: I0921 15:48:15.266821 34604 net.cpp:477] conv2 <- pool1
21-09-2015 03:48:15 - ERROR: I0921 15:48:15.266825 34604 net.cpp:433] conv2 -> conv2
21-09-2015 03:48:15 - ERROR: I0921 15:48:15.267128 34604 net.cpp:155] Setting up conv2
21-09-2015 03:48:15 - ERROR: I0921 15:48:15.267134 34604 net.cpp:163] Top shape: 256 48 25 25 (7680000)
21-09-2015 03:48:15 - ERROR: I0921 15:48:15.267143 34604 layer_factory.hpp:76] Creating layer relu2
21-09-2015 03:48:15 - ERROR: I0921 15:48:15.267148 34604 net.cpp:110] Creating Layer relu2
21-09-2015 03:48:15 - ERROR: I0921 15:48:15.267150 34604 net.cpp:477] relu2 <- conv2
21-09-2015 03:48:15 - ERROR: I0921 15:48:15.267154 34604 net.cpp:419] relu2 -> conv2 (in-place)
21-09-2015 03:48:15 - ERROR: I0921 15:48:15.267159 34604 net.cpp:155] Setting up relu2
21-09-2015 03:48:15 - ERROR: I0921 15:48:15.267163 34604 net.cpp:163] Top shape: 256 48 25 25 (7680000)
21-09-2015 03:48:15 - ERROR: I0921 15:48:15.267165 34604 layer_factory.hpp:76] Creating layer pool2
21-09-2015 03:48:15 - ERROR: I0921 15:48:15.267169 34604 net.cpp:110] Creating Layer pool2
21-09-2015 03:48:15 - ERROR: I0921 15:48:15.267171 34604 net.cpp:477] pool2 <- conv2
21-09-2015 03:48:15 - ERROR: I0921 15:48:15.267175 34604 net.cpp:433] pool2 -> pool2
21-09-2015 03:48:15 - ERROR: I0921 15:48:15.267181 34604 net.cpp:155] Setting up pool2
21-09-2015 03:48:15 - ERROR: I0921 15:48:15.267185 34604 net.cpp:163] Top shape: 256 48 12 12 (1769472)
21-09-2015 03:48:15 - ERROR: I0921 15:48:15.267189 34604 layer_factory.hpp:76] Creating layer fc3
21-09-2015 03:48:15 - ERROR: I0921 15:48:15.267194 34604 net.cpp:110] Creating Layer fc3
21-09-2015 03:48:15 - ERROR: I0921 15:48:15.267196 34604 net.cpp:477] fc3 <- pool2
21-09-2015 03:48:15 - ERROR: I0921 15:48:15.267201 34604 net.cpp:433] fc3 -> fc3
21-09-2015 03:48:15 - ERROR: I0921 15:48:15.509014 34604 net.cpp:155] Setting up fc3
21-09-2015 03:48:15 - ERROR: I0921 15:48:15.509107 34604 net.cpp:163] Top shape: 256 1024 (262144)
21-09-2015 03:48:15 - ERROR: I0921 15:48:15.509125 34604 layer_factory.hpp:76] Creating layer relu3
21-09-2015 03:48:15 - ERROR: I0921 15:48:15.509135 34604 net.cpp:110] Creating Layer relu3
21-09-2015 03:48:15 - ERROR: I0921 15:48:15.509138 34604 net.cpp:477] relu3 <- fc3
21-09-2015 03:48:15 - ERROR: I0921 15:48:15.509145 34604 net.cpp:419] relu3 -> fc3 (in-place)
21-09-2015 03:48:15 - ERROR: I0921 15:48:15.509152 34604 net.cpp:155] Setting up relu3
21-09-2015 03:48:15 - ERROR: I0921 15:48:15.509165 34604 net.cpp:163] Top shape: 256 1024 (262144)
21-09-2015 03:48:15 - ERROR: I0921 15:48:15.509228 34604 layer_factory.hpp:76] Creating layer fc4
21-09-2015 03:48:15 - ERROR: I0921 15:48:15.509244 34604 net.cpp:110] Creating Layer fc4
21-09-2015 03:48:15 - ERROR: I0921 15:48:15.509248 34604 net.cpp:477] fc4 <- fc3
21-09-2015 03:48:15 - ERROR: I0921 15:48:15.509253 34604 net.cpp:433] fc4 -> fc4
21-09-2015 03:48:15 - ERROR: I0921 15:48:15.509515 34604 net.cpp:155] Setting up fc4
21-09-2015 03:48:15 - ERROR: I0921 15:48:15.509526 34604 net.cpp:163] Top shape: 256 2 (512)
21-09-2015 03:48:15 - ERROR: I0921 15:48:15.509552 34604 layer_factory.hpp:76] Creating layer prob
21-09-2015 03:48:15 - ERROR: I0921 15:48:15.509654 34604 net.cpp:110] Creating Layer prob
21-09-2015 03:48:15 - ERROR: I0921 15:48:15.509661 34604 net.cpp:477] prob <- fc4
21-09-2015 03:48:15 - ERROR: I0921 15:48:15.509667 34604 net.cpp:433] prob -> prob
21-09-2015 03:48:15 - ERROR: I0921 15:48:15.509685 34604 net.cpp:155] Setting up prob
21-09-2015 03:48:15 - ERROR: I0921 15:48:15.509706 34604 net.cpp:163] Top shape: 256 2 (512)
21-09-2015 03:48:15 - ERROR: I0921 15:48:15.509711 34604 net.cpp:240] prob does not need backward computation.
21-09-2015 03:48:15 - ERROR: I0921 15:48:15.509713 34604 net.cpp:240] fc4 does not need backward computation.
21-09-2015 03:48:15 - ERROR: I0921 15:48:15.509775 34604 net.cpp:240] relu3 does not need backward computation.
21-09-2015 03:48:15 - ERROR: I0921 15:48:15.509781 34604 net.cpp:240] fc3 does not need backward computation.
…
