…
17-09-2015 09:17:52 - ERROR: I0917 09:17:52.640444 48454 net.cpp:435] Input 0 -> data
17-09-2015 09:17:52 - ERROR: I0917 09:17:52.640781 48454 layer_factory.hpp:76] Creating layer conv1
17-09-2015 09:17:52 - ERROR: I0917 09:17:52.640900 48454 net.cpp:110] Creating Layer conv1
17-09-2015 09:17:52 - ERROR: I0917 09:17:52.640990 48454 net.cpp:477] conv1 <- data
17-09-2015 09:17:52 - ERROR: I0917 09:17:52.641011 48454 net.cpp:433] conv1 -> conv1
17-09-2015 09:17:52 - ERROR: I0917 09:17:52.642585 48454 net.cpp:155] Setting up conv1
17-09-2015 09:17:52 - ERROR: I0917 09:17:52.642746 48454 net.cpp:163] Top shape: 256 12 48 48 (7077888)
17-09-2015 09:17:52 - ERROR: I0917 09:17:52.642920 48454 layer_factory.hpp:76] Creating layer relu1
17-09-2015 09:17:52 - ERROR: I0917 09:17:52.642932 48454 net.cpp:110] Creating Layer relu1
17-09-2015 09:17:52 - ERROR: I0917 09:17:52.642935 48454 net.cpp:477] relu1 <- conv1
17-09-2015 09:17:52 - ERROR: I0917 09:17:52.642942 48454 net.cpp:419] relu1 -> conv1 (in-place)
17-09-2015 09:17:52 - ERROR: I0917 09:17:52.642961 48454 net.cpp:155] Setting up relu1
17-09-2015 09:17:52 - ERROR: I0917 09:17:52.642967 48454 net.cpp:163] Top shape: 256 12 48 48 (7077888)
17-09-2015 09:17:52 - ERROR: I0917 09:17:52.642974 48454 layer_factory.hpp:76] Creating layer pool1
17-09-2015 09:17:52 - ERROR: I0917 09:17:52.643020 48454 net.cpp:110] Creating Layer pool1
17-09-2015 09:17:52 - ERROR: I0917 09:17:52.643061 48454 net.cpp:477] pool1 <- conv1
17-09-2015 09:17:52 - ERROR: I0917 09:17:52.643069 48454 net.cpp:433] pool1 -> pool1
17-09-2015 09:17:52 - ERROR: I0917 09:17:52.643154 48454 net.cpp:155] Setting up pool1
17-09-2015 09:17:52 - ERROR: I0917 09:17:52.643218 48454 net.cpp:163] Top shape: 256 12 24 24 (1769472)
17-09-2015 09:17:52 - ERROR: I0917 09:17:52.643223 48454 layer_factory.hpp:76] Creating layer conv2
17-09-2015 09:17:52 - ERROR: I0917 09:17:52.643229 48454 net.cpp:110] Creating Layer conv2
17-09-2015 09:17:52 - ERROR: I0917 09:17:52.643232 48454 net.cpp:477] conv2 <- pool1
17-09-2015 09:17:52 - ERROR: I0917 09:17:52.643240 48454 net.cpp:433] conv2 -> conv2
17-09-2015 09:17:52 - ERROR: I0917 09:17:52.643954 48454 net.cpp:155] Setting up conv2
17-09-2015 09:17:52 - ERROR: I0917 09:17:52.643965 48454 net.cpp:163] Top shape: 256 48 25 25 (7680000)
17-09-2015 09:17:52 - ERROR: I0917 09:17:52.643982 48454 layer_factory.hpp:76] Creating layer relu2
17-09-2015 09:17:52 - ERROR: I0917 09:17:52.643988 48454 net.cpp:110] Creating Layer relu2
17-09-2015 09:17:52 - ERROR: I0917 09:17:52.643996 48454 net.cpp:477] relu2 <- conv2
17-09-2015 09:17:52 - ERROR: I0917 09:17:52.644001 48454 net.cpp:419] relu2 -> conv2 (in-place)
17-09-2015 09:17:52 - ERROR: I0917 09:17:52.644007 48454 net.cpp:155] Setting up relu2
17-09-2015 09:17:52 - ERROR: I0917 09:17:52.644011 48454 net.cpp:163] Top shape: 256 48 25 25 (7680000)
17-09-2015 09:17:52 - ERROR: I0917 09:17:52.644014 48454 layer_factory.hpp:76] Creating layer pool2
17-09-2015 09:17:52 - ERROR: I0917 09:17:52.644018 48454 net.cpp:110] Creating Layer pool2
17-09-2015 09:17:52 - ERROR: I0917 09:17:52.644021 48454 net.cpp:477] pool2 <- conv2
17-09-2015 09:17:52 - ERROR: I0917 09:17:52.644024 48454 net.cpp:433] pool2 -> pool2
17-09-2015 09:17:52 - ERROR: I0917 09:17:52.644032 48454 net.cpp:155] Setting up pool2
17-09-2015 09:17:52 - ERROR: I0917 09:17:52.644039 48454 net.cpp:163] Top shape: 256 48 12 12 (1769472)
17-09-2015 09:17:52 - ERROR: I0917 09:17:52.644042 48454 layer_factory.hpp:76] Creating layer fc3
17-09-2015 09:17:52 - ERROR: I0917 09:17:52.644085 48454 net.cpp:110] Creating Layer fc3
17-09-2015 09:17:52 - ERROR: I0917 09:17:52.644091 48454 net.cpp:477] fc3 <- pool2
17-09-2015 09:17:52 - ERROR: I0917 09:17:52.644100 48454 net.cpp:433] fc3 -> fc3
17-09-2015 09:17:52 - ERROR: I0917 09:17:52.880787 48454 net.cpp:155] Setting up fc3
17-09-2015 09:17:52 - ERROR: I0917 09:17:52.880872 48454 net.cpp:163] Top shape: 256 1024 (262144)
17-09-2015 09:17:52 - ERROR: I0917 09:17:52.880887 48454 layer_factory.hpp:76] Creating layer relu3
17-09-2015 09:17:52 - ERROR: I0917 09:17:52.880900 48454 net.cpp:110] Creating Layer relu3
17-09-2015 09:17:52 - ERROR: I0917 09:17:52.880905 48454 net.cpp:477] relu3 <- fc3
17-09-2015 09:17:52 - ERROR: I0917 09:17:52.880913 48454 net.cpp:419] relu3 -> fc3 (in-place)
17-09-2015 09:17:52 - ERROR: I0917 09:17:52.880919 48454 net.cpp:155] Setting up relu3
17-09-2015 09:17:52 - ERROR: I0917 09:17:52.880923 48454 net.cpp:163] Top shape: 256 1024 (262144)
17-09-2015 09:17:52 - ERROR: I0917 09:17:52.880925 48454 layer_factory.hpp:76] Creating layer fc4
17-09-2015 09:17:52 - ERROR: I0917 09:17:52.880938 48454 net.cpp:110] Creating Layer fc4
17-09-2015 09:17:52 - ERROR: I0917 09:17:52.880942 48454 net.cpp:477] fc4 <- fc3
17-09-2015 09:17:52 - ERROR: I0917 09:17:52.880985 48454 net.cpp:433] fc4 -> fc4
17-09-2015 09:17:52 - ERROR: I0917 09:17:52.881096 48454 net.cpp:155] Setting up fc4
17-09-2015 09:17:52 - ERROR: I0917 09:17:52.881104 48454 net.cpp:163] Top shape: 256 2 (512)
17-09-2015 09:17:52 - ERROR: I0917 09:17:52.881110 48454 layer_factory.hpp:76] Creating layer prob
17-09-2015 09:17:52 - ERROR: I0917 09:17:52.881119 48454 net.cpp:110] Creating Layer prob
17-09-2015 09:17:52 - ERROR: I0917 09:17:52.881122 48454 net.cpp:477] prob <- fc4
17-09-2015 09:17:52 - ERROR: I0917 09:17:52.881165 48454 net.cpp:433] prob -> prob
17-09-2015 09:17:52 - ERROR: I0917 09:17:52.881178 48454 net.cpp:155] Setting up prob
17-09-2015 09:17:52 - ERROR: I0917 09:17:52.881186 48454 net.cpp:163] Top shape: 256 2 (512)
17-09-2015 09:17:52 - ERROR: I0917 09:17:52.881188 48454 net.cpp:240] prob does not need backward computation.
17-09-2015 09:17:52 - ERROR: I0917 09:17:52.881199 48454 net.cpp:240] fc4 does not need backward computation.
17-09-2015 09:17:52 - ERROR: I0917 09:17:52.881202 48454 net.cpp:240] relu3 does not need backward computation.
17-09-2015 09:17:52 - ERROR: I0917 09:17:52.881211 48454 net.cpp:240] fc3 does not need backward computation.
…
