…
2015-09-11 18:49:03 - ERROR: I0911 18:49:03.130902  1126 net.cpp:434] Input 0 -> data
2015-09-11 18:49:03 - ERROR: I0911 18:49:03.130972  1126 layer_factory.hpp:75] Creating layer conv1
2015-09-11 18:49:03 - ERROR: I0911 18:49:03.131018  1126 net.cpp:110] Creating Layer conv1
2015-09-11 18:49:03 - ERROR: I0911 18:49:03.131054  1126 net.cpp:476] conv1 <- data
2015-09-11 18:49:03 - ERROR: I0911 18:49:03.131093  1126 net.cpp:432] conv1 -> conv1
2015-09-11 18:49:03 - ERROR: I0911 18:49:03.131551  1126 net.cpp:155] Setting up conv1
2015-09-11 18:49:03 - ERROR: I0911 18:49:03.131602  1126 net.cpp:163] Top shape: 256 12 48 48 (7077888)
2015-09-11 18:49:03 - ERROR: I0911 18:49:03.131661  1126 layer_factory.hpp:75] Creating layer relu1
2015-09-11 18:49:03 - ERROR: I0911 18:49:03.131701  1126 net.cpp:110] Creating Layer relu1
2015-09-11 18:49:03 - ERROR: I0911 18:49:03.131734  1126 net.cpp:476] relu1 <- conv1
2015-09-11 18:49:03 - ERROR: I0911 18:49:03.131774  1126 net.cpp:419] relu1 -> conv1 (in-place)
2015-09-11 18:49:03 - ERROR: I0911 18:49:03.131819  1126 net.cpp:155] Setting up relu1
2015-09-11 18:49:03 - ERROR: I0911 18:49:03.131853  1126 net.cpp:163] Top shape: 256 12 48 48 (7077888)
2015-09-11 18:49:03 - ERROR: I0911 18:49:03.131886  1126 layer_factory.hpp:75] Creating layer pool1
2015-09-11 18:49:03 - ERROR: I0911 18:49:03.131921  1126 net.cpp:110] Creating Layer pool1
2015-09-11 18:49:03 - ERROR: I0911 18:49:03.131952  1126 net.cpp:476] pool1 <- conv1
2015-09-11 18:49:03 - ERROR: I0911 18:49:03.131985  1126 net.cpp:432] pool1 -> pool1
2015-09-11 18:49:03 - ERROR: I0911 18:49:03.132030  1126 net.cpp:155] Setting up pool1
2015-09-11 18:49:03 - ERROR: I0911 18:49:03.132066  1126 net.cpp:163] Top shape: 256 12 24 24 (1769472)
2015-09-11 18:49:03 - ERROR: I0911 18:49:03.132097  1126 layer_factory.hpp:75] Creating layer conv2
2015-09-11 18:49:03 - ERROR: I0911 18:49:03.132132  1126 net.cpp:110] Creating Layer conv2
2015-09-11 18:49:03 - ERROR: I0911 18:49:03.132164  1126 net.cpp:476] conv2 <- pool1
2015-09-11 18:49:03 - ERROR: I0911 18:49:03.132208  1126 net.cpp:432] conv2 -> conv2
2015-09-11 18:49:03 - ERROR: I0911 18:49:03.132472  1126 net.cpp:155] Setting up conv2
2015-09-11 18:49:03 - ERROR: I0911 18:49:03.132510  1126 net.cpp:163] Top shape: 256 48 25 25 (7680000)
2015-09-11 18:49:03 - ERROR: I0911 18:49:03.132549  1126 layer_factory.hpp:75] Creating layer relu2
2015-09-11 18:49:03 - ERROR: I0911 18:49:03.132583  1126 net.cpp:110] Creating Layer relu2
2015-09-11 18:49:03 - ERROR: I0911 18:49:03.132616  1126 net.cpp:476] relu2 <- conv2
2015-09-11 18:49:03 - ERROR: I0911 18:49:03.132648  1126 net.cpp:419] relu2 -> conv2 (in-place)
2015-09-11 18:49:03 - ERROR: I0911 18:49:03.132683  1126 net.cpp:155] Setting up relu2
2015-09-11 18:49:03 - ERROR: I0911 18:49:03.132716  1126 net.cpp:163] Top shape: 256 48 25 25 (7680000)
2015-09-11 18:49:03 - ERROR: I0911 18:49:03.132747  1126 layer_factory.hpp:75] Creating layer pool2
2015-09-11 18:49:03 - ERROR: I0911 18:49:03.132781  1126 net.cpp:110] Creating Layer pool2
2015-09-11 18:49:03 - ERROR: I0911 18:49:03.132812  1126 net.cpp:476] pool2 <- conv2
2015-09-11 18:49:03 - ERROR: I0911 18:49:03.132846  1126 net.cpp:432] pool2 -> pool2
2015-09-11 18:49:03 - ERROR: I0911 18:49:03.132884  1126 net.cpp:155] Setting up pool2
2015-09-11 18:49:03 - ERROR: I0911 18:49:03.132920  1126 net.cpp:163] Top shape: 256 48 12 12 (1769472)
2015-09-11 18:49:03 - ERROR: I0911 18:49:03.132951  1126 layer_factory.hpp:75] Creating layer fc3
2015-09-11 18:49:03 - ERROR: I0911 18:49:03.132985  1126 net.cpp:110] Creating Layer fc3
2015-09-11 18:49:03 - ERROR: I0911 18:49:03.133018  1126 net.cpp:476] fc3 <- pool2
2015-09-11 18:49:03 - ERROR: I0911 18:49:03.133052  1126 net.cpp:432] fc3 -> fc3
2015-09-11 18:49:03 - ERROR: I0911 18:49:03.280952  1126 net.cpp:155] Setting up fc3
2015-09-11 18:49:03 - ERROR: I0911 18:49:03.281077  1126 net.cpp:163] Top shape: 256 1024 (262144)
2015-09-11 18:49:03 - ERROR: I0911 18:49:03.281126  1126 layer_factory.hpp:75] Creating layer relu3
2015-09-11 18:49:03 - ERROR: I0911 18:49:03.281167  1126 net.cpp:110] Creating Layer relu3
2015-09-11 18:49:03 - ERROR: I0911 18:49:03.281200  1126 net.cpp:476] relu3 <- fc3
2015-09-11 18:49:03 - ERROR: I0911 18:49:03.281237  1126 net.cpp:419] relu3 -> fc3 (in-place)
2015-09-11 18:49:03 - ERROR: I0911 18:49:03.281276  1126 net.cpp:155] Setting up relu3
2015-09-11 18:49:03 - ERROR: I0911 18:49:03.281309  1126 net.cpp:163] Top shape: 256 1024 (262144)
2015-09-11 18:49:03 - ERROR: I0911 18:49:03.281340  1126 layer_factory.hpp:75] Creating layer fc4
2015-09-11 18:49:03 - ERROR: I0911 18:49:03.281378  1126 net.cpp:110] Creating Layer fc4
2015-09-11 18:49:03 - ERROR: I0911 18:49:03.281410  1126 net.cpp:476] fc4 <- fc3
2015-09-11 18:49:03 - ERROR: I0911 18:49:03.281447  1126 net.cpp:432] fc4 -> fc4
2015-09-11 18:49:03 - ERROR: I0911 18:49:03.281541  1126 net.cpp:155] Setting up fc4
2015-09-11 18:49:03 - ERROR: I0911 18:49:03.281576  1126 net.cpp:163] Top shape: 256 2 (512)
2015-09-11 18:49:03 - ERROR: I0911 18:49:03.281618  1126 layer_factory.hpp:75] Creating layer prob
2015-09-11 18:49:03 - ERROR: I0911 18:49:03.281653  1126 net.cpp:110] Creating Layer prob
2015-09-11 18:49:03 - ERROR: I0911 18:49:03.281684  1126 net.cpp:476] prob <- fc4
2015-09-11 18:49:03 - ERROR: I0911 18:49:03.281718  1126 net.cpp:432] prob -> prob
2015-09-11 18:49:03 - ERROR: I0911 18:49:03.281754  1126 net.cpp:155] Setting up prob
2015-09-11 18:49:03 - ERROR: I0911 18:49:03.281790  1126 net.cpp:163] Top shape: 256 2 (512)
2015-09-11 18:49:03 - ERROR: I0911 18:49:03.281822  1126 net.cpp:240] prob does not need backward computation.
2015-09-11 18:49:03 - ERROR: I0911 18:49:03.281854  1126 net.cpp:240] fc4 does not need backward computation.
2015-09-11 18:49:03 - ERROR: I0911 18:49:03.281885  1126 net.cpp:240] relu3 does not need backward computation.
2015-09-11 18:49:03 - ERROR: I0911 18:49:03.281916  1126 net.cpp:240] fc3 does not need backward computation.
…
