…
23-09-2015 05:34:17 - ERROR: I0923 17:34:17.439941 41726 net.cpp:435] Input 0 -> data
23-09-2015 05:34:17 - ERROR: I0923 17:34:17.440021 41726 layer_factory.hpp:76] Creating layer conv1
23-09-2015 05:34:17 - ERROR: I0923 17:34:17.440045 41726 net.cpp:110] Creating Layer conv1
23-09-2015 05:34:17 - ERROR: I0923 17:34:17.440052 41726 net.cpp:477] conv1 <- data
23-09-2015 05:34:17 - ERROR: I0923 17:34:17.440062 41726 net.cpp:433] conv1 -> conv1
23-09-2015 05:34:17 - ERROR: I0923 17:34:17.440706 41726 net.cpp:155] Setting up conv1
23-09-2015 05:34:17 - ERROR: I0923 17:34:17.440742 41726 net.cpp:163] Top shape: 256 12 48 48 (7077888)
23-09-2015 05:34:17 - ERROR: I0923 17:34:17.440778 41726 layer_factory.hpp:76] Creating layer relu1
23-09-2015 05:34:17 - ERROR: I0923 17:34:17.440788 41726 net.cpp:110] Creating Layer relu1
23-09-2015 05:34:17 - ERROR: I0923 17:34:17.440790 41726 net.cpp:477] relu1 <- conv1
23-09-2015 05:34:17 - ERROR: I0923 17:34:17.440794 41726 net.cpp:419] relu1 -> conv1 (in-place)
23-09-2015 05:34:17 - ERROR: I0923 17:34:17.440804 41726 net.cpp:155] Setting up relu1
23-09-2015 05:34:17 - ERROR: I0923 17:34:17.440809 41726 net.cpp:163] Top shape: 256 12 48 48 (7077888)
23-09-2015 05:34:17 - ERROR: I0923 17:34:17.440812 41726 layer_factory.hpp:76] Creating layer pool1
23-09-2015 05:34:17 - ERROR: I0923 17:34:17.440817 41726 net.cpp:110] Creating Layer pool1
23-09-2015 05:34:17 - ERROR: I0923 17:34:17.440820 41726 net.cpp:477] pool1 <- conv1
23-09-2015 05:34:17 - ERROR: I0923 17:34:17.440824 41726 net.cpp:433] pool1 -> pool1
23-09-2015 05:34:17 - ERROR: I0923 17:34:17.440862 41726 net.cpp:155] Setting up pool1
23-09-2015 05:34:17 - ERROR: I0923 17:34:17.440872 41726 net.cpp:163] Top shape: 256 12 24 24 (1769472)
23-09-2015 05:34:17 - ERROR: I0923 17:34:17.440876 41726 layer_factory.hpp:76] Creating layer conv2
23-09-2015 05:34:17 - ERROR: I0923 17:34:17.440881 41726 net.cpp:110] Creating Layer conv2
23-09-2015 05:34:17 - ERROR: I0923 17:34:17.440884 41726 net.cpp:477] conv2 <- pool1
23-09-2015 05:34:17 - ERROR: I0923 17:34:17.440888 41726 net.cpp:433] conv2 -> conv2
23-09-2015 05:34:17 - ERROR: I0923 17:34:17.441191 41726 net.cpp:155] Setting up conv2
23-09-2015 05:34:17 - ERROR: I0923 17:34:17.441197 41726 net.cpp:163] Top shape: 256 48 25 25 (7680000)
23-09-2015 05:34:17 - ERROR: I0923 17:34:17.441205 41726 layer_factory.hpp:76] Creating layer relu2
23-09-2015 05:34:17 - ERROR: I0923 17:34:17.441210 41726 net.cpp:110] Creating Layer relu2
23-09-2015 05:34:17 - ERROR: I0923 17:34:17.441213 41726 net.cpp:477] relu2 <- conv2
23-09-2015 05:34:17 - ERROR: I0923 17:34:17.441217 41726 net.cpp:419] relu2 -> conv2 (in-place)
23-09-2015 05:34:17 - ERROR: I0923 17:34:17.441222 41726 net.cpp:155] Setting up relu2
23-09-2015 05:34:17 - ERROR: I0923 17:34:17.441226 41726 net.cpp:163] Top shape: 256 48 25 25 (7680000)
23-09-2015 05:34:17 - ERROR: I0923 17:34:17.441228 41726 layer_factory.hpp:76] Creating layer pool2
23-09-2015 05:34:17 - ERROR: I0923 17:34:17.441232 41726 net.cpp:110] Creating Layer pool2
23-09-2015 05:34:17 - ERROR: I0923 17:34:17.441234 41726 net.cpp:477] pool2 <- conv2
23-09-2015 05:34:17 - ERROR: I0923 17:34:17.441238 41726 net.cpp:433] pool2 -> pool2
23-09-2015 05:34:17 - ERROR: I0923 17:34:17.441244 41726 net.cpp:155] Setting up pool2
23-09-2015 05:34:17 - ERROR: I0923 17:34:17.441249 41726 net.cpp:163] Top shape: 256 48 12 12 (1769472)
23-09-2015 05:34:17 - ERROR: I0923 17:34:17.441251 41726 layer_factory.hpp:76] Creating layer fc3
23-09-2015 05:34:17 - ERROR: I0923 17:34:17.441257 41726 net.cpp:110] Creating Layer fc3
23-09-2015 05:34:17 - ERROR: I0923 17:34:17.441261 41726 net.cpp:477] fc3 <- pool2
23-09-2015 05:34:17 - ERROR: I0923 17:34:17.441264 41726 net.cpp:433] fc3 -> fc3
23-09-2015 05:34:17 - ERROR: I0923 17:34:17.680869 41726 net.cpp:155] Setting up fc3
23-09-2015 05:34:17 - ERROR: I0923 17:34:17.680959 41726 net.cpp:163] Top shape: 256 1024 (262144)
23-09-2015 05:34:17 - ERROR: I0923 17:34:17.680974 41726 layer_factory.hpp:76] Creating layer relu3
23-09-2015 05:34:17 - ERROR: I0923 17:34:17.680984 41726 net.cpp:110] Creating Layer relu3
23-09-2015 05:34:17 - ERROR: I0923 17:34:17.680986 41726 net.cpp:477] relu3 <- fc3
23-09-2015 05:34:17 - ERROR: I0923 17:34:17.680992 41726 net.cpp:419] relu3 -> fc3 (in-place)
23-09-2015 05:34:17 - ERROR: I0923 17:34:17.681000 41726 net.cpp:155] Setting up relu3
23-09-2015 05:34:17 - ERROR: I0923 17:34:17.681005 41726 net.cpp:163] Top shape: 256 1024 (262144)
23-09-2015 05:34:17 - ERROR: I0923 17:34:17.681007 41726 layer_factory.hpp:76] Creating layer fc4
23-09-2015 05:34:17 - ERROR: I0923 17:34:17.681015 41726 net.cpp:110] Creating Layer fc4
23-09-2015 05:34:17 - ERROR: I0923 17:34:17.681018 41726 net.cpp:477] fc4 <- fc3
23-09-2015 05:34:17 - ERROR: I0923 17:34:17.681026 41726 net.cpp:433] fc4 -> fc4
23-09-2015 05:34:17 - ERROR: I0923 17:34:17.681118 41726 net.cpp:155] Setting up fc4
23-09-2015 05:34:17 - ERROR: I0923 17:34:17.681123 41726 net.cpp:163] Top shape: 256 2 (512)
23-09-2015 05:34:17 - ERROR: I0923 17:34:17.681129 41726 layer_factory.hpp:76] Creating layer prob
23-09-2015 05:34:17 - ERROR: I0923 17:34:17.681138 41726 net.cpp:110] Creating Layer prob
23-09-2015 05:34:17 - ERROR: I0923 17:34:17.681140 41726 net.cpp:477] prob <- fc4
23-09-2015 05:34:17 - ERROR: I0923 17:34:17.681145 41726 net.cpp:433] prob -> prob
23-09-2015 05:34:17 - ERROR: I0923 17:34:17.681166 41726 net.cpp:155] Setting up prob
23-09-2015 05:34:17 - ERROR: I0923 17:34:17.681206 41726 net.cpp:163] Top shape: 256 2 (512)
23-09-2015 05:34:17 - ERROR: I0923 17:34:17.681212 41726 net.cpp:240] prob does not need backward computation.
23-09-2015 05:34:17 - ERROR: I0923 17:34:17.681216 41726 net.cpp:240] fc4 does not need backward computation.
23-09-2015 05:34:17 - ERROR: I0923 17:34:17.681232 41726 net.cpp:240] relu3 does not need backward computation.
23-09-2015 05:34:17 - ERROR: I0923 17:34:17.681236 41726 net.cpp:240] fc3 does not need backward computation.
…
