…
17-09-2015 09:17:42 - ERROR: I0917 09:17:42.874531 27670 net.cpp:435] Input 0 -> data
17-09-2015 09:17:42 - ERROR: I0917 09:17:42.874686 27670 layer_factory.hpp:76] Creating layer conv1
17-09-2015 09:17:42 - ERROR: I0917 09:17:42.874722 27670 net.cpp:110] Creating Layer conv1
17-09-2015 09:17:42 - ERROR: I0917 09:17:42.874732 27670 net.cpp:477] conv1 <- data
17-09-2015 09:17:42 - ERROR: I0917 09:17:42.874754 27670 net.cpp:433] conv1 -> conv1
17-09-2015 09:17:42 - ERROR: I0917 09:17:42.875831 27670 net.cpp:155] Setting up conv1
17-09-2015 09:17:42 - ERROR: I0917 09:17:42.875877 27670 net.cpp:163] Top shape: 256 12 48 48 (7077888)
17-09-2015 09:17:42 - ERROR: I0917 09:17:42.875927 27670 layer_factory.hpp:76] Creating layer relu1
17-09-2015 09:17:42 - ERROR: I0917 09:17:42.875937 27670 net.cpp:110] Creating Layer relu1
17-09-2015 09:17:42 - ERROR: I0917 09:17:42.875943 27670 net.cpp:477] relu1 <- conv1
17-09-2015 09:17:42 - ERROR: I0917 09:17:42.875948 27670 net.cpp:419] relu1 -> conv1 (in-place)
17-09-2015 09:17:42 - ERROR: I0917 09:17:42.875958 27670 net.cpp:155] Setting up relu1
17-09-2015 09:17:42 - ERROR: I0917 09:17:42.875963 27670 net.cpp:163] Top shape: 256 12 48 48 (7077888)
17-09-2015 09:17:42 - ERROR: I0917 09:17:42.875969 27670 layer_factory.hpp:76] Creating layer pool1
17-09-2015 09:17:42 - ERROR: I0917 09:17:42.875982 27670 net.cpp:110] Creating Layer pool1
17-09-2015 09:17:42 - ERROR: I0917 09:17:42.875984 27670 net.cpp:477] pool1 <- conv1
17-09-2015 09:17:42 - ERROR: I0917 09:17:42.875989 27670 net.cpp:433] pool1 -> pool1
17-09-2015 09:17:42 - ERROR: I0917 09:17:42.876063 27670 net.cpp:155] Setting up pool1
17-09-2015 09:17:42 - ERROR: I0917 09:17:42.876078 27670 net.cpp:163] Top shape: 256 12 24 24 (1769472)
17-09-2015 09:17:42 - ERROR: I0917 09:17:42.876082 27670 layer_factory.hpp:76] Creating layer conv2
17-09-2015 09:17:42 - ERROR: I0917 09:17:42.876092 27670 net.cpp:110] Creating Layer conv2
17-09-2015 09:17:42 - ERROR: I0917 09:17:42.876096 27670 net.cpp:477] conv2 <- pool1
17-09-2015 09:17:42 - ERROR: I0917 09:17:42.876101 27670 net.cpp:433] conv2 -> conv2
17-09-2015 09:17:42 - ERROR: I0917 09:17:42.876631 27670 net.cpp:155] Setting up conv2
17-09-2015 09:17:42 - ERROR: I0917 09:17:42.876643 27670 net.cpp:163] Top shape: 256 48 25 25 (7680000)
17-09-2015 09:17:42 - ERROR: I0917 09:17:42.876691 27670 layer_factory.hpp:76] Creating layer relu2
17-09-2015 09:17:42 - ERROR: I0917 09:17:42.876736 27670 net.cpp:110] Creating Layer relu2
17-09-2015 09:17:42 - ERROR: I0917 09:17:42.876742 27670 net.cpp:477] relu2 <- conv2
17-09-2015 09:17:42 - ERROR: I0917 09:17:42.876747 27670 net.cpp:419] relu2 -> conv2 (in-place)
17-09-2015 09:17:42 - ERROR: I0917 09:17:42.876754 27670 net.cpp:155] Setting up relu2
17-09-2015 09:17:42 - ERROR: I0917 09:17:42.876759 27670 net.cpp:163] Top shape: 256 48 25 25 (7680000)
17-09-2015 09:17:42 - ERROR: I0917 09:17:42.876760 27670 layer_factory.hpp:76] Creating layer pool2
17-09-2015 09:17:42 - ERROR: I0917 09:17:42.876765 27670 net.cpp:110] Creating Layer pool2
17-09-2015 09:17:42 - ERROR: I0917 09:17:42.876767 27670 net.cpp:477] pool2 <- conv2
17-09-2015 09:17:42 - ERROR: I0917 09:17:42.876771 27670 net.cpp:433] pool2 -> pool2
17-09-2015 09:17:42 - ERROR: I0917 09:17:42.876780 27670 net.cpp:155] Setting up pool2
17-09-2015 09:17:42 - ERROR: I0917 09:17:42.876785 27670 net.cpp:163] Top shape: 256 48 12 12 (1769472)
17-09-2015 09:17:42 - ERROR: I0917 09:17:42.876788 27670 layer_factory.hpp:76] Creating layer fc3
17-09-2015 09:17:42 - ERROR: I0917 09:17:42.876803 27670 net.cpp:110] Creating Layer fc3
17-09-2015 09:17:42 - ERROR: I0917 09:17:42.876806 27670 net.cpp:477] fc3 <- pool2
17-09-2015 09:17:42 - ERROR: I0917 09:17:42.876811 27670 net.cpp:433] fc3 -> fc3
17-09-2015 09:17:43 - ERROR: I0917 09:17:43.117316 27670 net.cpp:155] Setting up fc3
17-09-2015 09:17:43 - ERROR: I0917 09:17:43.117404 27670 net.cpp:163] Top shape: 256 1024 (262144)
17-09-2015 09:17:43 - ERROR: I0917 09:17:43.117420 27670 layer_factory.hpp:76] Creating layer relu3
17-09-2015 09:17:43 - ERROR: I0917 09:17:43.117455 27670 net.cpp:110] Creating Layer relu3
17-09-2015 09:17:43 - ERROR: I0917 09:17:43.117457 27670 net.cpp:477] relu3 <- fc3
17-09-2015 09:17:43 - ERROR: I0917 09:17:43.117465 27670 net.cpp:419] relu3 -> fc3 (in-place)
17-09-2015 09:17:43 - ERROR: I0917 09:17:43.117476 27670 net.cpp:155] Setting up relu3
17-09-2015 09:17:43 - ERROR: I0917 09:17:43.117481 27670 net.cpp:163] Top shape: 256 1024 (262144)
17-09-2015 09:17:43 - ERROR: I0917 09:17:43.117537 27670 layer_factory.hpp:76] Creating layer fc4
17-09-2015 09:17:43 - ERROR: I0917 09:17:43.117583 27670 net.cpp:110] Creating Layer fc4
17-09-2015 09:17:43 - ERROR: I0917 09:17:43.117624 27670 net.cpp:477] fc4 <- fc3
17-09-2015 09:17:43 - ERROR: I0917 09:17:43.117673 27670 net.cpp:433] fc4 -> fc4
17-09-2015 09:17:43 - ERROR: I0917 09:17:43.117887 27670 net.cpp:155] Setting up fc4
17-09-2015 09:17:43 - ERROR: I0917 09:17:43.117929 27670 net.cpp:163] Top shape: 256 2 (512)
17-09-2015 09:17:43 - ERROR: I0917 09:17:43.117943 27670 layer_factory.hpp:76] Creating layer prob
17-09-2015 09:17:43 - ERROR: I0917 09:17:43.117988 27670 net.cpp:110] Creating Layer prob
17-09-2015 09:17:43 - ERROR: I0917 09:17:43.117992 27670 net.cpp:477] prob <- fc4
17-09-2015 09:17:43 - ERROR: I0917 09:17:43.117997 27670 net.cpp:433] prob -> prob
17-09-2015 09:17:43 - ERROR: I0917 09:17:43.118012 27670 net.cpp:155] Setting up prob
17-09-2015 09:17:43 - ERROR: I0917 09:17:43.118022 27670 net.cpp:163] Top shape: 256 2 (512)
17-09-2015 09:17:43 - ERROR: I0917 09:17:43.118028 27670 net.cpp:240] prob does not need backward computation.
17-09-2015 09:17:43 - ERROR: I0917 09:17:43.118068 27670 net.cpp:240] fc4 does not need backward computation.
17-09-2015 09:17:43 - ERROR: I0917 09:17:43.118078 27670 net.cpp:240] relu3 does not need backward computation.
17-09-2015 09:17:43 - ERROR: I0917 09:17:43.118124 27670 net.cpp:240] fc3 does not need backward computation.
…
