…
21-09-2015 07:58:39 - ERROR: I0921 07:58:39.504601 24809 net.cpp:435] Input 0 -> data
21-09-2015 07:58:39 - ERROR: I0921 07:58:39.504680 24809 layer_factory.hpp:76] Creating layer conv1
21-09-2015 07:58:39 - ERROR: I0921 07:58:39.504703 24809 net.cpp:110] Creating Layer conv1
21-09-2015 07:58:39 - ERROR: I0921 07:58:39.504712 24809 net.cpp:477] conv1 <- data
21-09-2015 07:58:39 - ERROR: I0921 07:58:39.504721 24809 net.cpp:433] conv1 -> conv1
21-09-2015 07:58:39 - ERROR: I0921 07:58:39.505363 24809 net.cpp:155] Setting up conv1
21-09-2015 07:58:39 - ERROR: I0921 07:58:39.505398 24809 net.cpp:163] Top shape: 256 12 48 48 (7077888)
21-09-2015 07:58:39 - ERROR: I0921 07:58:39.505435 24809 layer_factory.hpp:76] Creating layer relu1
21-09-2015 07:58:39 - ERROR: I0921 07:58:39.505444 24809 net.cpp:110] Creating Layer relu1
21-09-2015 07:58:39 - ERROR: I0921 07:58:39.505447 24809 net.cpp:477] relu1 <- conv1
21-09-2015 07:58:39 - ERROR: I0921 07:58:39.505451 24809 net.cpp:419] relu1 -> conv1 (in-place)
21-09-2015 07:58:39 - ERROR: I0921 07:58:39.505461 24809 net.cpp:155] Setting up relu1
21-09-2015 07:58:39 - ERROR: I0921 07:58:39.505465 24809 net.cpp:163] Top shape: 256 12 48 48 (7077888)
21-09-2015 07:58:39 - ERROR: I0921 07:58:39.505468 24809 layer_factory.hpp:76] Creating layer pool1
21-09-2015 07:58:39 - ERROR: I0921 07:58:39.505475 24809 net.cpp:110] Creating Layer pool1
21-09-2015 07:58:39 - ERROR: I0921 07:58:39.505476 24809 net.cpp:477] pool1 <- conv1
21-09-2015 07:58:39 - ERROR: I0921 07:58:39.505481 24809 net.cpp:433] pool1 -> pool1
21-09-2015 07:58:39 - ERROR: I0921 07:58:39.505504 24809 net.cpp:155] Setting up pool1
21-09-2015 07:58:39 - ERROR: I0921 07:58:39.505514 24809 net.cpp:163] Top shape: 256 12 24 24 (1769472)
21-09-2015 07:58:39 - ERROR: I0921 07:58:39.505517 24809 layer_factory.hpp:76] Creating layer conv2
21-09-2015 07:58:39 - ERROR: I0921 07:58:39.505523 24809 net.cpp:110] Creating Layer conv2
21-09-2015 07:58:39 - ERROR: I0921 07:58:39.505527 24809 net.cpp:477] conv2 <- pool1
21-09-2015 07:58:39 - ERROR: I0921 07:58:39.505532 24809 net.cpp:433] conv2 -> conv2
21-09-2015 07:58:39 - ERROR: I0921 07:58:39.505849 24809 net.cpp:155] Setting up conv2
21-09-2015 07:58:39 - ERROR: I0921 07:58:39.505856 24809 net.cpp:163] Top shape: 256 48 25 25 (7680000)
21-09-2015 07:58:39 - ERROR: I0921 07:58:39.505863 24809 layer_factory.hpp:76] Creating layer relu2
21-09-2015 07:58:39 - ERROR: I0921 07:58:39.505868 24809 net.cpp:110] Creating Layer relu2
21-09-2015 07:58:39 - ERROR: I0921 07:58:39.505872 24809 net.cpp:477] relu2 <- conv2
21-09-2015 07:58:39 - ERROR: I0921 07:58:39.505875 24809 net.cpp:419] relu2 -> conv2 (in-place)
21-09-2015 07:58:39 - ERROR: I0921 07:58:39.505880 24809 net.cpp:155] Setting up relu2
21-09-2015 07:58:39 - ERROR: I0921 07:58:39.505884 24809 net.cpp:163] Top shape: 256 48 25 25 (7680000)
21-09-2015 07:58:39 - ERROR: I0921 07:58:39.505887 24809 layer_factory.hpp:76] Creating layer pool2
21-09-2015 07:58:39 - ERROR: I0921 07:58:39.505890 24809 net.cpp:110] Creating Layer pool2
21-09-2015 07:58:39 - ERROR: I0921 07:58:39.505892 24809 net.cpp:477] pool2 <- conv2
21-09-2015 07:58:39 - ERROR: I0921 07:58:39.505897 24809 net.cpp:433] pool2 -> pool2
21-09-2015 07:58:39 - ERROR: I0921 07:58:39.505903 24809 net.cpp:155] Setting up pool2
21-09-2015 07:58:39 - ERROR: I0921 07:58:39.505908 24809 net.cpp:163] Top shape: 256 48 12 12 (1769472)
21-09-2015 07:58:39 - ERROR: I0921 07:58:39.505909 24809 layer_factory.hpp:76] Creating layer fc3
21-09-2015 07:58:39 - ERROR: I0921 07:58:39.505915 24809 net.cpp:110] Creating Layer fc3
21-09-2015 07:58:39 - ERROR: I0921 07:58:39.505918 24809 net.cpp:477] fc3 <- pool2
21-09-2015 07:58:39 - ERROR: I0921 07:58:39.505923 24809 net.cpp:433] fc3 -> fc3
21-09-2015 07:58:39 - ERROR: I0921 07:58:39.746333 24809 net.cpp:155] Setting up fc3
21-09-2015 07:58:39 - ERROR: I0921 07:58:39.746430 24809 net.cpp:163] Top shape: 256 1024 (262144)
21-09-2015 07:58:39 - ERROR: I0921 07:58:39.746451 24809 layer_factory.hpp:76] Creating layer relu3
21-09-2015 07:58:39 - ERROR: I0921 07:58:39.746500 24809 net.cpp:110] Creating Layer relu3
21-09-2015 07:58:39 - ERROR: I0921 07:58:39.746510 24809 net.cpp:477] relu3 <- fc3
21-09-2015 07:58:39 - ERROR: I0921 07:58:39.746517 24809 net.cpp:419] relu3 -> fc3 (in-place)
21-09-2015 07:58:39 - ERROR: I0921 07:58:39.746567 24809 net.cpp:155] Setting up relu3
21-09-2015 07:58:39 - ERROR: I0921 07:58:39.746577 24809 net.cpp:163] Top shape: 256 1024 (262144)
21-09-2015 07:58:39 - ERROR: I0921 07:58:39.746580 24809 layer_factory.hpp:76] Creating layer fc4
21-09-2015 07:58:39 - ERROR: I0921 07:58:39.746634 24809 net.cpp:110] Creating Layer fc4
21-09-2015 07:58:39 - ERROR: I0921 07:58:39.746642 24809 net.cpp:477] fc4 <- fc3
21-09-2015 07:58:39 - ERROR: I0921 07:58:39.746655 24809 net.cpp:433] fc4 -> fc4
21-09-2015 07:58:39 - ERROR: I0921 07:58:39.746928 24809 net.cpp:155] Setting up fc4
21-09-2015 07:58:39 - ERROR: I0921 07:58:39.746944 24809 net.cpp:163] Top shape: 256 2 (512)
21-09-2015 07:58:39 - ERROR: I0921 07:58:39.746994 24809 layer_factory.hpp:76] Creating layer prob
21-09-2015 07:58:39 - ERROR: I0921 07:58:39.747045 24809 net.cpp:110] Creating Layer prob
21-09-2015 07:58:39 - ERROR: I0921 07:58:39.747051 24809 net.cpp:477] prob <- fc4
21-09-2015 07:58:39 - ERROR: I0921 07:58:39.747059 24809 net.cpp:433] prob -> prob
21-09-2015 07:58:39 - ERROR: I0921 07:58:39.747079 24809 net.cpp:155] Setting up prob
21-09-2015 07:58:39 - ERROR: I0921 07:58:39.747117 24809 net.cpp:163] Top shape: 256 2 (512)
21-09-2015 07:58:39 - ERROR: I0921 07:58:39.747164 24809 net.cpp:240] prob does not need backward computation.
21-09-2015 07:58:39 - ERROR: I0921 07:58:39.747170 24809 net.cpp:240] fc4 does not need backward computation.
21-09-2015 07:58:39 - ERROR: I0921 07:58:39.747239 24809 net.cpp:240] relu3 does not need backward computation.
21-09-2015 07:58:39 - ERROR: I0921 07:58:39.747277 24809 net.cpp:240] fc3 does not need backward computation.
…
