…
17-09-2015 09:17:54 - ERROR: I0917 09:17:54.942513 21102 net.cpp:435] Input 0 -> data
17-09-2015 09:17:54 - ERROR: I0917 09:17:54.942802 21102 layer_factory.hpp:76] Creating layer conv1
17-09-2015 09:17:54 - ERROR: I0917 09:17:54.943017 21102 net.cpp:110] Creating Layer conv1
17-09-2015 09:17:54 - ERROR: I0917 09:17:54.943033 21102 net.cpp:477] conv1 <- data
17-09-2015 09:17:54 - ERROR: I0917 09:17:54.943055 21102 net.cpp:433] conv1 -> conv1
17-09-2015 09:17:54 - ERROR: I0917 09:17:54.944618 21102 net.cpp:155] Setting up conv1
17-09-2015 09:17:54 - ERROR: I0917 09:17:54.944672 21102 net.cpp:163] Top shape: 256 12 48 48 (7077888)
17-09-2015 09:17:54 - ERROR: I0917 09:17:54.944811 21102 layer_factory.hpp:76] Creating layer relu1
17-09-2015 09:17:54 - ERROR: I0917 09:17:54.944857 21102 net.cpp:110] Creating Layer relu1
17-09-2015 09:17:54 - ERROR: I0917 09:17:54.944864 21102 net.cpp:477] relu1 <- conv1
17-09-2015 09:17:54 - ERROR: I0917 09:17:54.944911 21102 net.cpp:419] relu1 -> conv1 (in-place)
17-09-2015 09:17:54 - ERROR: I0917 09:17:54.944964 21102 net.cpp:155] Setting up relu1
17-09-2015 09:17:54 - ERROR: I0917 09:17:54.945014 21102 net.cpp:163] Top shape: 256 12 48 48 (7077888)
17-09-2015 09:17:54 - ERROR: I0917 09:17:54.945055 21102 layer_factory.hpp:76] Creating layer pool1
17-09-2015 09:17:54 - ERROR: I0917 09:17:54.945104 21102 net.cpp:110] Creating Layer pool1
17-09-2015 09:17:54 - ERROR: I0917 09:17:54.945144 21102 net.cpp:477] pool1 <- conv1
17-09-2015 09:17:54 - ERROR: I0917 09:17:54.945189 21102 net.cpp:433] pool1 -> pool1
17-09-2015 09:17:54 - ERROR: I0917 09:17:54.945379 21102 net.cpp:155] Setting up pool1
17-09-2015 09:17:54 - ERROR: I0917 09:17:54.945399 21102 net.cpp:163] Top shape: 256 12 24 24 (1769472)
17-09-2015 09:17:54 - ERROR: I0917 09:17:54.945402 21102 layer_factory.hpp:76] Creating layer conv2
17-09-2015 09:17:54 - ERROR: I0917 09:17:54.945412 21102 net.cpp:110] Creating Layer conv2
17-09-2015 09:17:54 - ERROR: I0917 09:17:54.945416 21102 net.cpp:477] conv2 <- pool1
17-09-2015 09:17:54 - ERROR: I0917 09:17:54.945463 21102 net.cpp:433] conv2 -> conv2
17-09-2015 09:17:54 - ERROR: I0917 09:17:54.946380 21102 net.cpp:155] Setting up conv2
17-09-2015 09:17:54 - ERROR: I0917 09:17:54.946389 21102 net.cpp:163] Top shape: 256 48 25 25 (7680000)
17-09-2015 09:17:54 - ERROR: I0917 09:17:54.946400 21102 layer_factory.hpp:76] Creating layer relu2
17-09-2015 09:17:54 - ERROR: I0917 09:17:54.946406 21102 net.cpp:110] Creating Layer relu2
17-09-2015 09:17:54 - ERROR: I0917 09:17:54.946457 21102 net.cpp:477] relu2 <- conv2
17-09-2015 09:17:54 - ERROR: I0917 09:17:54.946494 21102 net.cpp:419] relu2 -> conv2 (in-place)
17-09-2015 09:17:54 - ERROR: I0917 09:17:54.946501 21102 net.cpp:155] Setting up relu2
17-09-2015 09:17:54 - ERROR: I0917 09:17:54.946508 21102 net.cpp:163] Top shape: 256 48 25 25 (7680000)
17-09-2015 09:17:54 - ERROR: I0917 09:17:54.946553 21102 layer_factory.hpp:76] Creating layer pool2
17-09-2015 09:17:54 - ERROR: I0917 09:17:54.946563 21102 net.cpp:110] Creating Layer pool2
17-09-2015 09:17:54 - ERROR: I0917 09:17:54.946565 21102 net.cpp:477] pool2 <- conv2
17-09-2015 09:17:54 - ERROR: I0917 09:17:54.946570 21102 net.cpp:433] pool2 -> pool2
17-09-2015 09:17:54 - ERROR: I0917 09:17:54.946581 21102 net.cpp:155] Setting up pool2
17-09-2015 09:17:54 - ERROR: I0917 09:17:54.946593 21102 net.cpp:163] Top shape: 256 48 12 12 (1769472)
17-09-2015 09:17:54 - ERROR: I0917 09:17:54.946596 21102 layer_factory.hpp:76] Creating layer fc3
17-09-2015 09:17:54 - ERROR: I0917 09:17:54.946606 21102 net.cpp:110] Creating Layer fc3
17-09-2015 09:17:54 - ERROR: I0917 09:17:54.946655 21102 net.cpp:477] fc3 <- pool2
17-09-2015 09:17:54 - ERROR: I0917 09:17:54.946696 21102 net.cpp:433] fc3 -> fc3
17-09-2015 09:17:55 - ERROR: I0917 09:17:55.184725 21102 net.cpp:155] Setting up fc3
17-09-2015 09:17:55 - ERROR: I0917 09:17:55.184818 21102 net.cpp:163] Top shape: 256 1024 (262144)
17-09-2015 09:17:55 - ERROR: I0917 09:17:55.184834 21102 layer_factory.hpp:76] Creating layer relu3
17-09-2015 09:17:55 - ERROR: I0917 09:17:55.184849 21102 net.cpp:110] Creating Layer relu3
17-09-2015 09:17:55 - ERROR: I0917 09:17:55.184896 21102 net.cpp:477] relu3 <- fc3
17-09-2015 09:17:55 - ERROR: I0917 09:17:55.184908 21102 net.cpp:419] relu3 -> fc3 (in-place)
17-09-2015 09:17:55 - ERROR: I0917 09:17:55.184967 21102 net.cpp:155] Setting up relu3
17-09-2015 09:17:55 - ERROR: I0917 09:17:55.184975 21102 net.cpp:163] Top shape: 256 1024 (262144)
17-09-2015 09:17:55 - ERROR: I0917 09:17:55.184984 21102 layer_factory.hpp:76] Creating layer fc4
17-09-2015 09:17:55 - ERROR: I0917 09:17:55.185032 21102 net.cpp:110] Creating Layer fc4
17-09-2015 09:17:55 - ERROR: I0917 09:17:55.185037 21102 net.cpp:477] fc4 <- fc3
17-09-2015 09:17:55 - ERROR: I0917 09:17:55.185088 21102 net.cpp:433] fc4 -> fc4
17-09-2015 09:17:55 - ERROR: I0917 09:17:55.185261 21102 net.cpp:155] Setting up fc4
17-09-2015 09:17:55 - ERROR: I0917 09:17:55.185281 21102 net.cpp:163] Top shape: 256 2 (512)
17-09-2015 09:17:55 - ERROR: I0917 09:17:55.185289 21102 layer_factory.hpp:76] Creating layer prob
17-09-2015 09:17:55 - ERROR: I0917 09:17:55.185330 21102 net.cpp:110] Creating Layer prob
17-09-2015 09:17:55 - ERROR: I0917 09:17:55.185343 21102 net.cpp:477] prob <- fc4
17-09-2015 09:17:55 - ERROR: I0917 09:17:55.185395 21102 net.cpp:433] prob -> prob
17-09-2015 09:17:55 - ERROR: I0917 09:17:55.185446 21102 net.cpp:155] Setting up prob
17-09-2015 09:17:55 - ERROR: I0917 09:17:55.185451 21102 net.cpp:163] Top shape: 256 2 (512)
17-09-2015 09:17:55 - ERROR: I0917 09:17:55.185454 21102 net.cpp:240] prob does not need backward computation.
17-09-2015 09:17:55 - ERROR: I0917 09:17:55.185457 21102 net.cpp:240] fc4 does not need backward computation.
17-09-2015 09:17:55 - ERROR: I0917 09:17:55.185461 21102 net.cpp:240] relu3 does not need backward computation.
17-09-2015 09:17:55 - ERROR: I0917 09:17:55.185464 21102 net.cpp:240] fc3 does not need backward computation.
…
