…
17-09-2015 09:16:25 - ERROR: I0917 09:16:25.058084 12271 net.cpp:435] Input 0 -> data
17-09-2015 09:16:25 - ERROR: I0917 09:16:25.058365 12271 layer_factory.hpp:76] Creating layer conv1
17-09-2015 09:16:25 - ERROR: I0917 09:16:25.058475 12271 net.cpp:110] Creating Layer conv1
17-09-2015 09:16:25 - ERROR: I0917 09:16:25.058495 12271 net.cpp:477] conv1 <- data
17-09-2015 09:16:25 - ERROR: I0917 09:16:25.058509 12271 net.cpp:433] conv1 -> conv1
17-09-2015 09:16:25 - ERROR: I0917 09:16:25.060258 12271 net.cpp:155] Setting up conv1
17-09-2015 09:16:25 - ERROR: I0917 09:16:25.060305 12271 net.cpp:163] Top shape: 256 12 48 48 (7077888)
17-09-2015 09:16:25 - ERROR: I0917 09:16:25.060431 12271 layer_factory.hpp:76] Creating layer relu1
17-09-2015 09:16:25 - ERROR: I0917 09:16:25.060484 12271 net.cpp:110] Creating Layer relu1
17-09-2015 09:16:25 - ERROR: I0917 09:16:25.060528 12271 net.cpp:477] relu1 <- conv1
17-09-2015 09:16:25 - ERROR: I0917 09:16:25.060534 12271 net.cpp:419] relu1 -> conv1 (in-place)
17-09-2015 09:16:25 - ERROR: I0917 09:16:25.060554 12271 net.cpp:155] Setting up relu1
17-09-2015 09:16:25 - ERROR: I0917 09:16:25.060569 12271 net.cpp:163] Top shape: 256 12 48 48 (7077888)
17-09-2015 09:16:25 - ERROR: I0917 09:16:25.060572 12271 layer_factory.hpp:76] Creating layer pool1
17-09-2015 09:16:25 - ERROR: I0917 09:16:25.060614 12271 net.cpp:110] Creating Layer pool1
17-09-2015 09:16:25 - ERROR: I0917 09:16:25.060660 12271 net.cpp:477] pool1 <- conv1
17-09-2015 09:16:25 - ERROR: I0917 09:16:25.060668 12271 net.cpp:433] pool1 -> pool1
17-09-2015 09:16:25 - ERROR: I0917 09:16:25.060818 12271 net.cpp:155] Setting up pool1
17-09-2015 09:16:25 - ERROR: I0917 09:16:25.060835 12271 net.cpp:163] Top shape: 256 12 24 24 (1769472)
17-09-2015 09:16:25 - ERROR: I0917 09:16:25.060838 12271 layer_factory.hpp:76] Creating layer conv2
17-09-2015 09:16:25 - ERROR: I0917 09:16:25.060848 12271 net.cpp:110] Creating Layer conv2
17-09-2015 09:16:25 - ERROR: I0917 09:16:25.060858 12271 net.cpp:477] conv2 <- pool1
17-09-2015 09:16:25 - ERROR: I0917 09:16:25.060873 12271 net.cpp:433] conv2 -> conv2
17-09-2015 09:16:25 - ERROR: I0917 09:16:25.061835 12271 net.cpp:155] Setting up conv2
17-09-2015 09:16:25 - ERROR: I0917 09:16:25.061921 12271 net.cpp:163] Top shape: 256 48 25 25 (7680000)
17-09-2015 09:16:25 - ERROR: I0917 09:16:25.061934 12271 layer_factory.hpp:76] Creating layer relu2
17-09-2015 09:16:25 - ERROR: I0917 09:16:25.061941 12271 net.cpp:110] Creating Layer relu2
17-09-2015 09:16:25 - ERROR: I0917 09:16:25.061944 12271 net.cpp:477] relu2 <- conv2
17-09-2015 09:16:25 - ERROR: I0917 09:16:25.061949 12271 net.cpp:419] relu2 -> conv2 (in-place)
17-09-2015 09:16:25 - ERROR: I0917 09:16:25.061957 12271 net.cpp:155] Setting up relu2
17-09-2015 09:16:25 - ERROR: I0917 09:16:25.061969 12271 net.cpp:163] Top shape: 256 48 25 25 (7680000)
17-09-2015 09:16:25 - ERROR: I0917 09:16:25.061975 12271 layer_factory.hpp:76] Creating layer pool2
17-09-2015 09:16:25 - ERROR: I0917 09:16:25.062017 12271 net.cpp:110] Creating Layer pool2
17-09-2015 09:16:25 - ERROR: I0917 09:16:25.062031 12271 net.cpp:477] pool2 <- conv2
17-09-2015 09:16:25 - ERROR: I0917 09:16:25.062072 12271 net.cpp:433] pool2 -> pool2
17-09-2015 09:16:25 - ERROR: I0917 09:16:25.062121 12271 net.cpp:155] Setting up pool2
17-09-2015 09:16:25 - ERROR: I0917 09:16:25.062129 12271 net.cpp:163] Top shape: 256 48 12 12 (1769472)
17-09-2015 09:16:25 - ERROR: I0917 09:16:25.062131 12271 layer_factory.hpp:76] Creating layer fc3
17-09-2015 09:16:25 - ERROR: I0917 09:16:25.062142 12271 net.cpp:110] Creating Layer fc3
17-09-2015 09:16:25 - ERROR: I0917 09:16:25.062145 12271 net.cpp:477] fc3 <- pool2
17-09-2015 09:16:25 - ERROR: I0917 09:16:25.062161 12271 net.cpp:433] fc3 -> fc3
17-09-2015 09:16:25 - ERROR: I0917 09:16:25.299298 12271 net.cpp:155] Setting up fc3
17-09-2015 09:16:25 - ERROR: I0917 09:16:25.299379 12271 net.cpp:163] Top shape: 256 1024 (262144)
17-09-2015 09:16:25 - ERROR: I0917 09:16:25.299393 12271 layer_factory.hpp:76] Creating layer relu3
17-09-2015 09:16:25 - ERROR: I0917 09:16:25.299401 12271 net.cpp:110] Creating Layer relu3
17-09-2015 09:16:25 - ERROR: I0917 09:16:25.299404 12271 net.cpp:477] relu3 <- fc3
17-09-2015 09:16:25 - ERROR: I0917 09:16:25.299410 12271 net.cpp:419] relu3 -> fc3 (in-place)
17-09-2015 09:16:25 - ERROR: I0917 09:16:25.299417 12271 net.cpp:155] Setting up relu3
17-09-2015 09:16:25 - ERROR: I0917 09:16:25.299420 12271 net.cpp:163] Top shape: 256 1024 (262144)
17-09-2015 09:16:25 - ERROR: I0917 09:16:25.299423 12271 layer_factory.hpp:76] Creating layer fc4
17-09-2015 09:16:25 - ERROR: I0917 09:16:25.299432 12271 net.cpp:110] Creating Layer fc4
17-09-2015 09:16:25 - ERROR: I0917 09:16:25.299437 12271 net.cpp:477] fc4 <- fc3
17-09-2015 09:16:25 - ERROR: I0917 09:16:25.299443 12271 net.cpp:433] fc4 -> fc4
17-09-2015 09:16:25 - ERROR: I0917 09:16:25.299592 12271 net.cpp:155] Setting up fc4
17-09-2015 09:16:25 - ERROR: I0917 09:16:25.299607 12271 net.cpp:163] Top shape: 256 2 (512)
17-09-2015 09:16:25 - ERROR: I0917 09:16:25.299613 12271 layer_factory.hpp:76] Creating layer prob
17-09-2015 09:16:25 - ERROR: I0917 09:16:25.299618 12271 net.cpp:110] Creating Layer prob
17-09-2015 09:16:25 - ERROR: I0917 09:16:25.299621 12271 net.cpp:477] prob <- fc4
17-09-2015 09:16:25 - ERROR: I0917 09:16:25.299628 12271 net.cpp:433] prob -> prob
17-09-2015 09:16:25 - ERROR: I0917 09:16:25.299679 12271 net.cpp:155] Setting up prob
17-09-2015 09:16:25 - ERROR: I0917 09:16:25.299695 12271 net.cpp:163] Top shape: 256 2 (512)
17-09-2015 09:16:25 - ERROR: I0917 09:16:25.299698 12271 net.cpp:240] prob does not need backward computation.
17-09-2015 09:16:25 - ERROR: I0917 09:16:25.299741 12271 net.cpp:240] fc4 does not need backward computation.
17-09-2015 09:16:25 - ERROR: I0917 09:16:25.299746 12271 net.cpp:240] relu3 does not need backward computation.
17-09-2015 09:16:25 - ERROR: I0917 09:16:25.299749 12271 net.cpp:240] fc3 does not need backward computation.
…
