…
2015-09-13 22:09:09 - ERROR: I0913 22:09:09.954263 29241 net.cpp:434] Input 0 -> data
2015-09-13 22:09:09 - ERROR: I0913 22:09:09.954299 29241 layer_factory.hpp:75] Creating layer conv1
2015-09-13 22:09:09 - ERROR: I0913 22:09:09.954315 29241 net.cpp:110] Creating Layer conv1
2015-09-13 22:09:09 - ERROR: I0913 22:09:09.954324 29241 net.cpp:476] conv1 <- data
2015-09-13 22:09:09 - ERROR: I0913 22:09:09.954334 29241 net.cpp:432] conv1 -> conv1
2015-09-13 22:09:09 - ERROR: I0913 22:09:09.954725 29241 net.cpp:155] Setting up conv1
2015-09-13 22:09:09 - ERROR: I0913 22:09:09.954746 29241 net.cpp:163] Top shape: 256 12 48 48 (7077888)
2015-09-13 22:09:09 - ERROR: I0913 22:09:09.954766 29241 layer_factory.hpp:75] Creating layer relu1
2015-09-13 22:09:09 - ERROR: I0913 22:09:09.954777 29241 net.cpp:110] Creating Layer relu1
2015-09-13 22:09:09 - ERROR: I0913 22:09:09.954782 29241 net.cpp:476] relu1 <- conv1
2015-09-13 22:09:09 - ERROR: I0913 22:09:09.954788 29241 net.cpp:419] relu1 -> conv1 (in-place)
2015-09-13 22:09:09 - ERROR: I0913 22:09:09.954802 29241 net.cpp:155] Setting up relu1
2015-09-13 22:09:09 - ERROR: I0913 22:09:09.954809 29241 net.cpp:163] Top shape: 256 12 48 48 (7077888)
2015-09-13 22:09:09 - ERROR: I0913 22:09:09.954814 29241 layer_factory.hpp:75] Creating layer pool1
2015-09-13 22:09:09 - ERROR: I0913 22:09:09.954823 29241 net.cpp:110] Creating Layer pool1
2015-09-13 22:09:09 - ERROR: I0913 22:09:09.954828 29241 net.cpp:476] pool1 <- conv1
2015-09-13 22:09:09 - ERROR: I0913 22:09:09.954838 29241 net.cpp:432] pool1 -> pool1
2015-09-13 22:09:09 - ERROR: I0913 22:09:09.954855 29241 net.cpp:155] Setting up pool1
2015-09-13 22:09:09 - ERROR: I0913 22:09:09.954864 29241 net.cpp:163] Top shape: 256 12 24 24 (1769472)
2015-09-13 22:09:09 - ERROR: I0913 22:09:09.954869 29241 layer_factory.hpp:75] Creating layer conv2
2015-09-13 22:09:09 - ERROR: I0913 22:09:09.954880 29241 net.cpp:110] Creating Layer conv2
2015-09-13 22:09:09 - ERROR: I0913 22:09:09.954886 29241 net.cpp:476] conv2 <- pool1
2015-09-13 22:09:09 - ERROR: I0913 22:09:09.954893 29241 net.cpp:432] conv2 -> conv2
2015-09-13 22:09:09 - ERROR: I0913 22:09:09.955081 29241 net.cpp:155] Setting up conv2
2015-09-13 22:09:09 - ERROR: I0913 22:09:09.955092 29241 net.cpp:163] Top shape: 256 48 25 25 (7680000)
2015-09-13 22:09:09 - ERROR: I0913 22:09:09.955101 29241 layer_factory.hpp:75] Creating layer relu2
2015-09-13 22:09:09 - ERROR: I0913 22:09:09.955109 29241 net.cpp:110] Creating Layer relu2
2015-09-13 22:09:09 - ERROR: I0913 22:09:09.955114 29241 net.cpp:476] relu2 <- conv2
2015-09-13 22:09:09 - ERROR: I0913 22:09:09.955123 29241 net.cpp:419] relu2 -> conv2 (in-place)
2015-09-13 22:09:09 - ERROR: I0913 22:09:09.955129 29241 net.cpp:155] Setting up relu2
2015-09-13 22:09:09 - ERROR: I0913 22:09:09.955137 29241 net.cpp:163] Top shape: 256 48 25 25 (7680000)
2015-09-13 22:09:09 - ERROR: I0913 22:09:09.955142 29241 layer_factory.hpp:75] Creating layer pool2
2015-09-13 22:09:09 - ERROR: I0913 22:09:09.955148 29241 net.cpp:110] Creating Layer pool2
2015-09-13 22:09:09 - ERROR: I0913 22:09:09.955153 29241 net.cpp:476] pool2 <- conv2
2015-09-13 22:09:09 - ERROR: I0913 22:09:09.955162 29241 net.cpp:432] pool2 -> pool2
2015-09-13 22:09:09 - ERROR: I0913 22:09:09.955170 29241 net.cpp:155] Setting up pool2
2015-09-13 22:09:09 - ERROR: I0913 22:09:09.955175 29241 net.cpp:163] Top shape: 256 48 12 12 (1769472)
2015-09-13 22:09:09 - ERROR: I0913 22:09:09.955178 29241 layer_factory.hpp:75] Creating layer fc3
2015-09-13 22:09:09 - ERROR: I0913 22:09:09.955184 29241 net.cpp:110] Creating Layer fc3
2015-09-13 22:09:09 - ERROR: I0913 22:09:09.955189 29241 net.cpp:476] fc3 <- pool2
2015-09-13 22:09:09 - ERROR: I0913 22:09:09.955199 29241 net.cpp:432] fc3 -> fc3
2015-09-13 22:09:10 - ERROR: I0913 22:09:10.044276 29241 net.cpp:155] Setting up fc3
2015-09-13 22:09:10 - ERROR: I0913 22:09:10.044304 29241 net.cpp:163] Top shape: 256 1024 (262144)
2015-09-13 22:09:10 - ERROR: I0913 22:09:10.044318 29241 layer_factory.hpp:75] Creating layer relu3
2015-09-13 22:09:10 - ERROR: I0913 22:09:10.044328 29241 net.cpp:110] Creating Layer relu3
2015-09-13 22:09:10 - ERROR: I0913 22:09:10.044332 29241 net.cpp:476] relu3 <- fc3
2015-09-13 22:09:10 - ERROR: I0913 22:09:10.044337 29241 net.cpp:419] relu3 -> fc3 (in-place)
2015-09-13 22:09:10 - ERROR: I0913 22:09:10.044347 29241 net.cpp:155] Setting up relu3
2015-09-13 22:09:10 - ERROR: I0913 22:09:10.044350 29241 net.cpp:163] Top shape: 256 1024 (262144)
2015-09-13 22:09:10 - ERROR: I0913 22:09:10.044353 29241 layer_factory.hpp:75] Creating layer fc4
2015-09-13 22:09:10 - ERROR: I0913 22:09:10.044363 29241 net.cpp:110] Creating Layer fc4
2015-09-13 22:09:10 - ERROR: I0913 22:09:10.044365 29241 net.cpp:476] fc4 <- fc3
2015-09-13 22:09:10 - ERROR: I0913 22:09:10.044371 29241 net.cpp:432] fc4 -> fc4
2015-09-13 22:09:10 - ERROR: I0913 22:09:10.044414 29241 net.cpp:155] Setting up fc4
2015-09-13 22:09:10 - ERROR: I0913 22:09:10.044420 29241 net.cpp:163] Top shape: 256 2 (512)
2015-09-13 22:09:10 - ERROR: I0913 22:09:10.044428 29241 layer_factory.hpp:75] Creating layer prob
2015-09-13 22:09:10 - ERROR: I0913 22:09:10.044437 29241 net.cpp:110] Creating Layer prob
2015-09-13 22:09:10 - ERROR: I0913 22:09:10.044441 29241 net.cpp:476] prob <- fc4
2015-09-13 22:09:10 - ERROR: I0913 22:09:10.044448 29241 net.cpp:432] prob -> prob
2015-09-13 22:09:10 - ERROR: I0913 22:09:10.044457 29241 net.cpp:155] Setting up prob
2015-09-13 22:09:10 - ERROR: I0913 22:09:10.044464 29241 net.cpp:163] Top shape: 256 2 (512)
2015-09-13 22:09:10 - ERROR: I0913 22:09:10.044471 29241 net.cpp:240] prob does not need backward computation.
2015-09-13 22:09:10 - ERROR: I0913 22:09:10.044474 29241 net.cpp:240] fc4 does not need backward computation.
2015-09-13 22:09:10 - ERROR: I0913 22:09:10.044479 29241 net.cpp:240] relu3 does not need backward computation.
2015-09-13 22:09:10 - ERROR: I0913 22:09:10.044483 29241 net.cpp:240] fc3 does not need backward computation.
…
