…
2015-09-05 16:45:13 - ERROR: I0905 16:45:13.238093  4813 net.cpp:434] Input 0 -> data
2015-09-05 16:45:13 - ERROR: I0905 16:45:13.238116  4813 layer_factory.hpp:75] Creating layer conv1
2015-09-05 16:45:13 - ERROR: I0905 16:45:13.238137  4813 net.cpp:110] Creating Layer conv1
2015-09-05 16:45:13 - ERROR: I0905 16:45:13.238140  4813 net.cpp:476] conv1 <- data
2015-09-05 16:45:13 - ERROR: I0905 16:45:13.238147  4813 net.cpp:432] conv1 -> conv1
2015-09-05 16:45:13 - ERROR: I0905 16:45:13.238179  4813 net.cpp:155] Setting up conv1
2015-09-05 16:45:13 - ERROR: I0905 16:45:13.238186  4813 net.cpp:163] Top shape: 256 12 48 48 (7077888)
2015-09-05 16:45:13 - ERROR: I0905 16:45:13.238195  4813 layer_factory.hpp:75] Creating layer relu1
2015-09-05 16:45:13 - ERROR: I0905 16:45:13.238200  4813 net.cpp:110] Creating Layer relu1
2015-09-05 16:45:13 - ERROR: I0905 16:45:13.238204  4813 net.cpp:476] relu1 <- conv1
2015-09-05 16:45:13 - ERROR: I0905 16:45:13.238207  4813 net.cpp:419] relu1 -> conv1 (in-place)
2015-09-05 16:45:13 - ERROR: I0905 16:45:13.238212  4813 net.cpp:155] Setting up relu1
2015-09-05 16:45:13 - ERROR: I0905 16:45:13.238215  4813 net.cpp:163] Top shape: 256 12 48 48 (7077888)
2015-09-05 16:45:13 - ERROR: I0905 16:45:13.238219  4813 layer_factory.hpp:75] Creating layer pool1
2015-09-05 16:45:13 - ERROR: I0905 16:45:13.238222  4813 net.cpp:110] Creating Layer pool1
2015-09-05 16:45:13 - ERROR: I0905 16:45:13.238225  4813 net.cpp:476] pool1 <- conv1
2015-09-05 16:45:13 - ERROR: I0905 16:45:13.238229  4813 net.cpp:432] pool1 -> pool1
2015-09-05 16:45:13 - ERROR: I0905 16:45:13.238236  4813 net.cpp:155] Setting up pool1
2015-09-05 16:45:13 - ERROR: I0905 16:45:13.238240  4813 net.cpp:163] Top shape: 256 12 24 24 (1769472)
2015-09-05 16:45:13 - ERROR: I0905 16:45:13.238243  4813 layer_factory.hpp:75] Creating layer conv2
2015-09-05 16:45:13 - ERROR: I0905 16:45:13.238247  4813 net.cpp:110] Creating Layer conv2
2015-09-05 16:45:13 - ERROR: I0905 16:45:13.238250  4813 net.cpp:476] conv2 <- pool1
2015-09-05 16:45:13 - ERROR: I0905 16:45:13.238253  4813 net.cpp:432] conv2 -> conv2
2015-09-05 16:45:13 - ERROR: I0905 16:45:13.238371  4813 net.cpp:155] Setting up conv2
2015-09-05 16:45:13 - ERROR: I0905 16:45:13.238375  4813 net.cpp:163] Top shape: 256 48 25 25 (7680000)
2015-09-05 16:45:13 - ERROR: I0905 16:45:13.238381  4813 layer_factory.hpp:75] Creating layer relu2
2015-09-05 16:45:13 - ERROR: I0905 16:45:13.238385  4813 net.cpp:110] Creating Layer relu2
2015-09-05 16:45:13 - ERROR: I0905 16:45:13.238389  4813 net.cpp:476] relu2 <- conv2
2015-09-05 16:45:13 - ERROR: I0905 16:45:13.238391  4813 net.cpp:419] relu2 -> conv2 (in-place)
2015-09-05 16:45:13 - ERROR: I0905 16:45:13.238395  4813 net.cpp:155] Setting up relu2
2015-09-05 16:45:13 - ERROR: I0905 16:45:13.238399  4813 net.cpp:163] Top shape: 256 48 25 25 (7680000)
2015-09-05 16:45:13 - ERROR: I0905 16:45:13.238401  4813 layer_factory.hpp:75] Creating layer pool2
2015-09-05 16:45:13 - ERROR: I0905 16:45:13.238404  4813 net.cpp:110] Creating Layer pool2
2015-09-05 16:45:13 - ERROR: I0905 16:45:13.238407  4813 net.cpp:476] pool2 <- conv2
2015-09-05 16:45:13 - ERROR: I0905 16:45:13.238410  4813 net.cpp:432] pool2 -> pool2
2015-09-05 16:45:13 - ERROR: I0905 16:45:13.238416  4813 net.cpp:155] Setting up pool2
2015-09-05 16:45:13 - ERROR: I0905 16:45:13.238420  4813 net.cpp:163] Top shape: 256 48 12 12 (1769472)
2015-09-05 16:45:13 - ERROR: I0905 16:45:13.238422  4813 layer_factory.hpp:75] Creating layer fc3
2015-09-05 16:45:13 - ERROR: I0905 16:45:13.238427  4813 net.cpp:110] Creating Layer fc3
2015-09-05 16:45:13 - ERROR: I0905 16:45:13.238430  4813 net.cpp:476] fc3 <- pool2
2015-09-05 16:45:13 - ERROR: I0905 16:45:13.238433  4813 net.cpp:432] fc3 -> fc3
2015-09-05 16:45:13 - ERROR: I0905 16:45:13.334736  4813 net.cpp:155] Setting up fc3
2015-09-05 16:45:13 - ERROR: I0905 16:45:13.334780  4813 net.cpp:163] Top shape: 256 1024 (262144)
2015-09-05 16:45:13 - ERROR: I0905 16:45:13.334795  4813 layer_factory.hpp:75] Creating layer relu3
2015-09-05 16:45:13 - ERROR: I0905 16:45:13.334805  4813 net.cpp:110] Creating Layer relu3
2015-09-05 16:45:13 - ERROR: I0905 16:45:13.334810  4813 net.cpp:476] relu3 <- fc3
2015-09-05 16:45:13 - ERROR: I0905 16:45:13.334815  4813 net.cpp:419] relu3 -> fc3 (in-place)
2015-09-05 16:45:13 - ERROR: I0905 16:45:13.334825  4813 net.cpp:155] Setting up relu3
2015-09-05 16:45:13 - ERROR: I0905 16:45:13.334830  4813 net.cpp:163] Top shape: 256 1024 (262144)
2015-09-05 16:45:13 - ERROR: I0905 16:45:13.334831  4813 layer_factory.hpp:75] Creating layer fc4
2015-09-05 16:45:13 - ERROR: I0905 16:45:13.334839  4813 net.cpp:110] Creating Layer fc4
2015-09-05 16:45:13 - ERROR: I0905 16:45:13.334842  4813 net.cpp:476] fc4 <- fc3
2015-09-05 16:45:13 - ERROR: I0905 16:45:13.334846  4813 net.cpp:432] fc4 -> fc4
2015-09-05 16:45:13 - ERROR: I0905 16:45:13.334884  4813 net.cpp:155] Setting up fc4
2015-09-05 16:45:13 - ERROR: I0905 16:45:13.334888  4813 net.cpp:163] Top shape: 256 2 (512)
2015-09-05 16:45:13 - ERROR: I0905 16:45:13.334892  4813 layer_factory.hpp:75] Creating layer prob
2015-09-05 16:45:13 - ERROR: I0905 16:45:13.334898  4813 net.cpp:110] Creating Layer prob
2015-09-05 16:45:13 - ERROR: I0905 16:45:13.334900  4813 net.cpp:476] prob <- fc4
2015-09-05 16:45:13 - ERROR: I0905 16:45:13.334904  4813 net.cpp:432] prob -> prob
2015-09-05 16:45:13 - ERROR: I0905 16:45:13.334910  4813 net.cpp:155] Setting up prob
2015-09-05 16:45:13 - ERROR: I0905 16:45:13.334914  4813 net.cpp:163] Top shape: 256 2 (512)
2015-09-05 16:45:13 - ERROR: I0905 16:45:13.334918  4813 net.cpp:240] prob does not need backward computation.
2015-09-05 16:45:13 - ERROR: I0905 16:45:13.334919  4813 net.cpp:240] fc4 does not need backward computation.
2015-09-05 16:45:13 - ERROR: I0905 16:45:13.334923  4813 net.cpp:240] relu3 does not need backward computation.
2015-09-05 16:45:13 - ERROR: I0905 16:45:13.334924  4813 net.cpp:240] fc3 does not need backward computation.
…
