…
2015-09-11 12:29:11 - ERROR: I0911 12:29:11.872819 26211 net.cpp:434] Input 0 -> data
2015-09-11 12:29:11 - ERROR: I0911 12:29:11.872908 26211 layer_factory.hpp:75] Creating layer conv1
2015-09-11 12:29:11 - ERROR: I0911 12:29:11.872969 26211 net.cpp:110] Creating Layer conv1
2015-09-11 12:29:11 - ERROR: I0911 12:29:11.873016 26211 net.cpp:476] conv1 <- data
2015-09-11 12:29:11 - ERROR: I0911 12:29:11.873065 26211 net.cpp:432] conv1 -> conv1
2015-09-11 12:29:11 - ERROR: I0911 12:29:11.873543 26211 net.cpp:155] Setting up conv1
2015-09-11 12:29:11 - ERROR: I0911 12:29:11.873610 26211 net.cpp:163] Top shape: 256 12 48 48 (7077888)
2015-09-11 12:29:11 - ERROR: I0911 12:29:11.873672 26211 layer_factory.hpp:75] Creating layer relu1
2015-09-11 12:29:11 - ERROR: I0911 12:29:11.873723 26211 net.cpp:110] Creating Layer relu1
2015-09-11 12:29:11 - ERROR: I0911 12:29:11.873764 26211 net.cpp:476] relu1 <- conv1
2015-09-11 12:29:11 - ERROR: I0911 12:29:11.873812 26211 net.cpp:419] relu1 -> conv1 (in-place)
2015-09-11 12:29:11 - ERROR: I0911 12:29:11.873863 26211 net.cpp:155] Setting up relu1
2015-09-11 12:29:11 - ERROR: I0911 12:29:11.873909 26211 net.cpp:163] Top shape: 256 12 48 48 (7077888)
2015-09-11 12:29:11 - ERROR: I0911 12:29:11.873950 26211 layer_factory.hpp:75] Creating layer pool1
2015-09-11 12:29:11 - ERROR: I0911 12:29:11.873998 26211 net.cpp:110] Creating Layer pool1
2015-09-11 12:29:11 - ERROR: I0911 12:29:11.874043 26211 net.cpp:476] pool1 <- conv1
2015-09-11 12:29:11 - ERROR: I0911 12:29:11.874089 26211 net.cpp:432] pool1 -> pool1
2015-09-11 12:29:11 - ERROR: I0911 12:29:11.874147 26211 net.cpp:155] Setting up pool1
2015-09-11 12:29:11 - ERROR: I0911 12:29:11.874194 26211 net.cpp:163] Top shape: 256 12 24 24 (1769472)
2015-09-11 12:29:11 - ERROR: I0911 12:29:11.874238 26211 layer_factory.hpp:75] Creating layer conv2
2015-09-11 12:29:11 - ERROR: I0911 12:29:11.874284 26211 net.cpp:110] Creating Layer conv2
2015-09-11 12:29:11 - ERROR: I0911 12:29:11.874325 26211 net.cpp:476] conv2 <- pool1
2015-09-11 12:29:11 - ERROR: I0911 12:29:11.874369 26211 net.cpp:432] conv2 -> conv2
2015-09-11 12:29:11 - ERROR: I0911 12:29:11.874606 26211 net.cpp:155] Setting up conv2
2015-09-11 12:29:11 - ERROR: I0911 12:29:11.874656 26211 net.cpp:163] Top shape: 256 48 25 25 (7680000)
2015-09-11 12:29:11 - ERROR: I0911 12:29:11.874708 26211 layer_factory.hpp:75] Creating layer relu2
2015-09-11 12:29:11 - ERROR: I0911 12:29:11.874753 26211 net.cpp:110] Creating Layer relu2
2015-09-11 12:29:11 - ERROR: I0911 12:29:11.874796 26211 net.cpp:476] relu2 <- conv2
2015-09-11 12:29:11 - ERROR: I0911 12:29:11.874840 26211 net.cpp:419] relu2 -> conv2 (in-place)
2015-09-11 12:29:11 - ERROR: I0911 12:29:11.874886 26211 net.cpp:155] Setting up relu2
2015-09-11 12:29:11 - ERROR: I0911 12:29:11.874933 26211 net.cpp:163] Top shape: 256 48 25 25 (7680000)
2015-09-11 12:29:11 - ERROR: I0911 12:29:11.874976 26211 layer_factory.hpp:75] Creating layer pool2
2015-09-11 12:29:11 - ERROR: I0911 12:29:11.875021 26211 net.cpp:110] Creating Layer pool2
2015-09-11 12:29:11 - ERROR: I0911 12:29:11.875063 26211 net.cpp:476] pool2 <- conv2
2015-09-11 12:29:11 - ERROR: I0911 12:29:11.875107 26211 net.cpp:432] pool2 -> pool2
2015-09-11 12:29:11 - ERROR: I0911 12:29:11.875154 26211 net.cpp:155] Setting up pool2
2015-09-11 12:29:11 - ERROR: I0911 12:29:11.875196 26211 net.cpp:163] Top shape: 256 48 12 12 (1769472)
2015-09-11 12:29:11 - ERROR: I0911 12:29:11.875233 26211 layer_factory.hpp:75] Creating layer fc3
2015-09-11 12:29:11 - ERROR: I0911 12:29:11.875277 26211 net.cpp:110] Creating Layer fc3
2015-09-11 12:29:11 - ERROR: I0911 12:29:11.875319 26211 net.cpp:476] fc3 <- pool2
2015-09-11 12:29:11 - ERROR: I0911 12:29:11.875366 26211 net.cpp:432] fc3 -> fc3
2015-09-11 12:29:12 - ERROR: I0911 12:29:12.037581 26211 net.cpp:155] Setting up fc3
2015-09-11 12:29:12 - ERROR: I0911 12:29:12.038995 26211 net.cpp:163] Top shape: 256 1024 (262144)
2015-09-11 12:29:12 - ERROR: I0911 12:29:12.040163 26211 layer_factory.hpp:75] Creating layer relu3
2015-09-11 12:29:12 - ERROR: I0911 12:29:12.041333 26211 net.cpp:110] Creating Layer relu3
2015-09-11 12:29:12 - ERROR: I0911 12:29:12.042474 26211 net.cpp:476] relu3 <- fc3
2015-09-11 12:29:12 - ERROR: I0911 12:29:12.043599 26211 net.cpp:419] relu3 -> fc3 (in-place)
2015-09-11 12:29:12 - ERROR: I0911 12:29:12.044805 26211 net.cpp:155] Setting up relu3
2015-09-11 12:29:12 - ERROR: I0911 12:29:12.045950 26211 net.cpp:163] Top shape: 256 1024 (262144)
2015-09-11 12:29:12 - ERROR: I0911 12:29:12.047374 26211 layer_factory.hpp:75] Creating layer fc4
2015-09-11 12:29:12 - ERROR: I0911 12:29:12.048768 26211 net.cpp:110] Creating Layer fc4
2015-09-11 12:29:12 - ERROR: I0911 12:29:12.049953 26211 net.cpp:476] fc4 <- fc3
2015-09-11 12:29:12 - ERROR: I0911 12:29:12.051154 26211 net.cpp:432] fc4 -> fc4
2015-09-11 12:29:12 - ERROR: I0911 12:29:12.052371 26211 net.cpp:155] Setting up fc4
2015-09-11 12:29:12 - ERROR: I0911 12:29:12.053571 26211 net.cpp:163] Top shape: 256 2 (512)
2015-09-11 12:29:12 - ERROR: I0911 12:29:12.054916 26211 layer_factory.hpp:75] Creating layer prob
2015-09-11 12:29:12 - ERROR: I0911 12:29:12.056133 26211 net.cpp:110] Creating Layer prob
2015-09-11 12:29:12 - ERROR: I0911 12:29:12.057314 26211 net.cpp:476] prob <- fc4
2015-09-11 12:29:12 - ERROR: I0911 12:29:12.058687 26211 net.cpp:432] prob -> prob
2015-09-11 12:29:12 - ERROR: I0911 12:29:12.059590 26211 net.cpp:155] Setting up prob
2015-09-11 12:29:12 - ERROR: I0911 12:29:12.059631 26211 net.cpp:163] Top shape: 256 2 (512)
2015-09-11 12:29:12 - ERROR: I0911 12:29:12.059665 26211 net.cpp:240] prob does not need backward computation.
2015-09-11 12:29:12 - ERROR: I0911 12:29:12.059697 26211 net.cpp:240] fc4 does not need backward computation.
2015-09-11 12:29:12 - ERROR: I0911 12:29:12.059730 26211 net.cpp:240] relu3 does not need backward computation.
2015-09-11 12:29:12 - ERROR: I0911 12:29:12.059761 26211 net.cpp:240] fc3 does not need backward computation.
…
