…
2015-09-16 22:23:48 - ERROR: I0916 22:23:48.216528 18438 net.cpp:434] Input 0 -> data
2015-09-16 22:23:48 - ERROR: I0916 22:23:48.216562 18438 layer_factory.hpp:75] Creating layer conv1
2015-09-16 22:23:48 - ERROR: I0916 22:23:48.216577 18438 net.cpp:110] Creating Layer conv1
2015-09-16 22:23:48 - ERROR: I0916 22:23:48.216583 18438 net.cpp:476] conv1 <- data
2015-09-16 22:23:48 - ERROR: I0916 22:23:48.216591 18438 net.cpp:432] conv1 -> conv1
2015-09-16 22:23:48 - ERROR: I0916 22:23:48.216960 18438 net.cpp:155] Setting up conv1
2015-09-16 22:23:48 - ERROR: I0916 22:23:48.216980 18438 net.cpp:163] Top shape: 256 12 48 48 (7077888)
2015-09-16 22:23:48 - ERROR: I0916 22:23:48.217001 18438 layer_factory.hpp:75] Creating layer relu1
2015-09-16 22:23:48 - ERROR: I0916 22:23:48.217010 18438 net.cpp:110] Creating Layer relu1
2015-09-16 22:23:48 - ERROR: I0916 22:23:48.217016 18438 net.cpp:476] relu1 <- conv1
2015-09-16 22:23:48 - ERROR: I0916 22:23:48.217023 18438 net.cpp:419] relu1 -> conv1 (in-place)
2015-09-16 22:23:48 - ERROR: I0916 22:23:48.217036 18438 net.cpp:155] Setting up relu1
2015-09-16 22:23:48 - ERROR: I0916 22:23:48.217044 18438 net.cpp:163] Top shape: 256 12 48 48 (7077888)
2015-09-16 22:23:48 - ERROR: I0916 22:23:48.217049 18438 layer_factory.hpp:75] Creating layer pool1
2015-09-16 22:23:48 - ERROR: I0916 22:23:48.217056 18438 net.cpp:110] Creating Layer pool1
2015-09-16 22:23:48 - ERROR: I0916 22:23:48.217062 18438 net.cpp:476] pool1 <- conv1
2015-09-16 22:23:48 - ERROR: I0916 22:23:48.217068 18438 net.cpp:432] pool1 -> pool1
2015-09-16 22:23:48 - ERROR: I0916 22:23:48.217087 18438 net.cpp:155] Setting up pool1
2015-09-16 22:23:48 - ERROR: I0916 22:23:48.217095 18438 net.cpp:163] Top shape: 256 12 24 24 (1769472)
2015-09-16 22:23:48 - ERROR: I0916 22:23:48.217100 18438 layer_factory.hpp:75] Creating layer conv2
2015-09-16 22:23:48 - ERROR: I0916 22:23:48.217108 18438 net.cpp:110] Creating Layer conv2
2015-09-16 22:23:48 - ERROR: I0916 22:23:48.217111 18438 net.cpp:476] conv2 <- pool1
2015-09-16 22:23:48 - ERROR: I0916 22:23:48.217118 18438 net.cpp:432] conv2 -> conv2
2015-09-16 22:23:48 - ERROR: I0916 22:23:48.217295 18438 net.cpp:155] Setting up conv2
2015-09-16 22:23:48 - ERROR: I0916 22:23:48.217305 18438 net.cpp:163] Top shape: 256 48 25 25 (7680000)
2015-09-16 22:23:48 - ERROR: I0916 22:23:48.217317 18438 layer_factory.hpp:75] Creating layer relu2
2015-09-16 22:23:48 - ERROR: I0916 22:23:48.217325 18438 net.cpp:110] Creating Layer relu2
2015-09-16 22:23:48 - ERROR: I0916 22:23:48.217330 18438 net.cpp:476] relu2 <- conv2
2015-09-16 22:23:48 - ERROR: I0916 22:23:48.217339 18438 net.cpp:419] relu2 -> conv2 (in-place)
2015-09-16 22:23:48 - ERROR: I0916 22:23:48.217345 18438 net.cpp:155] Setting up relu2
2015-09-16 22:23:48 - ERROR: I0916 22:23:48.217352 18438 net.cpp:163] Top shape: 256 48 25 25 (7680000)
2015-09-16 22:23:48 - ERROR: I0916 22:23:48.217357 18438 layer_factory.hpp:75] Creating layer pool2
2015-09-16 22:23:48 - ERROR: I0916 22:23:48.217363 18438 net.cpp:110] Creating Layer pool2
2015-09-16 22:23:48 - ERROR: I0916 22:23:48.217368 18438 net.cpp:476] pool2 <- conv2
2015-09-16 22:23:48 - ERROR: I0916 22:23:48.217375 18438 net.cpp:432] pool2 -> pool2
2015-09-16 22:23:48 - ERROR: I0916 22:23:48.217386 18438 net.cpp:155] Setting up pool2
2015-09-16 22:23:48 - ERROR: I0916 22:23:48.217393 18438 net.cpp:163] Top shape: 256 48 12 12 (1769472)
2015-09-16 22:23:48 - ERROR: I0916 22:23:48.217398 18438 layer_factory.hpp:75] Creating layer fc3
2015-09-16 22:23:48 - ERROR: I0916 22:23:48.217406 18438 net.cpp:110] Creating Layer fc3
2015-09-16 22:23:48 - ERROR: I0916 22:23:48.217411 18438 net.cpp:476] fc3 <- pool2
2015-09-16 22:23:48 - ERROR: I0916 22:23:48.217418 18438 net.cpp:432] fc3 -> fc3
2015-09-16 22:23:48 - ERROR: I0916 22:23:48.351572 18438 net.cpp:155] Setting up fc3
2015-09-16 22:23:48 - ERROR: I0916 22:23:48.351701 18438 net.cpp:163] Top shape: 256 1024 (262144)
2015-09-16 22:23:48 - ERROR: I0916 22:23:48.351754 18438 layer_factory.hpp:75] Creating layer relu3
2015-09-16 22:23:48 - ERROR: I0916 22:23:48.351799 18438 net.cpp:110] Creating Layer relu3
2015-09-16 22:23:48 - ERROR: I0916 22:23:48.351835 18438 net.cpp:476] relu3 <- fc3
2015-09-16 22:23:48 - ERROR: I0916 22:23:48.351873 18438 net.cpp:419] relu3 -> fc3 (in-place)
2015-09-16 22:23:48 - ERROR: I0916 22:23:48.351917 18438 net.cpp:155] Setting up relu3
2015-09-16 22:23:48 - ERROR: I0916 22:23:48.351953 18438 net.cpp:163] Top shape: 256 1024 (262144)
2015-09-16 22:23:48 - ERROR: I0916 22:23:48.351986 18438 layer_factory.hpp:75] Creating layer fc4
2015-09-16 22:23:48 - ERROR: I0916 22:23:48.352030 18438 net.cpp:110] Creating Layer fc4
2015-09-16 22:23:48 - ERROR: I0916 22:23:48.352066 18438 net.cpp:476] fc4 <- fc3
2015-09-16 22:23:48 - ERROR: I0916 22:23:48.352103 18438 net.cpp:432] fc4 -> fc4
2015-09-16 22:23:48 - ERROR: I0916 22:23:48.352201 18438 net.cpp:155] Setting up fc4
2015-09-16 22:23:48 - ERROR: I0916 22:23:48.352242 18438 net.cpp:163] Top shape: 256 2 (512)
2015-09-16 22:23:48 - ERROR: I0916 22:23:48.352288 18438 layer_factory.hpp:75] Creating layer prob
2015-09-16 22:23:48 - ERROR: I0916 22:23:48.352326 18438 net.cpp:110] Creating Layer prob
2015-09-16 22:23:48 - ERROR: I0916 22:23:48.352360 18438 net.cpp:476] prob <- fc4
2015-09-16 22:23:48 - ERROR: I0916 22:23:48.352396 18438 net.cpp:432] prob -> prob
2015-09-16 22:23:48 - ERROR: I0916 22:23:48.352437 18438 net.cpp:155] Setting up prob
2015-09-16 22:23:48 - ERROR: I0916 22:23:48.352474 18438 net.cpp:163] Top shape: 256 2 (512)
2015-09-16 22:23:48 - ERROR: I0916 22:23:48.352509 18438 net.cpp:240] prob does not need backward computation.
2015-09-16 22:23:48 - ERROR: I0916 22:23:48.352543 18438 net.cpp:240] fc4 does not need backward computation.
2015-09-16 22:23:48 - ERROR: I0916 22:23:48.352578 18438 net.cpp:240] relu3 does not need backward computation.
2015-09-16 22:23:48 - ERROR: I0916 22:23:48.352612 18438 net.cpp:240] fc3 does not need backward computation.
…
