…
2015-09-07 17:30:25 - ERROR: I0907 17:30:25.537616 21775 net.cpp:434] Input 0 -> data
2015-09-07 17:30:25 - ERROR: I0907 17:30:25.537654 21775 layer_factory.hpp:75] Creating layer conv1
2015-09-07 17:30:25 - ERROR: I0907 17:30:25.537673 21775 net.cpp:110] Creating Layer conv1
2015-09-07 17:30:25 - ERROR: I0907 17:30:25.537683 21775 net.cpp:476] conv1 <- data
2015-09-07 17:30:25 - ERROR: I0907 17:30:25.537694 21775 net.cpp:432] conv1 -> conv1
2015-09-07 17:30:25 - ERROR: I0907 17:30:25.538103 21775 net.cpp:155] Setting up conv1
2015-09-07 17:30:25 - ERROR: I0907 17:30:25.538120 21775 net.cpp:163] Top shape: 256 12 48 48 (7077888)
2015-09-07 17:30:25 - ERROR: I0907 17:30:25.538139 21775 layer_factory.hpp:75] Creating layer relu1
2015-09-07 17:30:25 - ERROR: I0907 17:30:25.538151 21775 net.cpp:110] Creating Layer relu1
2015-09-07 17:30:25 - ERROR: I0907 17:30:25.538156 21775 net.cpp:476] relu1 <- conv1
2015-09-07 17:30:25 - ERROR: I0907 17:30:25.538163 21775 net.cpp:419] relu1 -> conv1 (in-place)
2015-09-07 17:30:25 - ERROR: I0907 17:30:25.538177 21775 net.cpp:155] Setting up relu1
2015-09-07 17:30:25 - ERROR: I0907 17:30:25.538184 21775 net.cpp:163] Top shape: 256 12 48 48 (7077888)
2015-09-07 17:30:25 - ERROR: I0907 17:30:25.538190 21775 layer_factory.hpp:75] Creating layer pool1
2015-09-07 17:30:25 - ERROR: I0907 17:30:25.538200 21775 net.cpp:110] Creating Layer pool1
2015-09-07 17:30:25 - ERROR: I0907 17:30:25.538205 21775 net.cpp:476] pool1 <- conv1
2015-09-07 17:30:25 - ERROR: I0907 17:30:25.538213 21775 net.cpp:432] pool1 -> pool1
2015-09-07 17:30:25 - ERROR: I0907 17:30:25.538230 21775 net.cpp:155] Setting up pool1
2015-09-07 17:30:25 - ERROR: I0907 17:30:25.538236 21775 net.cpp:163] Top shape: 256 12 24 24 (1769472)
2015-09-07 17:30:25 - ERROR: I0907 17:30:25.538239 21775 layer_factory.hpp:75] Creating layer conv2
2015-09-07 17:30:25 - ERROR: I0907 17:30:25.538246 21775 net.cpp:110] Creating Layer conv2
2015-09-07 17:30:25 - ERROR: I0907 17:30:25.538250 21775 net.cpp:476] conv2 <- pool1
2015-09-07 17:30:25 - ERROR: I0907 17:30:25.538259 21775 net.cpp:432] conv2 -> conv2
2015-09-07 17:30:25 - ERROR: I0907 17:30:25.538421 21775 net.cpp:155] Setting up conv2
2015-09-07 17:30:25 - ERROR: I0907 17:30:25.538429 21775 net.cpp:163] Top shape: 256 48 25 25 (7680000)
2015-09-07 17:30:25 - ERROR: I0907 17:30:25.538435 21775 layer_factory.hpp:75] Creating layer relu2
2015-09-07 17:30:25 - ERROR: I0907 17:30:25.538440 21775 net.cpp:110] Creating Layer relu2
2015-09-07 17:30:25 - ERROR: I0907 17:30:25.538444 21775 net.cpp:476] relu2 <- conv2
2015-09-07 17:30:25 - ERROR: I0907 17:30:25.538449 21775 net.cpp:419] relu2 -> conv2 (in-place)
2015-09-07 17:30:25 - ERROR: I0907 17:30:25.538456 21775 net.cpp:155] Setting up relu2
2015-09-07 17:30:25 - ERROR: I0907 17:30:25.538463 21775 net.cpp:163] Top shape: 256 48 25 25 (7680000)
2015-09-07 17:30:25 - ERROR: I0907 17:30:25.538470 21775 layer_factory.hpp:75] Creating layer pool2
2015-09-07 17:30:25 - ERROR: I0907 17:30:25.538480 21775 net.cpp:110] Creating Layer pool2
2015-09-07 17:30:25 - ERROR: I0907 17:30:25.538486 21775 net.cpp:476] pool2 <- conv2
2015-09-07 17:30:25 - ERROR: I0907 17:30:25.538492 21775 net.cpp:432] pool2 -> pool2
2015-09-07 17:30:25 - ERROR: I0907 17:30:25.538504 21775 net.cpp:155] Setting up pool2
2015-09-07 17:30:25 - ERROR: I0907 17:30:25.538516 21775 net.cpp:163] Top shape: 256 48 12 12 (1769472)
2015-09-07 17:30:25 - ERROR: I0907 17:30:25.538521 21775 layer_factory.hpp:75] Creating layer fc3
2015-09-07 17:30:25 - ERROR: I0907 17:30:25.538529 21775 net.cpp:110] Creating Layer fc3
2015-09-07 17:30:25 - ERROR: I0907 17:30:25.538535 21775 net.cpp:476] fc3 <- pool2
2015-09-07 17:30:25 - ERROR: I0907 17:30:25.538544 21775 net.cpp:432] fc3 -> fc3
2015-09-07 17:30:25 - ERROR: I0907 17:30:25.626766 21775 net.cpp:155] Setting up fc3
2015-09-07 17:30:25 - ERROR: I0907 17:30:25.626798 21775 net.cpp:163] Top shape: 256 1024 (262144)
2015-09-07 17:30:25 - ERROR: I0907 17:30:25.626827 21775 layer_factory.hpp:75] Creating layer relu3
2015-09-07 17:30:25 - ERROR: I0907 17:30:25.626839 21775 net.cpp:110] Creating Layer relu3
2015-09-07 17:30:25 - ERROR: I0907 17:30:25.626847 21775 net.cpp:476] relu3 <- fc3
2015-09-07 17:30:25 - ERROR: I0907 17:30:25.626854 21775 net.cpp:419] relu3 -> fc3 (in-place)
2015-09-07 17:30:25 - ERROR: I0907 17:30:25.626868 21775 net.cpp:155] Setting up relu3
2015-09-07 17:30:25 - ERROR: I0907 17:30:25.626873 21775 net.cpp:163] Top shape: 256 1024 (262144)
2015-09-07 17:30:25 - ERROR: I0907 17:30:25.626878 21775 layer_factory.hpp:75] Creating layer fc4
2015-09-07 17:30:25 - ERROR: I0907 17:30:25.626895 21775 net.cpp:110] Creating Layer fc4
2015-09-07 17:30:25 - ERROR: I0907 17:30:25.626901 21775 net.cpp:476] fc4 <- fc3
2015-09-07 17:30:25 - ERROR: I0907 17:30:25.626910 21775 net.cpp:432] fc4 -> fc4
2015-09-07 17:30:25 - ERROR: I0907 17:30:25.626973 21775 net.cpp:155] Setting up fc4
2015-09-07 17:30:25 - ERROR: I0907 17:30:25.626983 21775 net.cpp:163] Top shape: 256 2 (512)
2015-09-07 17:30:25 - ERROR: I0907 17:30:25.626994 21775 layer_factory.hpp:75] Creating layer prob
2015-09-07 17:30:25 - ERROR: I0907 17:30:25.627003 21775 net.cpp:110] Creating Layer prob
2015-09-07 17:30:25 - ERROR: I0907 17:30:25.627009 21775 net.cpp:476] prob <- fc4
2015-09-07 17:30:25 - ERROR: I0907 17:30:25.627022 21775 net.cpp:432] prob -> prob
2015-09-07 17:30:25 - ERROR: I0907 17:30:25.627034 21775 net.cpp:155] Setting up prob
2015-09-07 17:30:25 - ERROR: I0907 17:30:25.627043 21775 net.cpp:163] Top shape: 256 2 (512)
2015-09-07 17:30:25 - ERROR: I0907 17:30:25.627049 21775 net.cpp:240] prob does not need backward computation.
2015-09-07 17:30:25 - ERROR: I0907 17:30:25.627055 21775 net.cpp:240] fc4 does not need backward computation.
2015-09-07 17:30:25 - ERROR: I0907 17:30:25.627061 21775 net.cpp:240] relu3 does not need backward computation.
2015-09-07 17:30:25 - ERROR: I0907 17:30:25.627066 21775 net.cpp:240] fc3 does not need backward computation.
…
