…
17-09-2015 09:22:18 - ERROR: I0917 09:22:18.938797 35196 net.cpp:435] Input 0 -> data
17-09-2015 09:22:18 - ERROR: I0917 09:22:18.939144 35196 layer_factory.hpp:76] Creating layer conv1
17-09-2015 09:22:18 - ERROR: I0917 09:22:18.939265 35196 net.cpp:110] Creating Layer conv1
17-09-2015 09:22:18 - ERROR: I0917 09:22:18.939317 35196 net.cpp:477] conv1 <- data
17-09-2015 09:22:18 - ERROR: I0917 09:22:18.939373 35196 net.cpp:433] conv1 -> conv1
17-09-2015 09:22:18 - ERROR: I0917 09:22:18.941056 35196 net.cpp:155] Setting up conv1
17-09-2015 09:22:18 - ERROR: I0917 09:22:18.941191 35196 net.cpp:163] Top shape: 256 12 48 48 (7077888)
17-09-2015 09:22:18 - ERROR: I0917 09:22:18.941329 35196 layer_factory.hpp:76] Creating layer relu1
17-09-2015 09:22:18 - ERROR: I0917 09:22:18.941347 35196 net.cpp:110] Creating Layer relu1
17-09-2015 09:22:18 - ERROR: I0917 09:22:18.941351 35196 net.cpp:477] relu1 <- conv1
17-09-2015 09:22:18 - ERROR: I0917 09:22:18.941365 35196 net.cpp:419] relu1 -> conv1 (in-place)
17-09-2015 09:22:18 - ERROR: I0917 09:22:18.941417 35196 net.cpp:155] Setting up relu1
17-09-2015 09:22:18 - ERROR: I0917 09:22:18.941426 35196 net.cpp:163] Top shape: 256 12 48 48 (7077888)
17-09-2015 09:22:18 - ERROR: I0917 09:22:18.941428 35196 layer_factory.hpp:76] Creating layer pool1
17-09-2015 09:22:18 - ERROR: I0917 09:22:18.941444 35196 net.cpp:110] Creating Layer pool1
17-09-2015 09:22:18 - ERROR: I0917 09:22:18.941457 35196 net.cpp:477] pool1 <- conv1
17-09-2015 09:22:18 - ERROR: I0917 09:22:18.941500 35196 net.cpp:433] pool1 -> pool1
17-09-2015 09:22:18 - ERROR: I0917 09:22:18.941602 35196 net.cpp:155] Setting up pool1
17-09-2015 09:22:18 - ERROR: I0917 09:22:18.941622 35196 net.cpp:163] Top shape: 256 12 24 24 (1769472)
17-09-2015 09:22:18 - ERROR: I0917 09:22:18.941668 35196 layer_factory.hpp:76] Creating layer conv2
17-09-2015 09:22:18 - ERROR: I0917 09:22:18.941714 35196 net.cpp:110] Creating Layer conv2
17-09-2015 09:22:18 - ERROR: I0917 09:22:18.941721 35196 net.cpp:477] conv2 <- pool1
17-09-2015 09:22:18 - ERROR: I0917 09:22:18.941735 35196 net.cpp:433] conv2 -> conv2
17-09-2015 09:22:18 - ERROR: I0917 09:22:18.942471 35196 net.cpp:155] Setting up conv2
17-09-2015 09:22:18 - ERROR: I0917 09:22:18.942517 35196 net.cpp:163] Top shape: 256 48 25 25 (7680000)
17-09-2015 09:22:18 - ERROR: I0917 09:22:18.942528 35196 layer_factory.hpp:76] Creating layer relu2
17-09-2015 09:22:18 - ERROR: I0917 09:22:18.942538 35196 net.cpp:110] Creating Layer relu2
17-09-2015 09:22:18 - ERROR: I0917 09:22:18.942553 35196 net.cpp:477] relu2 <- conv2
17-09-2015 09:22:18 - ERROR: I0917 09:22:18.942559 35196 net.cpp:419] relu2 -> conv2 (in-place)
17-09-2015 09:22:18 - ERROR: I0917 09:22:18.942564 35196 net.cpp:155] Setting up relu2
17-09-2015 09:22:18 - ERROR: I0917 09:22:18.942569 35196 net.cpp:163] Top shape: 256 48 25 25 (7680000)
17-09-2015 09:22:18 - ERROR: I0917 09:22:18.942571 35196 layer_factory.hpp:76] Creating layer pool2
17-09-2015 09:22:18 - ERROR: I0917 09:22:18.942575 35196 net.cpp:110] Creating Layer pool2
17-09-2015 09:22:18 - ERROR: I0917 09:22:18.942579 35196 net.cpp:477] pool2 <- conv2
17-09-2015 09:22:18 - ERROR: I0917 09:22:18.942582 35196 net.cpp:433] pool2 -> pool2
17-09-2015 09:22:18 - ERROR: I0917 09:22:18.942589 35196 net.cpp:155] Setting up pool2
17-09-2015 09:22:18 - ERROR: I0917 09:22:18.942595 35196 net.cpp:163] Top shape: 256 48 12 12 (1769472)
17-09-2015 09:22:18 - ERROR: I0917 09:22:18.942597 35196 layer_factory.hpp:76] Creating layer fc3
17-09-2015 09:22:18 - ERROR: I0917 09:22:18.942605 35196 net.cpp:110] Creating Layer fc3
17-09-2015 09:22:18 - ERROR: I0917 09:22:18.942607 35196 net.cpp:477] fc3 <- pool2
17-09-2015 09:22:18 - ERROR: I0917 09:22:18.942611 35196 net.cpp:433] fc3 -> fc3
17-09-2015 09:22:19 - ERROR: I0917 09:22:19.184201 35196 net.cpp:155] Setting up fc3
17-09-2015 09:22:19 - ERROR: I0917 09:22:19.184288 35196 net.cpp:163] Top shape: 256 1024 (262144)
17-09-2015 09:22:19 - ERROR: I0917 09:22:19.184303 35196 layer_factory.hpp:76] Creating layer relu3
17-09-2015 09:22:19 - ERROR: I0917 09:22:19.184311 35196 net.cpp:110] Creating Layer relu3
17-09-2015 09:22:19 - ERROR: I0917 09:22:19.184315 35196 net.cpp:477] relu3 <- fc3
17-09-2015 09:22:19 - ERROR: I0917 09:22:19.184321 35196 net.cpp:419] relu3 -> fc3 (in-place)
17-09-2015 09:22:19 - ERROR: I0917 09:22:19.184329 35196 net.cpp:155] Setting up relu3
17-09-2015 09:22:19 - ERROR: I0917 09:22:19.184334 35196 net.cpp:163] Top shape: 256 1024 (262144)
17-09-2015 09:22:19 - ERROR: I0917 09:22:19.184336 35196 layer_factory.hpp:76] Creating layer fc4
17-09-2015 09:22:19 - ERROR: I0917 09:22:19.184346 35196 net.cpp:110] Creating Layer fc4
17-09-2015 09:22:19 - ERROR: I0917 09:22:19.184350 35196 net.cpp:477] fc4 <- fc3
17-09-2015 09:22:19 - ERROR: I0917 09:22:19.184358 35196 net.cpp:433] fc4 -> fc4
17-09-2015 09:22:19 - ERROR: I0917 09:22:19.184576 35196 net.cpp:155] Setting up fc4
17-09-2015 09:22:19 - ERROR: I0917 09:22:19.184587 35196 net.cpp:163] Top shape: 256 2 (512)
17-09-2015 09:22:19 - ERROR: I0917 09:22:19.184607 35196 layer_factory.hpp:76] Creating layer prob
17-09-2015 09:22:19 - ERROR: I0917 09:22:19.184618 35196 net.cpp:110] Creating Layer prob
17-09-2015 09:22:19 - ERROR: I0917 09:22:19.184622 35196 net.cpp:477] prob <- fc4
17-09-2015 09:22:19 - ERROR: I0917 09:22:19.184664 35196 net.cpp:433] prob -> prob
17-09-2015 09:22:19 - ERROR: I0917 09:22:19.184723 35196 net.cpp:155] Setting up prob
17-09-2015 09:22:19 - ERROR: I0917 09:22:19.184731 35196 net.cpp:163] Top shape: 256 2 (512)
17-09-2015 09:22:19 - ERROR: I0917 09:22:19.184734 35196 net.cpp:240] prob does not need backward computation.
17-09-2015 09:22:19 - ERROR: I0917 09:22:19.184741 35196 net.cpp:240] fc4 does not need backward computation.
17-09-2015 09:22:19 - ERROR: I0917 09:22:19.184743 35196 net.cpp:240] relu3 does not need backward computation.
17-09-2015 09:22:19 - ERROR: I0917 09:22:19.184746 35196 net.cpp:240] fc3 does not need backward computation.
…
