…
21-09-2015 08:00:57 - ERROR: I0921 08:00:57.733049 22848 net.cpp:435] Input 0 -> data
21-09-2015 08:00:57 - ERROR: I0921 08:00:57.733129 22848 layer_factory.hpp:76] Creating layer conv1
21-09-2015 08:00:57 - ERROR: I0921 08:00:57.733151 22848 net.cpp:110] Creating Layer conv1
21-09-2015 08:00:57 - ERROR: I0921 08:00:57.733160 22848 net.cpp:477] conv1 <- data
21-09-2015 08:00:57 - ERROR: I0921 08:00:57.733170 22848 net.cpp:433] conv1 -> conv1
21-09-2015 08:00:57 - ERROR: I0921 08:00:57.733790 22848 net.cpp:155] Setting up conv1
21-09-2015 08:00:57 - ERROR: I0921 08:00:57.733825 22848 net.cpp:163] Top shape: 256 12 48 48 (7077888)
21-09-2015 08:00:57 - ERROR: I0921 08:00:57.733861 22848 layer_factory.hpp:76] Creating layer relu1
21-09-2015 08:00:57 - ERROR: I0921 08:00:57.733870 22848 net.cpp:110] Creating Layer relu1
21-09-2015 08:00:57 - ERROR: I0921 08:00:57.733872 22848 net.cpp:477] relu1 <- conv1
21-09-2015 08:00:57 - ERROR: I0921 08:00:57.733877 22848 net.cpp:419] relu1 -> conv1 (in-place)
21-09-2015 08:00:57 - ERROR: I0921 08:00:57.733886 22848 net.cpp:155] Setting up relu1
21-09-2015 08:00:57 - ERROR: I0921 08:00:57.733891 22848 net.cpp:163] Top shape: 256 12 48 48 (7077888)
21-09-2015 08:00:57 - ERROR: I0921 08:00:57.733894 22848 layer_factory.hpp:76] Creating layer pool1
21-09-2015 08:00:57 - ERROR: I0921 08:00:57.733899 22848 net.cpp:110] Creating Layer pool1
21-09-2015 08:00:57 - ERROR: I0921 08:00:57.733901 22848 net.cpp:477] pool1 <- conv1
21-09-2015 08:00:57 - ERROR: I0921 08:00:57.733906 22848 net.cpp:433] pool1 -> pool1
21-09-2015 08:00:57 - ERROR: I0921 08:00:57.733928 22848 net.cpp:155] Setting up pool1
21-09-2015 08:00:57 - ERROR: I0921 08:00:57.733938 22848 net.cpp:163] Top shape: 256 12 24 24 (1769472)
21-09-2015 08:00:57 - ERROR: I0921 08:00:57.733942 22848 layer_factory.hpp:76] Creating layer conv2
21-09-2015 08:00:57 - ERROR: I0921 08:00:57.733947 22848 net.cpp:110] Creating Layer conv2
21-09-2015 08:00:57 - ERROR: I0921 08:00:57.733950 22848 net.cpp:477] conv2 <- pool1
21-09-2015 08:00:57 - ERROR: I0921 08:00:57.733954 22848 net.cpp:433] conv2 -> conv2
21-09-2015 08:00:57 - ERROR: I0921 08:00:57.734256 22848 net.cpp:155] Setting up conv2
21-09-2015 08:00:57 - ERROR: I0921 08:00:57.734261 22848 net.cpp:163] Top shape: 256 48 25 25 (7680000)
21-09-2015 08:00:57 - ERROR: I0921 08:00:57.734269 22848 layer_factory.hpp:76] Creating layer relu2
21-09-2015 08:00:57 - ERROR: I0921 08:00:57.734274 22848 net.cpp:110] Creating Layer relu2
21-09-2015 08:00:57 - ERROR: I0921 08:00:57.734277 22848 net.cpp:477] relu2 <- conv2
21-09-2015 08:00:57 - ERROR: I0921 08:00:57.734282 22848 net.cpp:419] relu2 -> conv2 (in-place)
21-09-2015 08:00:57 - ERROR: I0921 08:00:57.734287 22848 net.cpp:155] Setting up relu2
21-09-2015 08:00:57 - ERROR: I0921 08:00:57.734290 22848 net.cpp:163] Top shape: 256 48 25 25 (7680000)
21-09-2015 08:00:57 - ERROR: I0921 08:00:57.734292 22848 layer_factory.hpp:76] Creating layer pool2
21-09-2015 08:00:57 - ERROR: I0921 08:00:57.734297 22848 net.cpp:110] Creating Layer pool2
21-09-2015 08:00:57 - ERROR: I0921 08:00:57.734298 22848 net.cpp:477] pool2 <- conv2
21-09-2015 08:00:57 - ERROR: I0921 08:00:57.734302 22848 net.cpp:433] pool2 -> pool2
21-09-2015 08:00:57 - ERROR: I0921 08:00:57.734308 22848 net.cpp:155] Setting up pool2
21-09-2015 08:00:57 - ERROR: I0921 08:00:57.734313 22848 net.cpp:163] Top shape: 256 48 12 12 (1769472)
21-09-2015 08:00:57 - ERROR: I0921 08:00:57.734315 22848 layer_factory.hpp:76] Creating layer fc3
21-09-2015 08:00:57 - ERROR: I0921 08:00:57.734321 22848 net.cpp:110] Creating Layer fc3
21-09-2015 08:00:57 - ERROR: I0921 08:00:57.734324 22848 net.cpp:477] fc3 <- pool2
21-09-2015 08:00:57 - ERROR: I0921 08:00:57.734328 22848 net.cpp:433] fc3 -> fc3
21-09-2015 08:00:57 - ERROR: I0921 08:00:57.971583 22848 net.cpp:155] Setting up fc3
21-09-2015 08:00:57 - ERROR: I0921 08:00:57.971679 22848 net.cpp:163] Top shape: 256 1024 (262144)
21-09-2015 08:00:57 - ERROR: I0921 08:00:57.971695 22848 layer_factory.hpp:76] Creating layer relu3
21-09-2015 08:00:57 - ERROR: I0921 08:00:57.971704 22848 net.cpp:110] Creating Layer relu3
21-09-2015 08:00:57 - ERROR: I0921 08:00:57.971709 22848 net.cpp:477] relu3 <- fc3
21-09-2015 08:00:57 - ERROR: I0921 08:00:57.971714 22848 net.cpp:419] relu3 -> fc3 (in-place)
21-09-2015 08:00:57 - ERROR: I0921 08:00:57.971722 22848 net.cpp:155] Setting up relu3
21-09-2015 08:00:57 - ERROR: I0921 08:00:57.971726 22848 net.cpp:163] Top shape: 256 1024 (262144)
21-09-2015 08:00:57 - ERROR: I0921 08:00:57.971729 22848 layer_factory.hpp:76] Creating layer fc4
21-09-2015 08:00:57 - ERROR: I0921 08:00:57.971736 22848 net.cpp:110] Creating Layer fc4
21-09-2015 08:00:57 - ERROR: I0921 08:00:57.971740 22848 net.cpp:477] fc4 <- fc3
21-09-2015 08:00:57 - ERROR: I0921 08:00:57.971745 22848 net.cpp:433] fc4 -> fc4
21-09-2015 08:00:57 - ERROR: I0921 08:00:57.971937 22848 net.cpp:155] Setting up fc4
21-09-2015 08:00:57 - ERROR: I0921 08:00:57.971947 22848 net.cpp:163] Top shape: 256 2 (512)
21-09-2015 08:00:57 - ERROR: I0921 08:00:57.971989 22848 layer_factory.hpp:76] Creating layer prob
21-09-2015 08:00:57 - ERROR: I0921 08:00:57.971998 22848 net.cpp:110] Creating Layer prob
21-09-2015 08:00:57 - ERROR: I0921 08:00:57.972002 22848 net.cpp:477] prob <- fc4
21-09-2015 08:00:57 - ERROR: I0921 08:00:57.972007 22848 net.cpp:433] prob -> prob
21-09-2015 08:00:57 - ERROR: I0921 08:00:57.972019 22848 net.cpp:155] Setting up prob
21-09-2015 08:00:57 - ERROR: I0921 08:00:57.972028 22848 net.cpp:163] Top shape: 256 2 (512)
21-09-2015 08:00:57 - ERROR: I0921 08:00:57.972031 22848 net.cpp:240] prob does not need backward computation.
21-09-2015 08:00:57 - ERROR: I0921 08:00:57.972034 22848 net.cpp:240] fc4 does not need backward computation.
21-09-2015 08:00:57 - ERROR: I0921 08:00:57.972048 22848 net.cpp:240] relu3 does not need backward computation.
21-09-2015 08:00:57 - ERROR: I0921 08:00:57.972051 22848 net.cpp:240] fc3 does not need backward computation.
…
