…
17-09-2015 09:19:31 - ERROR: I0917 09:19:31.955582 37466 net.cpp:435] Input 0 -> data
17-09-2015 09:19:31 - ERROR: I0917 09:19:31.955862 37466 layer_factory.hpp:76] Creating layer conv1
17-09-2015 09:19:31 - ERROR: I0917 09:19:31.955942 37466 net.cpp:110] Creating Layer conv1
17-09-2015 09:19:31 - ERROR: I0917 09:19:31.956028 37466 net.cpp:477] conv1 <- data
17-09-2015 09:19:31 - ERROR: I0917 09:19:31.956045 37466 net.cpp:433] conv1 -> conv1
17-09-2015 09:19:31 - ERROR: I0917 09:19:31.957695 37466 net.cpp:155] Setting up conv1
17-09-2015 09:19:31 - ERROR: I0917 09:19:31.957821 37466 net.cpp:163] Top shape: 256 12 48 48 (7077888)
17-09-2015 09:19:31 - ERROR: I0917 09:19:31.957990 37466 layer_factory.hpp:76] Creating layer relu1
17-09-2015 09:19:31 - ERROR: I0917 09:19:31.958011 37466 net.cpp:110] Creating Layer relu1
17-09-2015 09:19:31 - ERROR: I0917 09:19:31.958022 37466 net.cpp:477] relu1 <- conv1
17-09-2015 09:19:31 - ERROR: I0917 09:19:31.958062 37466 net.cpp:419] relu1 -> conv1 (in-place)
17-09-2015 09:19:31 - ERROR: I0917 09:19:31.958118 37466 net.cpp:155] Setting up relu1
17-09-2015 09:19:31 - ERROR: I0917 09:19:31.958127 37466 net.cpp:163] Top shape: 256 12 48 48 (7077888)
17-09-2015 09:19:31 - ERROR: I0917 09:19:31.958132 37466 layer_factory.hpp:76] Creating layer pool1
17-09-2015 09:19:31 - ERROR: I0917 09:19:31.958144 37466 net.cpp:110] Creating Layer pool1
17-09-2015 09:19:31 - ERROR: I0917 09:19:31.958148 37466 net.cpp:477] pool1 <- conv1
17-09-2015 09:19:31 - ERROR: I0917 09:19:31.958153 37466 net.cpp:433] pool1 -> pool1
17-09-2015 09:19:31 - ERROR: I0917 09:19:31.958184 37466 net.cpp:155] Setting up pool1
17-09-2015 09:19:31 - ERROR: I0917 09:19:31.958202 37466 net.cpp:163] Top shape: 256 12 24 24 (1769472)
17-09-2015 09:19:31 - ERROR: I0917 09:19:31.958206 37466 layer_factory.hpp:76] Creating layer conv2
17-09-2015 09:19:31 - ERROR: I0917 09:19:31.958215 37466 net.cpp:110] Creating Layer conv2
17-09-2015 09:19:31 - ERROR: I0917 09:19:31.958219 37466 net.cpp:477] conv2 <- pool1
17-09-2015 09:19:31 - ERROR: I0917 09:19:31.958262 37466 net.cpp:433] conv2 -> conv2
17-09-2015 09:19:31 - ERROR: I0917 09:19:31.959215 37466 net.cpp:155] Setting up conv2
17-09-2015 09:19:31 - ERROR: I0917 09:19:31.959223 37466 net.cpp:163] Top shape: 256 48 25 25 (7680000)
17-09-2015 09:19:31 - ERROR: I0917 09:19:31.959234 37466 layer_factory.hpp:76] Creating layer relu2
17-09-2015 09:19:31 - ERROR: I0917 09:19:31.959240 37466 net.cpp:110] Creating Layer relu2
17-09-2015 09:19:31 - ERROR: I0917 09:19:31.959249 37466 net.cpp:477] relu2 <- conv2
17-09-2015 09:19:31 - ERROR: I0917 09:19:31.959255 37466 net.cpp:419] relu2 -> conv2 (in-place)
17-09-2015 09:19:31 - ERROR: I0917 09:19:31.959305 37466 net.cpp:155] Setting up relu2
17-09-2015 09:19:31 - ERROR: I0917 09:19:31.959309 37466 net.cpp:163] Top shape: 256 48 25 25 (7680000)
17-09-2015 09:19:31 - ERROR: I0917 09:19:31.959312 37466 layer_factory.hpp:76] Creating layer pool2
17-09-2015 09:19:31 - ERROR: I0917 09:19:31.959318 37466 net.cpp:110] Creating Layer pool2
17-09-2015 09:19:31 - ERROR: I0917 09:19:31.959323 37466 net.cpp:477] pool2 <- conv2
17-09-2015 09:19:31 - ERROR: I0917 09:19:31.959328 37466 net.cpp:433] pool2 -> pool2
17-09-2015 09:19:31 - ERROR: I0917 09:19:31.959389 37466 net.cpp:155] Setting up pool2
17-09-2015 09:19:31 - ERROR: I0917 09:19:31.959434 37466 net.cpp:163] Top shape: 256 48 12 12 (1769472)
17-09-2015 09:19:31 - ERROR: I0917 09:19:31.959476 37466 layer_factory.hpp:76] Creating layer fc3
17-09-2015 09:19:31 - ERROR: I0917 09:19:31.959524 37466 net.cpp:110] Creating Layer fc3
17-09-2015 09:19:31 - ERROR: I0917 09:19:31.959532 37466 net.cpp:477] fc3 <- pool2
17-09-2015 09:19:31 - ERROR: I0917 09:19:31.959578 37466 net.cpp:433] fc3 -> fc3
17-09-2015 09:19:32 - ERROR: I0917 09:19:32.197029 37466 net.cpp:155] Setting up fc3
17-09-2015 09:19:32 - ERROR: I0917 09:19:32.197114 37466 net.cpp:163] Top shape: 256 1024 (262144)
17-09-2015 09:19:32 - ERROR: I0917 09:19:32.197129 37466 layer_factory.hpp:76] Creating layer relu3
17-09-2015 09:19:32 - ERROR: I0917 09:19:32.197136 37466 net.cpp:110] Creating Layer relu3
17-09-2015 09:19:32 - ERROR: I0917 09:19:32.197140 37466 net.cpp:477] relu3 <- fc3
17-09-2015 09:19:32 - ERROR: I0917 09:19:32.197146 37466 net.cpp:419] relu3 -> fc3 (in-place)
17-09-2015 09:19:32 - ERROR: I0917 09:19:32.197154 37466 net.cpp:155] Setting up relu3
17-09-2015 09:19:32 - ERROR: I0917 09:19:32.197157 37466 net.cpp:163] Top shape: 256 1024 (262144)
17-09-2015 09:19:32 - ERROR: I0917 09:19:32.197160 37466 layer_factory.hpp:76] Creating layer fc4
17-09-2015 09:19:32 - ERROR: I0917 09:19:32.197172 37466 net.cpp:110] Creating Layer fc4
17-09-2015 09:19:32 - ERROR: I0917 09:19:32.197175 37466 net.cpp:477] fc4 <- fc3
17-09-2015 09:19:32 - ERROR: I0917 09:19:32.197183 37466 net.cpp:433] fc4 -> fc4
17-09-2015 09:19:32 - ERROR: I0917 09:19:32.197361 37466 net.cpp:155] Setting up fc4
17-09-2015 09:19:32 - ERROR: I0917 09:19:32.197372 37466 net.cpp:163] Top shape: 256 2 (512)
17-09-2015 09:19:32 - ERROR: I0917 09:19:32.197422 37466 layer_factory.hpp:76] Creating layer prob
17-09-2015 09:19:32 - ERROR: I0917 09:19:32.197433 37466 net.cpp:110] Creating Layer prob
17-09-2015 09:19:32 - ERROR: I0917 09:19:32.197477 37466 net.cpp:477] prob <- fc4
17-09-2015 09:19:32 - ERROR: I0917 09:19:32.197491 37466 net.cpp:433] prob -> prob
17-09-2015 09:19:32 - ERROR: I0917 09:19:32.197546 37466 net.cpp:155] Setting up prob
17-09-2015 09:19:32 - ERROR: I0917 09:19:32.197588 37466 net.cpp:163] Top shape: 256 2 (512)
17-09-2015 09:19:32 - ERROR: I0917 09:19:32.197597 37466 net.cpp:240] prob does not need backward computation.
17-09-2015 09:19:32 - ERROR: I0917 09:19:32.197602 37466 net.cpp:240] fc4 does not need backward computation.
17-09-2015 09:19:32 - ERROR: I0917 09:19:32.197648 37466 net.cpp:240] relu3 does not need backward computation.
17-09-2015 09:19:32 - ERROR: I0917 09:19:32.197685 37466 net.cpp:240] fc3 does not need backward computation.
…
