…
21-09-2015 03:53:19 - ERROR: I0921 15:53:19.217725 34486 net.cpp:435] Input 0 -> data
21-09-2015 03:53:19 - ERROR: I0921 15:53:19.217800 34486 layer_factory.hpp:76] Creating layer conv1
21-09-2015 03:53:19 - ERROR: I0921 15:53:19.217839 34486 net.cpp:110] Creating Layer conv1
21-09-2015 03:53:19 - ERROR: I0921 15:53:19.217849 34486 net.cpp:477] conv1 <- data
21-09-2015 03:53:19 - ERROR: I0921 15:53:19.217859 34486 net.cpp:433] conv1 -> conv1
21-09-2015 03:53:19 - ERROR: I0921 15:53:19.218495 34486 net.cpp:155] Setting up conv1
21-09-2015 03:53:19 - ERROR: I0921 15:53:19.218530 34486 net.cpp:163] Top shape: 256 12 48 48 (7077888)
21-09-2015 03:53:19 - ERROR: I0921 15:53:19.218564 34486 layer_factory.hpp:76] Creating layer relu1
21-09-2015 03:53:19 - ERROR: I0921 15:53:19.218574 34486 net.cpp:110] Creating Layer relu1
21-09-2015 03:53:19 - ERROR: I0921 15:53:19.218576 34486 net.cpp:477] relu1 <- conv1
21-09-2015 03:53:19 - ERROR: I0921 15:53:19.218580 34486 net.cpp:419] relu1 -> conv1 (in-place)
21-09-2015 03:53:19 - ERROR: I0921 15:53:19.218590 34486 net.cpp:155] Setting up relu1
21-09-2015 03:53:19 - ERROR: I0921 15:53:19.218595 34486 net.cpp:163] Top shape: 256 12 48 48 (7077888)
21-09-2015 03:53:19 - ERROR: I0921 15:53:19.218597 34486 layer_factory.hpp:76] Creating layer pool1
21-09-2015 03:53:19 - ERROR: I0921 15:53:19.218602 34486 net.cpp:110] Creating Layer pool1
21-09-2015 03:53:19 - ERROR: I0921 15:53:19.218605 34486 net.cpp:477] pool1 <- conv1
21-09-2015 03:53:19 - ERROR: I0921 15:53:19.218608 34486 net.cpp:433] pool1 -> pool1
21-09-2015 03:53:19 - ERROR: I0921 15:53:19.218631 34486 net.cpp:155] Setting up pool1
21-09-2015 03:53:19 - ERROR: I0921 15:53:19.218641 34486 net.cpp:163] Top shape: 256 12 24 24 (1769472)
21-09-2015 03:53:19 - ERROR: I0921 15:53:19.218644 34486 layer_factory.hpp:76] Creating layer conv2
21-09-2015 03:53:19 - ERROR: I0921 15:53:19.218649 34486 net.cpp:110] Creating Layer conv2
21-09-2015 03:53:19 - ERROR: I0921 15:53:19.218652 34486 net.cpp:477] conv2 <- pool1
21-09-2015 03:53:19 - ERROR: I0921 15:53:19.218657 34486 net.cpp:433] conv2 -> conv2
21-09-2015 03:53:19 - ERROR: I0921 15:53:19.218961 34486 net.cpp:155] Setting up conv2
21-09-2015 03:53:19 - ERROR: I0921 15:53:19.218966 34486 net.cpp:163] Top shape: 256 48 25 25 (7680000)
21-09-2015 03:53:19 - ERROR: I0921 15:53:19.218973 34486 layer_factory.hpp:76] Creating layer relu2
21-09-2015 03:53:19 - ERROR: I0921 15:53:19.218979 34486 net.cpp:110] Creating Layer relu2
21-09-2015 03:53:19 - ERROR: I0921 15:53:19.218982 34486 net.cpp:477] relu2 <- conv2
21-09-2015 03:53:19 - ERROR: I0921 15:53:19.218986 34486 net.cpp:419] relu2 -> conv2 (in-place)
21-09-2015 03:53:19 - ERROR: I0921 15:53:19.218991 34486 net.cpp:155] Setting up relu2
21-09-2015 03:53:19 - ERROR: I0921 15:53:19.218994 34486 net.cpp:163] Top shape: 256 48 25 25 (7680000)
21-09-2015 03:53:19 - ERROR: I0921 15:53:19.218997 34486 layer_factory.hpp:76] Creating layer pool2
21-09-2015 03:53:19 - ERROR: I0921 15:53:19.219000 34486 net.cpp:110] Creating Layer pool2
21-09-2015 03:53:19 - ERROR: I0921 15:53:19.219003 34486 net.cpp:477] pool2 <- conv2
21-09-2015 03:53:19 - ERROR: I0921 15:53:19.219007 34486 net.cpp:433] pool2 -> pool2
21-09-2015 03:53:19 - ERROR: I0921 15:53:19.219013 34486 net.cpp:155] Setting up pool2
21-09-2015 03:53:19 - ERROR: I0921 15:53:19.219017 34486 net.cpp:163] Top shape: 256 48 12 12 (1769472)
21-09-2015 03:53:19 - ERROR: I0921 15:53:19.219020 34486 layer_factory.hpp:76] Creating layer fc3
21-09-2015 03:53:19 - ERROR: I0921 15:53:19.219027 34486 net.cpp:110] Creating Layer fc3
21-09-2015 03:53:19 - ERROR: I0921 15:53:19.219028 34486 net.cpp:477] fc3 <- pool2
21-09-2015 03:53:19 - ERROR: I0921 15:53:19.219033 34486 net.cpp:433] fc3 -> fc3
21-09-2015 03:53:19 - ERROR: I0921 15:53:19.458506 34486 net.cpp:155] Setting up fc3
21-09-2015 03:53:19 - ERROR: I0921 15:53:19.458596 34486 net.cpp:163] Top shape: 256 1024 (262144)
21-09-2015 03:53:19 - ERROR: I0921 15:53:19.458611 34486 layer_factory.hpp:76] Creating layer relu3
21-09-2015 03:53:19 - ERROR: I0921 15:53:19.458621 34486 net.cpp:110] Creating Layer relu3
21-09-2015 03:53:19 - ERROR: I0921 15:53:19.458624 34486 net.cpp:477] relu3 <- fc3
21-09-2015 03:53:19 - ERROR: I0921 15:53:19.458631 34486 net.cpp:419] relu3 -> fc3 (in-place)
21-09-2015 03:53:19 - ERROR: I0921 15:53:19.458638 34486 net.cpp:155] Setting up relu3
21-09-2015 03:53:19 - ERROR: I0921 15:53:19.458642 34486 net.cpp:163] Top shape: 256 1024 (262144)
21-09-2015 03:53:19 - ERROR: I0921 15:53:19.458645 34486 layer_factory.hpp:76] Creating layer fc4
21-09-2015 03:53:19 - ERROR: I0921 15:53:19.458653 34486 net.cpp:110] Creating Layer fc4
21-09-2015 03:53:19 - ERROR: I0921 15:53:19.458657 34486 net.cpp:477] fc4 <- fc3
21-09-2015 03:53:19 - ERROR: I0921 15:53:19.458664 34486 net.cpp:433] fc4 -> fc4
21-09-2015 03:53:19 - ERROR: I0921 15:53:19.458755 34486 net.cpp:155] Setting up fc4
21-09-2015 03:53:19 - ERROR: I0921 15:53:19.458760 34486 net.cpp:163] Top shape: 256 2 (512)
21-09-2015 03:53:19 - ERROR: I0921 15:53:19.458765 34486 layer_factory.hpp:76] Creating layer prob
21-09-2015 03:53:19 - ERROR: I0921 15:53:19.458775 34486 net.cpp:110] Creating Layer prob
21-09-2015 03:53:19 - ERROR: I0921 15:53:19.458828 34486 net.cpp:477] prob <- fc4
21-09-2015 03:53:19 - ERROR: I0921 15:53:19.458843 34486 net.cpp:433] prob -> prob
21-09-2015 03:53:19 - ERROR: I0921 15:53:19.458896 34486 net.cpp:155] Setting up prob
21-09-2015 03:53:19 - ERROR: I0921 15:53:19.458940 34486 net.cpp:163] Top shape: 256 2 (512)
21-09-2015 03:53:19 - ERROR: I0921 15:53:19.458947 34486 net.cpp:240] prob does not need backward computation.
21-09-2015 03:53:19 - ERROR: I0921 15:53:19.458997 34486 net.cpp:240] fc4 does not need backward computation.
21-09-2015 03:53:19 - ERROR: I0921 15:53:19.459010 34486 net.cpp:240] relu3 does not need backward computation.
21-09-2015 03:53:19 - ERROR: I0921 15:53:19.459013 34486 net.cpp:240] fc3 does not need backward computation.
…
