…
2015-09-07 17:29:32 - ERROR: I0907 17:29:32.117054 21578 net.cpp:434] Input 0 -> data
2015-09-07 17:29:32 - ERROR: I0907 17:29:32.117086 21578 layer_factory.hpp:75] Creating layer conv1
2015-09-07 17:29:32 - ERROR: I0907 17:29:32.117099 21578 net.cpp:110] Creating Layer conv1
2015-09-07 17:29:32 - ERROR: I0907 17:29:32.117102 21578 net.cpp:476] conv1 <- data
2015-09-07 17:29:32 - ERROR: I0907 17:29:32.117110 21578 net.cpp:432] conv1 -> conv1
2015-09-07 17:29:32 - ERROR: I0907 17:29:32.117383 21578 net.cpp:155] Setting up conv1
2015-09-07 17:29:32 - ERROR: I0907 17:29:32.117396 21578 net.cpp:163] Top shape: 256 12 48 48 (7077888)
2015-09-07 17:29:32 - ERROR: I0907 17:29:32.117410 21578 layer_factory.hpp:75] Creating layer relu1
2015-09-07 17:29:32 - ERROR: I0907 17:29:32.117416 21578 net.cpp:110] Creating Layer relu1
2015-09-07 17:29:32 - ERROR: I0907 17:29:32.117419 21578 net.cpp:476] relu1 <- conv1
2015-09-07 17:29:32 - ERROR: I0907 17:29:32.117424 21578 net.cpp:419] relu1 -> conv1 (in-place)
2015-09-07 17:29:32 - ERROR: I0907 17:29:32.117431 21578 net.cpp:155] Setting up relu1
2015-09-07 17:29:32 - ERROR: I0907 17:29:32.117435 21578 net.cpp:163] Top shape: 256 12 48 48 (7077888)
2015-09-07 17:29:32 - ERROR: I0907 17:29:32.117439 21578 layer_factory.hpp:75] Creating layer pool1
2015-09-07 17:29:32 - ERROR: I0907 17:29:32.117442 21578 net.cpp:110] Creating Layer pool1
2015-09-07 17:29:32 - ERROR: I0907 17:29:32.117445 21578 net.cpp:476] pool1 <- conv1
2015-09-07 17:29:32 - ERROR: I0907 17:29:32.117449 21578 net.cpp:432] pool1 -> pool1
2015-09-07 17:29:32 - ERROR: I0907 17:29:32.117460 21578 net.cpp:155] Setting up pool1
2015-09-07 17:29:32 - ERROR: I0907 17:29:32.117465 21578 net.cpp:163] Top shape: 256 12 24 24 (1769472)
2015-09-07 17:29:32 - ERROR: I0907 17:29:32.117467 21578 layer_factory.hpp:75] Creating layer conv2
2015-09-07 17:29:32 - ERROR: I0907 17:29:32.117472 21578 net.cpp:110] Creating Layer conv2
2015-09-07 17:29:32 - ERROR: I0907 17:29:32.117475 21578 net.cpp:476] conv2 <- pool1
2015-09-07 17:29:32 - ERROR: I0907 17:29:32.117478 21578 net.cpp:432] conv2 -> conv2
2015-09-07 17:29:32 - ERROR: I0907 17:29:32.117609 21578 net.cpp:155] Setting up conv2
2015-09-07 17:29:32 - ERROR: I0907 17:29:32.117614 21578 net.cpp:163] Top shape: 256 48 25 25 (7680000)
2015-09-07 17:29:32 - ERROR: I0907 17:29:32.117620 21578 layer_factory.hpp:75] Creating layer relu2
2015-09-07 17:29:32 - ERROR: I0907 17:29:32.117625 21578 net.cpp:110] Creating Layer relu2
2015-09-07 17:29:32 - ERROR: I0907 17:29:32.117627 21578 net.cpp:476] relu2 <- conv2
2015-09-07 17:29:32 - ERROR: I0907 17:29:32.117631 21578 net.cpp:419] relu2 -> conv2 (in-place)
2015-09-07 17:29:32 - ERROR: I0907 17:29:32.117635 21578 net.cpp:155] Setting up relu2
2015-09-07 17:29:32 - ERROR: I0907 17:29:32.117638 21578 net.cpp:163] Top shape: 256 48 25 25 (7680000)
2015-09-07 17:29:32 - ERROR: I0907 17:29:32.117641 21578 layer_factory.hpp:75] Creating layer pool2
2015-09-07 17:29:32 - ERROR: I0907 17:29:32.117645 21578 net.cpp:110] Creating Layer pool2
2015-09-07 17:29:32 - ERROR: I0907 17:29:32.117647 21578 net.cpp:476] pool2 <- conv2
2015-09-07 17:29:32 - ERROR: I0907 17:29:32.117650 21578 net.cpp:432] pool2 -> pool2
2015-09-07 17:29:32 - ERROR: I0907 17:29:32.117656 21578 net.cpp:155] Setting up pool2
2015-09-07 17:29:32 - ERROR: I0907 17:29:32.117661 21578 net.cpp:163] Top shape: 256 48 12 12 (1769472)
2015-09-07 17:29:32 - ERROR: I0907 17:29:32.117663 21578 layer_factory.hpp:75] Creating layer fc3
2015-09-07 17:29:32 - ERROR: I0907 17:29:32.117668 21578 net.cpp:110] Creating Layer fc3
2015-09-07 17:29:32 - ERROR: I0907 17:29:32.117671 21578 net.cpp:476] fc3 <- pool2
2015-09-07 17:29:32 - ERROR: I0907 17:29:32.117674 21578 net.cpp:432] fc3 -> fc3
2015-09-07 17:29:32 - ERROR: I0907 17:29:32.200779 21578 net.cpp:155] Setting up fc3
2015-09-07 17:29:32 - ERROR: I0907 17:29:32.200814 21578 net.cpp:163] Top shape: 256 1024 (262144)
2015-09-07 17:29:32 - ERROR: I0907 17:29:32.200829 21578 layer_factory.hpp:75] Creating layer relu3
2015-09-07 17:29:32 - ERROR: I0907 17:29:32.200839 21578 net.cpp:110] Creating Layer relu3
2015-09-07 17:29:32 - ERROR: I0907 17:29:32.200841 21578 net.cpp:476] relu3 <- fc3
2015-09-07 17:29:32 - ERROR: I0907 17:29:32.200850 21578 net.cpp:419] relu3 -> fc3 (in-place)
2015-09-07 17:29:32 - ERROR: I0907 17:29:32.200857 21578 net.cpp:155] Setting up relu3
2015-09-07 17:29:32 - ERROR: I0907 17:29:32.200861 21578 net.cpp:163] Top shape: 256 1024 (262144)
2015-09-07 17:29:32 - ERROR: I0907 17:29:32.200863 21578 layer_factory.hpp:75] Creating layer fc4
2015-09-07 17:29:32 - ERROR: I0907 17:29:32.200871 21578 net.cpp:110] Creating Layer fc4
2015-09-07 17:29:32 - ERROR: I0907 17:29:32.200873 21578 net.cpp:476] fc4 <- fc3
2015-09-07 17:29:32 - ERROR: I0907 17:29:32.200882 21578 net.cpp:432] fc4 -> fc4
2015-09-07 17:29:32 - ERROR: I0907 17:29:32.200929 21578 net.cpp:155] Setting up fc4
2015-09-07 17:29:32 - ERROR: I0907 17:29:32.200934 21578 net.cpp:163] Top shape: 256 2 (512)
2015-09-07 17:29:32 - ERROR: I0907 17:29:32.200939 21578 layer_factory.hpp:75] Creating layer prob
2015-09-07 17:29:32 - ERROR: I0907 17:29:32.200944 21578 net.cpp:110] Creating Layer prob
2015-09-07 17:29:32 - ERROR: I0907 17:29:32.200947 21578 net.cpp:476] prob <- fc4
2015-09-07 17:29:32 - ERROR: I0907 17:29:32.200950 21578 net.cpp:432] prob -> prob
2015-09-07 17:29:32 - ERROR: I0907 17:29:32.200956 21578 net.cpp:155] Setting up prob
2015-09-07 17:29:32 - ERROR: I0907 17:29:32.200960 21578 net.cpp:163] Top shape: 256 2 (512)
2015-09-07 17:29:32 - ERROR: I0907 17:29:32.200964 21578 net.cpp:240] prob does not need backward computation.
2015-09-07 17:29:32 - ERROR: I0907 17:29:32.200966 21578 net.cpp:240] fc4 does not need backward computation.
2015-09-07 17:29:32 - ERROR: I0907 17:29:32.200969 21578 net.cpp:240] relu3 does not need backward computation.
2015-09-07 17:29:32 - ERROR: I0907 17:29:32.200971 21578 net.cpp:240] fc3 does not need backward computation.
…
