…
2015-09-07 17:33:57 - ERROR: I0907 17:33:57.629796 21998 net.cpp:434] Input 0 -> data
2015-09-07 17:33:57 - ERROR: I0907 17:33:57.629984 21998 layer_factory.hpp:75] Creating layer conv1
2015-09-07 17:33:57 - ERROR: I0907 17:33:57.630146 21998 net.cpp:110] Creating Layer conv1
2015-09-07 17:33:57 - ERROR: I0907 17:33:57.630290 21998 net.cpp:476] conv1 <- data
2015-09-07 17:33:57 - ERROR: I0907 17:33:57.630445 21998 net.cpp:432] conv1 -> conv1
2015-09-07 17:33:57 - ERROR: I0907 17:33:57.631039 21998 net.cpp:155] Setting up conv1
2015-09-07 17:33:57 - ERROR: I0907 17:33:57.631224 21998 net.cpp:163] Top shape: 256 12 48 48 (7077888)
2015-09-07 17:33:57 - ERROR: I0907 17:33:57.631397 21998 layer_factory.hpp:75] Creating layer relu1
2015-09-07 17:33:57 - ERROR: I0907 17:33:57.631547 21998 net.cpp:110] Creating Layer relu1
2015-09-07 17:33:57 - ERROR: I0907 17:33:57.631683 21998 net.cpp:476] relu1 <- conv1
2015-09-07 17:33:57 - ERROR: I0907 17:33:57.631831 21998 net.cpp:419] relu1 -> conv1 (in-place)
2015-09-07 17:33:57 - ERROR: I0907 17:33:57.631989 21998 net.cpp:155] Setting up relu1
2015-09-07 17:33:57 - ERROR: I0907 17:33:57.632133 21998 net.cpp:163] Top shape: 256 12 48 48 (7077888)
2015-09-07 17:33:57 - ERROR: I0907 17:33:57.632277 21998 layer_factory.hpp:75] Creating layer pool1
2015-09-07 17:33:57 - ERROR: I0907 17:33:57.632428 21998 net.cpp:110] Creating Layer pool1
2015-09-07 17:33:57 - ERROR: I0907 17:33:57.632571 21998 net.cpp:476] pool1 <- conv1
2015-09-07 17:33:57 - ERROR: I0907 17:33:57.632714 21998 net.cpp:432] pool1 -> pool1
2015-09-07 17:33:57 - ERROR: I0907 17:33:57.632869 21998 net.cpp:155] Setting up pool1
2015-09-07 17:33:57 - ERROR: I0907 17:33:57.633013 21998 net.cpp:163] Top shape: 256 12 24 24 (1769472)
2015-09-07 17:33:57 - ERROR: I0907 17:33:57.633157 21998 layer_factory.hpp:75] Creating layer conv2
2015-09-07 17:33:57 - ERROR: I0907 17:33:57.633308 21998 net.cpp:110] Creating Layer conv2
2015-09-07 17:33:57 - ERROR: I0907 17:33:57.633447 21998 net.cpp:476] conv2 <- pool1
2015-09-07 17:33:57 - ERROR: I0907 17:33:57.633595 21998 net.cpp:432] conv2 -> conv2
2015-09-07 17:33:57 - ERROR: I0907 17:33:57.633935 21998 net.cpp:155] Setting up conv2
2015-09-07 17:33:57 - ERROR: I0907 17:33:57.634094 21998 net.cpp:163] Top shape: 256 48 25 25 (7680000)
2015-09-07 17:33:57 - ERROR: I0907 17:33:57.634253 21998 layer_factory.hpp:75] Creating layer relu2
2015-09-07 17:33:57 - ERROR: I0907 17:33:57.634404 21998 net.cpp:110] Creating Layer relu2
2015-09-07 17:33:57 - ERROR: I0907 17:33:57.634546 21998 net.cpp:476] relu2 <- conv2
2015-09-07 17:33:57 - ERROR: I0907 17:33:57.634688 21998 net.cpp:419] relu2 -> conv2 (in-place)
2015-09-07 17:33:57 - ERROR: I0907 17:33:57.634838 21998 net.cpp:155] Setting up relu2
2015-09-07 17:33:57 - ERROR: I0907 17:33:57.634979 21998 net.cpp:163] Top shape: 256 48 25 25 (7680000)
2015-09-07 17:33:57 - ERROR: I0907 17:33:57.635123 21998 layer_factory.hpp:75] Creating layer pool2
2015-09-07 17:33:57 - ERROR: I0907 17:33:57.635280 21998 net.cpp:110] Creating Layer pool2
2015-09-07 17:33:57 - ERROR: I0907 17:33:57.635424 21998 net.cpp:476] pool2 <- conv2
2015-09-07 17:33:57 - ERROR: I0907 17:33:57.635567 21998 net.cpp:432] pool2 -> pool2
2015-09-07 17:33:57 - ERROR: I0907 17:33:57.635718 21998 net.cpp:155] Setting up pool2
2015-09-07 17:33:57 - ERROR: I0907 17:33:57.635862 21998 net.cpp:163] Top shape: 256 48 12 12 (1769472)
2015-09-07 17:33:57 - ERROR: I0907 17:33:57.636008 21998 layer_factory.hpp:75] Creating layer fc3
2015-09-07 17:33:57 - ERROR: I0907 17:33:57.636154 21998 net.cpp:110] Creating Layer fc3
2015-09-07 17:33:57 - ERROR: I0907 17:33:57.636294 21998 net.cpp:476] fc3 <- pool2
2015-09-07 17:33:57 - ERROR: I0907 17:33:57.636440 21998 net.cpp:432] fc3 -> fc3
2015-09-07 17:33:57 - ERROR: I0907 17:33:57.728174 21998 net.cpp:155] Setting up fc3
2015-09-07 17:33:57 - ERROR: I0907 17:33:57.728209 21998 net.cpp:163] Top shape: 256 1024 (262144)
2015-09-07 17:33:57 - ERROR: I0907 17:33:57.728229 21998 layer_factory.hpp:75] Creating layer relu3
2015-09-07 17:33:57 - ERROR: I0907 17:33:57.728245 21998 net.cpp:110] Creating Layer relu3
2015-09-07 17:33:57 - ERROR: I0907 17:33:57.728250 21998 net.cpp:476] relu3 <- fc3
2015-09-07 17:33:57 - ERROR: I0907 17:33:57.728258 21998 net.cpp:419] relu3 -> fc3 (in-place)
2015-09-07 17:33:57 - ERROR: I0907 17:33:57.728271 21998 net.cpp:155] Setting up relu3
2015-09-07 17:33:57 - ERROR: I0907 17:33:57.728276 21998 net.cpp:163] Top shape: 256 1024 (262144)
2015-09-07 17:33:57 - ERROR: I0907 17:33:57.728281 21998 layer_factory.hpp:75] Creating layer fc4
2015-09-07 17:33:57 - ERROR: I0907 17:33:57.728294 21998 net.cpp:110] Creating Layer fc4
2015-09-07 17:33:57 - ERROR: I0907 17:33:57.728299 21998 net.cpp:476] fc4 <- fc3
2015-09-07 17:33:57 - ERROR: I0907 17:33:57.728313 21998 net.cpp:432] fc4 -> fc4
2015-09-07 17:33:57 - ERROR: I0907 17:33:57.728379 21998 net.cpp:155] Setting up fc4
2015-09-07 17:33:57 - ERROR: I0907 17:33:57.728389 21998 net.cpp:163] Top shape: 256 2 (512)
2015-09-07 17:33:57 - ERROR: I0907 17:33:57.728399 21998 layer_factory.hpp:75] Creating layer prob
2015-09-07 17:33:57 - ERROR: I0907 17:33:57.728409 21998 net.cpp:110] Creating Layer prob
2015-09-07 17:33:57 - ERROR: I0907 17:33:57.728413 21998 net.cpp:476] prob <- fc4
2015-09-07 17:33:57 - ERROR: I0907 17:33:57.728421 21998 net.cpp:432] prob -> prob
2015-09-07 17:33:57 - ERROR: I0907 17:33:57.728432 21998 net.cpp:155] Setting up prob
2015-09-07 17:33:57 - ERROR: I0907 17:33:57.728440 21998 net.cpp:163] Top shape: 256 2 (512)
2015-09-07 17:33:57 - ERROR: I0907 17:33:57.728446 21998 net.cpp:240] prob does not need backward computation.
2015-09-07 17:33:57 - ERROR: I0907 17:33:57.728452 21998 net.cpp:240] fc4 does not need backward computation.
2015-09-07 17:33:57 - ERROR: I0907 17:33:57.728457 21998 net.cpp:240] relu3 does not need backward computation.
2015-09-07 17:33:57 - ERROR: I0907 17:33:57.728463 21998 net.cpp:240] fc3 does not need backward computation.
…
