…
2015-09-13 22:10:39 - ERROR: I0913 22:10:39.840000 29324 net.cpp:434] Input 0 -> data
2015-09-13 22:10:39 - ERROR: I0913 22:10:39.840037 29324 layer_factory.hpp:75] Creating layer conv1
2015-09-13 22:10:39 - ERROR: I0913 22:10:39.840054 29324 net.cpp:110] Creating Layer conv1
2015-09-13 22:10:39 - ERROR: I0913 22:10:39.840061 29324 net.cpp:476] conv1 <- data
2015-09-13 22:10:39 - ERROR: I0913 22:10:39.840071 29324 net.cpp:432] conv1 -> conv1
2015-09-13 22:10:39 - ERROR: I0913 22:10:39.840517 29324 net.cpp:155] Setting up conv1
2015-09-13 22:10:39 - ERROR: I0913 22:10:39.840538 29324 net.cpp:163] Top shape: 256 12 48 48 (7077888)
2015-09-13 22:10:39 - ERROR: I0913 22:10:39.840559 29324 layer_factory.hpp:75] Creating layer relu1
2015-09-13 22:10:39 - ERROR: I0913 22:10:39.840569 29324 net.cpp:110] Creating Layer relu1
2015-09-13 22:10:39 - ERROR: I0913 22:10:39.840574 29324 net.cpp:476] relu1 <- conv1
2015-09-13 22:10:39 - ERROR: I0913 22:10:39.840582 29324 net.cpp:419] relu1 -> conv1 (in-place)
2015-09-13 22:10:39 - ERROR: I0913 22:10:39.840595 29324 net.cpp:155] Setting up relu1
2015-09-13 22:10:39 - ERROR: I0913 22:10:39.840602 29324 net.cpp:163] Top shape: 256 12 48 48 (7077888)
2015-09-13 22:10:39 - ERROR: I0913 22:10:39.840607 29324 layer_factory.hpp:75] Creating layer pool1
2015-09-13 22:10:39 - ERROR: I0913 22:10:39.840615 29324 net.cpp:110] Creating Layer pool1
2015-09-13 22:10:39 - ERROR: I0913 22:10:39.840620 29324 net.cpp:476] pool1 <- conv1
2015-09-13 22:10:39 - ERROR: I0913 22:10:39.840626 29324 net.cpp:432] pool1 -> pool1
2015-09-13 22:10:39 - ERROR: I0913 22:10:39.840643 29324 net.cpp:155] Setting up pool1
2015-09-13 22:10:39 - ERROR: I0913 22:10:39.840651 29324 net.cpp:163] Top shape: 256 12 24 24 (1769472)
2015-09-13 22:10:39 - ERROR: I0913 22:10:39.840656 29324 layer_factory.hpp:75] Creating layer conv2
2015-09-13 22:10:39 - ERROR: I0913 22:10:39.840664 29324 net.cpp:110] Creating Layer conv2
2015-09-13 22:10:39 - ERROR: I0913 22:10:39.840669 29324 net.cpp:476] conv2 <- pool1
2015-09-13 22:10:39 - ERROR: I0913 22:10:39.840677 29324 net.cpp:432] conv2 -> conv2
2015-09-13 22:10:39 - ERROR: I0913 22:10:39.840875 29324 net.cpp:155] Setting up conv2
2015-09-13 22:10:39 - ERROR: I0913 22:10:39.840883 29324 net.cpp:163] Top shape: 256 48 25 25 (7680000)
2015-09-13 22:10:39 - ERROR: I0913 22:10:39.840895 29324 layer_factory.hpp:75] Creating layer relu2
2015-09-13 22:10:39 - ERROR: I0913 22:10:39.840903 29324 net.cpp:110] Creating Layer relu2
2015-09-13 22:10:39 - ERROR: I0913 22:10:39.840909 29324 net.cpp:476] relu2 <- conv2
2015-09-13 22:10:39 - ERROR: I0913 22:10:39.840915 29324 net.cpp:419] relu2 -> conv2 (in-place)
2015-09-13 22:10:39 - ERROR: I0913 22:10:39.840922 29324 net.cpp:155] Setting up relu2
2015-09-13 22:10:39 - ERROR: I0913 22:10:39.840930 29324 net.cpp:163] Top shape: 256 48 25 25 (7680000)
2015-09-13 22:10:39 - ERROR: I0913 22:10:39.840935 29324 layer_factory.hpp:75] Creating layer pool2
2015-09-13 22:10:39 - ERROR: I0913 22:10:39.840942 29324 net.cpp:110] Creating Layer pool2
2015-09-13 22:10:39 - ERROR: I0913 22:10:39.840947 29324 net.cpp:476] pool2 <- conv2
2015-09-13 22:10:39 - ERROR: I0913 22:10:39.840955 29324 net.cpp:432] pool2 -> pool2
2015-09-13 22:10:39 - ERROR: I0913 22:10:39.840963 29324 net.cpp:155] Setting up pool2
2015-09-13 22:10:39 - ERROR: I0913 22:10:39.840971 29324 net.cpp:163] Top shape: 256 48 12 12 (1769472)
2015-09-13 22:10:39 - ERROR: I0913 22:10:39.840976 29324 layer_factory.hpp:75] Creating layer fc3
2015-09-13 22:10:39 - ERROR: I0913 22:10:39.840984 29324 net.cpp:110] Creating Layer fc3
2015-09-13 22:10:39 - ERROR: I0913 22:10:39.840989 29324 net.cpp:476] fc3 <- pool2
2015-09-13 22:10:39 - ERROR: I0913 22:10:39.840996 29324 net.cpp:432] fc3 -> fc3
2015-09-13 22:10:39 - ERROR: I0913 22:10:39.994531 29324 net.cpp:155] Setting up fc3
2015-09-13 22:10:39 - ERROR: I0913 22:10:39.994562 29324 net.cpp:163] Top shape: 256 1024 (262144)
2015-09-13 22:10:39 - ERROR: I0913 22:10:39.994581 29324 layer_factory.hpp:75] Creating layer relu3
2015-09-13 22:10:39 - ERROR: I0913 22:10:39.994593 29324 net.cpp:110] Creating Layer relu3
2015-09-13 22:10:39 - ERROR: I0913 22:10:39.994599 29324 net.cpp:476] relu3 <- fc3
2015-09-13 22:10:39 - ERROR: I0913 22:10:39.994607 29324 net.cpp:419] relu3 -> fc3 (in-place)
2015-09-13 22:10:39 - ERROR: I0913 22:10:39.994619 29324 net.cpp:155] Setting up relu3
2015-09-13 22:10:39 - ERROR: I0913 22:10:39.994624 29324 net.cpp:163] Top shape: 256 1024 (262144)
2015-09-13 22:10:39 - ERROR: I0913 22:10:39.994629 29324 layer_factory.hpp:75] Creating layer fc4
2015-09-13 22:10:39 - ERROR: I0913 22:10:39.994642 29324 net.cpp:110] Creating Layer fc4
2015-09-13 22:10:39 - ERROR: I0913 22:10:39.994647 29324 net.cpp:476] fc4 <- fc3
2015-09-13 22:10:39 - ERROR: I0913 22:10:39.994655 29324 net.cpp:432] fc4 -> fc4
2015-09-13 22:10:39 - ERROR: I0913 22:10:39.994722 29324 net.cpp:155] Setting up fc4
2015-09-13 22:10:39 - ERROR: I0913 22:10:39.994729 29324 net.cpp:163] Top shape: 256 2 (512)
2015-09-13 22:10:39 - ERROR: I0913 22:10:39.994737 29324 layer_factory.hpp:75] Creating layer prob
2015-09-13 22:10:39 - ERROR: I0913 22:10:39.994746 29324 net.cpp:110] Creating Layer prob
2015-09-13 22:10:39 - ERROR: I0913 22:10:39.994750 29324 net.cpp:476] prob <- fc4
2015-09-13 22:10:39 - ERROR: I0913 22:10:39.994756 29324 net.cpp:432] prob -> prob
2015-09-13 22:10:39 - ERROR: I0913 22:10:39.994765 29324 net.cpp:155] Setting up prob
2015-09-13 22:10:39 - ERROR: I0913 22:10:39.994773 29324 net.cpp:163] Top shape: 256 2 (512)
2015-09-13 22:10:39 - ERROR: I0913 22:10:39.994778 29324 net.cpp:240] prob does not need backward computation.
2015-09-13 22:10:39 - ERROR: I0913 22:10:39.994782 29324 net.cpp:240] fc4 does not need backward computation.
2015-09-13 22:10:39 - ERROR: I0913 22:10:39.994787 29324 net.cpp:240] relu3 does not need backward computation.
2015-09-13 22:10:39 - ERROR: I0913 22:10:39.994791 29324 net.cpp:240] fc3 does not need backward computation.
…
