…
21-09-2015 07:56:40 - ERROR: I0921 07:56:40.254004 27139 net.cpp:435] Input 0 -> data
21-09-2015 07:56:40 - ERROR: I0921 07:56:40.254083 27139 layer_factory.hpp:76] Creating layer conv1
21-09-2015 07:56:40 - ERROR: I0921 07:56:40.254106 27139 net.cpp:110] Creating Layer conv1
21-09-2015 07:56:40 - ERROR: I0921 07:56:40.254114 27139 net.cpp:477] conv1 <- data
21-09-2015 07:56:40 - ERROR: I0921 07:56:40.254123 27139 net.cpp:433] conv1 -> conv1
21-09-2015 07:56:40 - ERROR: I0921 07:56:40.254741 27139 net.cpp:155] Setting up conv1
21-09-2015 07:56:40 - ERROR: I0921 07:56:40.254776 27139 net.cpp:163] Top shape: 256 12 48 48 (7077888)
21-09-2015 07:56:40 - ERROR: I0921 07:56:40.254811 27139 layer_factory.hpp:76] Creating layer relu1
21-09-2015 07:56:40 - ERROR: I0921 07:56:40.254819 27139 net.cpp:110] Creating Layer relu1
21-09-2015 07:56:40 - ERROR: I0921 07:56:40.254822 27139 net.cpp:477] relu1 <- conv1
21-09-2015 07:56:40 - ERROR: I0921 07:56:40.254827 27139 net.cpp:419] relu1 -> conv1 (in-place)
21-09-2015 07:56:40 - ERROR: I0921 07:56:40.254835 27139 net.cpp:155] Setting up relu1
21-09-2015 07:56:40 - ERROR: I0921 07:56:40.254840 27139 net.cpp:163] Top shape: 256 12 48 48 (7077888)
21-09-2015 07:56:40 - ERROR: I0921 07:56:40.254843 27139 layer_factory.hpp:76] Creating layer pool1
21-09-2015 07:56:40 - ERROR: I0921 07:56:40.254848 27139 net.cpp:110] Creating Layer pool1
21-09-2015 07:56:40 - ERROR: I0921 07:56:40.254850 27139 net.cpp:477] pool1 <- conv1
21-09-2015 07:56:40 - ERROR: I0921 07:56:40.254854 27139 net.cpp:433] pool1 -> pool1
21-09-2015 07:56:40 - ERROR: I0921 07:56:40.254876 27139 net.cpp:155] Setting up pool1
21-09-2015 07:56:40 - ERROR: I0921 07:56:40.254886 27139 net.cpp:163] Top shape: 256 12 24 24 (1769472)
21-09-2015 07:56:40 - ERROR: I0921 07:56:40.254889 27139 layer_factory.hpp:76] Creating layer conv2
21-09-2015 07:56:40 - ERROR: I0921 07:56:40.254895 27139 net.cpp:110] Creating Layer conv2
21-09-2015 07:56:40 - ERROR: I0921 07:56:40.254897 27139 net.cpp:477] conv2 <- pool1
21-09-2015 07:56:40 - ERROR: I0921 07:56:40.254902 27139 net.cpp:433] conv2 -> conv2
21-09-2015 07:56:40 - ERROR: I0921 07:56:40.255205 27139 net.cpp:155] Setting up conv2
21-09-2015 07:56:40 - ERROR: I0921 07:56:40.255211 27139 net.cpp:163] Top shape: 256 48 25 25 (7680000)
21-09-2015 07:56:40 - ERROR: I0921 07:56:40.255219 27139 layer_factory.hpp:76] Creating layer relu2
21-09-2015 07:56:40 - ERROR: I0921 07:56:40.255224 27139 net.cpp:110] Creating Layer relu2
21-09-2015 07:56:40 - ERROR: I0921 07:56:40.255228 27139 net.cpp:477] relu2 <- conv2
21-09-2015 07:56:40 - ERROR: I0921 07:56:40.255233 27139 net.cpp:419] relu2 -> conv2 (in-place)
21-09-2015 07:56:40 - ERROR: I0921 07:56:40.255237 27139 net.cpp:155] Setting up relu2
21-09-2015 07:56:40 - ERROR: I0921 07:56:40.255241 27139 net.cpp:163] Top shape: 256 48 25 25 (7680000)
21-09-2015 07:56:40 - ERROR: I0921 07:56:40.255244 27139 layer_factory.hpp:76] Creating layer pool2
21-09-2015 07:56:40 - ERROR: I0921 07:56:40.255247 27139 net.cpp:110] Creating Layer pool2
21-09-2015 07:56:40 - ERROR: I0921 07:56:40.255250 27139 net.cpp:477] pool2 <- conv2
21-09-2015 07:56:40 - ERROR: I0921 07:56:40.255254 27139 net.cpp:433] pool2 -> pool2
21-09-2015 07:56:40 - ERROR: I0921 07:56:40.255260 27139 net.cpp:155] Setting up pool2
21-09-2015 07:56:40 - ERROR: I0921 07:56:40.255264 27139 net.cpp:163] Top shape: 256 48 12 12 (1769472)
21-09-2015 07:56:40 - ERROR: I0921 07:56:40.255267 27139 layer_factory.hpp:76] Creating layer fc3
21-09-2015 07:56:40 - ERROR: I0921 07:56:40.255273 27139 net.cpp:110] Creating Layer fc3
21-09-2015 07:56:40 - ERROR: I0921 07:56:40.255276 27139 net.cpp:477] fc3 <- pool2
21-09-2015 07:56:40 - ERROR: I0921 07:56:40.255281 27139 net.cpp:433] fc3 -> fc3
21-09-2015 07:56:40 - ERROR: I0921 07:56:40.501576 27139 net.cpp:155] Setting up fc3
21-09-2015 07:56:40 - ERROR: I0921 07:56:40.501593 27139 net.cpp:163] Top shape: 256 1024 (262144)
21-09-2015 07:56:40 - ERROR: I0921 07:56:40.501607 27139 layer_factory.hpp:76] Creating layer relu3
21-09-2015 07:56:40 - ERROR: I0921 07:56:40.501616 27139 net.cpp:110] Creating Layer relu3
21-09-2015 07:56:40 - ERROR: I0921 07:56:40.501621 27139 net.cpp:477] relu3 <- fc3
21-09-2015 07:56:40 - ERROR: I0921 07:56:40.501626 27139 net.cpp:419] relu3 -> fc3 (in-place)
21-09-2015 07:56:40 - ERROR: I0921 07:56:40.501634 27139 net.cpp:155] Setting up relu3
21-09-2015 07:56:40 - ERROR: I0921 07:56:40.501638 27139 net.cpp:163] Top shape: 256 1024 (262144)
21-09-2015 07:56:40 - ERROR: I0921 07:56:40.501641 27139 layer_factory.hpp:76] Creating layer fc4
21-09-2015 07:56:40 - ERROR: I0921 07:56:40.501649 27139 net.cpp:110] Creating Layer fc4
21-09-2015 07:56:40 - ERROR: I0921 07:56:40.501652 27139 net.cpp:477] fc4 <- fc3
21-09-2015 07:56:40 - ERROR: I0921 07:56:40.501657 27139 net.cpp:433] fc4 -> fc4
21-09-2015 07:56:40 - ERROR: I0921 07:56:40.501736 27139 net.cpp:155] Setting up fc4
21-09-2015 07:56:40 - ERROR: I0921 07:56:40.501754 27139 net.cpp:163] Top shape: 256 2 (512)
21-09-2015 07:56:40 - ERROR: I0921 07:56:40.501760 27139 layer_factory.hpp:76] Creating layer prob
21-09-2015 07:56:40 - ERROR: I0921 07:56:40.501765 27139 net.cpp:110] Creating Layer prob
21-09-2015 07:56:40 - ERROR: I0921 07:56:40.501768 27139 net.cpp:477] prob <- fc4
21-09-2015 07:56:40 - ERROR: I0921 07:56:40.501780 27139 net.cpp:433] prob -> prob
21-09-2015 07:56:40 - ERROR: I0921 07:56:40.501788 27139 net.cpp:155] Setting up prob
21-09-2015 07:56:40 - ERROR: I0921 07:56:40.501792 27139 net.cpp:163] Top shape: 256 2 (512)
21-09-2015 07:56:40 - ERROR: I0921 07:56:40.501796 27139 net.cpp:240] prob does not need backward computation.
21-09-2015 07:56:40 - ERROR: I0921 07:56:40.501798 27139 net.cpp:240] fc4 does not need backward computation.
21-09-2015 07:56:40 - ERROR: I0921 07:56:40.501812 27139 net.cpp:240] relu3 does not need backward computation.
21-09-2015 07:56:40 - ERROR: I0921 07:56:40.501814 27139 net.cpp:240] fc3 does not need backward computation.
…
