…
17-09-2015 09:17:44 - ERROR: I0917 09:17:44.749569 23080 net.cpp:435] Input 0 -> data
17-09-2015 09:17:44 - ERROR: I0917 09:17:44.749735 23080 layer_factory.hpp:76] Creating layer conv1
17-09-2015 09:17:44 - ERROR: I0917 09:17:44.749768 23080 net.cpp:110] Creating Layer conv1
17-09-2015 09:17:44 - ERROR: I0917 09:17:44.749779 23080 net.cpp:477] conv1 <- data
17-09-2015 09:17:44 - ERROR: I0917 09:17:44.749871 23080 net.cpp:433] conv1 -> conv1
17-09-2015 09:17:44 - ERROR: I0917 09:17:44.751611 23080 net.cpp:155] Setting up conv1
17-09-2015 09:17:44 - ERROR: I0917 09:17:44.751713 23080 net.cpp:163] Top shape: 256 12 48 48 (7077888)
17-09-2015 09:17:44 - ERROR: I0917 09:17:44.751763 23080 layer_factory.hpp:76] Creating layer relu1
17-09-2015 09:17:44 - ERROR: I0917 09:17:44.751848 23080 net.cpp:110] Creating Layer relu1
17-09-2015 09:17:44 - ERROR: I0917 09:17:44.751854 23080 net.cpp:477] relu1 <- conv1
17-09-2015 09:17:44 - ERROR: I0917 09:17:44.751863 23080 net.cpp:419] relu1 -> conv1 (in-place)
17-09-2015 09:17:44 - ERROR: I0917 09:17:44.751916 23080 net.cpp:155] Setting up relu1
17-09-2015 09:17:44 - ERROR: I0917 09:17:44.751924 23080 net.cpp:163] Top shape: 256 12 48 48 (7077888)
17-09-2015 09:17:44 - ERROR: I0917 09:17:44.751929 23080 layer_factory.hpp:76] Creating layer pool1
17-09-2015 09:17:44 - ERROR: I0917 09:17:44.751937 23080 net.cpp:110] Creating Layer pool1
17-09-2015 09:17:44 - ERROR: I0917 09:17:44.751940 23080 net.cpp:477] pool1 <- conv1
17-09-2015 09:17:44 - ERROR: I0917 09:17:44.751951 23080 net.cpp:433] pool1 -> pool1
17-09-2015 09:17:44 - ERROR: I0917 09:17:44.752105 23080 net.cpp:155] Setting up pool1
17-09-2015 09:17:44 - ERROR: I0917 09:17:44.752123 23080 net.cpp:163] Top shape: 256 12 24 24 (1769472)
17-09-2015 09:17:44 - ERROR: I0917 09:17:44.752135 23080 layer_factory.hpp:76] Creating layer conv2
17-09-2015 09:17:44 - ERROR: I0917 09:17:44.752179 23080 net.cpp:110] Creating Layer conv2
17-09-2015 09:17:44 - ERROR: I0917 09:17:44.752185 23080 net.cpp:477] conv2 <- pool1
17-09-2015 09:17:44 - ERROR: I0917 09:17:44.752193 23080 net.cpp:433] conv2 -> conv2
17-09-2015 09:17:44 - ERROR: I0917 09:17:44.752827 23080 net.cpp:155] Setting up conv2
17-09-2015 09:17:44 - ERROR: I0917 09:17:44.752842 23080 net.cpp:163] Top shape: 256 48 25 25 (7680000)
17-09-2015 09:17:44 - ERROR: I0917 09:17:44.752852 23080 layer_factory.hpp:76] Creating layer relu2
17-09-2015 09:17:44 - ERROR: I0917 09:17:44.752859 23080 net.cpp:110] Creating Layer relu2
17-09-2015 09:17:44 - ERROR: I0917 09:17:44.752863 23080 net.cpp:477] relu2 <- conv2
17-09-2015 09:17:44 - ERROR: I0917 09:17:44.752876 23080 net.cpp:419] relu2 -> conv2 (in-place)
17-09-2015 09:17:44 - ERROR: I0917 09:17:44.752919 23080 net.cpp:155] Setting up relu2
17-09-2015 09:17:44 - ERROR: I0917 09:17:44.752960 23080 net.cpp:163] Top shape: 256 48 25 25 (7680000)
17-09-2015 09:17:44 - ERROR: I0917 09:17:44.753003 23080 layer_factory.hpp:76] Creating layer pool2
17-09-2015 09:17:44 - ERROR: I0917 09:17:44.753015 23080 net.cpp:110] Creating Layer pool2
17-09-2015 09:17:44 - ERROR: I0917 09:17:44.753051 23080 net.cpp:477] pool2 <- conv2
17-09-2015 09:17:44 - ERROR: I0917 09:17:44.753060 23080 net.cpp:433] pool2 -> pool2
17-09-2015 09:17:44 - ERROR: I0917 09:17:44.753069 23080 net.cpp:155] Setting up pool2
17-09-2015 09:17:44 - ERROR: I0917 09:17:44.753079 23080 net.cpp:163] Top shape: 256 48 12 12 (1769472)
17-09-2015 09:17:44 - ERROR: I0917 09:17:44.753082 23080 layer_factory.hpp:76] Creating layer fc3
17-09-2015 09:17:44 - ERROR: I0917 09:17:44.753137 23080 net.cpp:110] Creating Layer fc3
17-09-2015 09:17:44 - ERROR: I0917 09:17:44.753177 23080 net.cpp:477] fc3 <- pool2
17-09-2015 09:17:44 - ERROR: I0917 09:17:44.753226 23080 net.cpp:433] fc3 -> fc3
17-09-2015 09:17:44 - ERROR: I0917 09:17:44.989895 23080 net.cpp:155] Setting up fc3
17-09-2015 09:17:44 - ERROR: I0917 09:17:44.989980 23080 net.cpp:163] Top shape: 256 1024 (262144)
17-09-2015 09:17:44 - ERROR: I0917 09:17:44.989995 23080 layer_factory.hpp:76] Creating layer relu3
17-09-2015 09:17:44 - ERROR: I0917 09:17:44.990002 23080 net.cpp:110] Creating Layer relu3
17-09-2015 09:17:44 - ERROR: I0917 09:17:44.990005 23080 net.cpp:477] relu3 <- fc3
17-09-2015 09:17:44 - ERROR: I0917 09:17:44.990011 23080 net.cpp:419] relu3 -> fc3 (in-place)
17-09-2015 09:17:44 - ERROR: I0917 09:17:44.990018 23080 net.cpp:155] Setting up relu3
17-09-2015 09:17:44 - ERROR: I0917 09:17:44.990022 23080 net.cpp:163] Top shape: 256 1024 (262144)
17-09-2015 09:17:44 - ERROR: I0917 09:17:44.990025 23080 layer_factory.hpp:76] Creating layer fc4
17-09-2015 09:17:44 - ERROR: I0917 09:17:44.990033 23080 net.cpp:110] Creating Layer fc4
17-09-2015 09:17:44 - ERROR: I0917 09:17:44.990036 23080 net.cpp:477] fc4 <- fc3
17-09-2015 09:17:44 - ERROR: I0917 09:17:44.990044 23080 net.cpp:433] fc4 -> fc4
17-09-2015 09:17:44 - ERROR: I0917 09:17:44.990262 23080 net.cpp:155] Setting up fc4
17-09-2015 09:17:44 - ERROR: I0917 09:17:44.990270 23080 net.cpp:163] Top shape: 256 2 (512)
17-09-2015 09:17:44 - ERROR: I0917 09:17:44.990279 23080 layer_factory.hpp:76] Creating layer prob
17-09-2015 09:17:44 - ERROR: I0917 09:17:44.990290 23080 net.cpp:110] Creating Layer prob
17-09-2015 09:17:44 - ERROR: I0917 09:17:44.990294 23080 net.cpp:477] prob <- fc4
17-09-2015 09:17:44 - ERROR: I0917 09:17:44.990300 23080 net.cpp:433] prob -> prob
17-09-2015 09:17:44 - ERROR: I0917 09:17:44.990356 23080 net.cpp:155] Setting up prob
17-09-2015 09:17:44 - ERROR: I0917 09:17:44.990363 23080 net.cpp:163] Top shape: 256 2 (512)
17-09-2015 09:17:44 - ERROR: I0917 09:17:44.990366 23080 net.cpp:240] prob does not need backward computation.
17-09-2015 09:17:44 - ERROR: I0917 09:17:44.990370 23080 net.cpp:240] fc4 does not need backward computation.
17-09-2015 09:17:44 - ERROR: I0917 09:17:44.990373 23080 net.cpp:240] relu3 does not need backward computation.
17-09-2015 09:17:44 - ERROR: I0917 09:17:44.990375 23080 net.cpp:240] fc3 does not need backward computation.
…
