…
21-09-2015 03:48:13 - ERROR: I0921 15:48:13.021194 21345 net.cpp:435] Input 0 -> data
21-09-2015 03:48:13 - ERROR: I0921 15:48:13.021272 21345 layer_factory.hpp:76] Creating layer conv1
21-09-2015 03:48:13 - ERROR: I0921 15:48:13.021296 21345 net.cpp:110] Creating Layer conv1
21-09-2015 03:48:13 - ERROR: I0921 15:48:13.021303 21345 net.cpp:477] conv1 <- data
21-09-2015 03:48:13 - ERROR: I0921 15:48:13.021313 21345 net.cpp:433] conv1 -> conv1
21-09-2015 03:48:13 - ERROR: I0921 15:48:13.021966 21345 net.cpp:155] Setting up conv1
21-09-2015 03:48:13 - ERROR: I0921 15:48:13.022001 21345 net.cpp:163] Top shape: 256 12 48 48 (7077888)
21-09-2015 03:48:13 - ERROR: I0921 15:48:13.022037 21345 layer_factory.hpp:76] Creating layer relu1
21-09-2015 03:48:13 - ERROR: I0921 15:48:13.022044 21345 net.cpp:110] Creating Layer relu1
21-09-2015 03:48:13 - ERROR: I0921 15:48:13.022048 21345 net.cpp:477] relu1 <- conv1
21-09-2015 03:48:13 - ERROR: I0921 15:48:13.022053 21345 net.cpp:419] relu1 -> conv1 (in-place)
21-09-2015 03:48:13 - ERROR: I0921 15:48:13.022061 21345 net.cpp:155] Setting up relu1
21-09-2015 03:48:13 - ERROR: I0921 15:48:13.022066 21345 net.cpp:163] Top shape: 256 12 48 48 (7077888)
21-09-2015 03:48:13 - ERROR: I0921 15:48:13.022069 21345 layer_factory.hpp:76] Creating layer pool1
21-09-2015 03:48:13 - ERROR: I0921 15:48:13.022074 21345 net.cpp:110] Creating Layer pool1
21-09-2015 03:48:13 - ERROR: I0921 15:48:13.022078 21345 net.cpp:477] pool1 <- conv1
21-09-2015 03:48:13 - ERROR: I0921 15:48:13.022081 21345 net.cpp:433] pool1 -> pool1
21-09-2015 03:48:13 - ERROR: I0921 15:48:13.022104 21345 net.cpp:155] Setting up pool1
21-09-2015 03:48:13 - ERROR: I0921 15:48:13.022114 21345 net.cpp:163] Top shape: 256 12 24 24 (1769472)
21-09-2015 03:48:13 - ERROR: I0921 15:48:13.022117 21345 layer_factory.hpp:76] Creating layer conv2
21-09-2015 03:48:13 - ERROR: I0921 15:48:13.022124 21345 net.cpp:110] Creating Layer conv2
21-09-2015 03:48:13 - ERROR: I0921 15:48:13.022125 21345 net.cpp:477] conv2 <- pool1
21-09-2015 03:48:13 - ERROR: I0921 15:48:13.022130 21345 net.cpp:433] conv2 -> conv2
21-09-2015 03:48:13 - ERROR: I0921 15:48:13.022434 21345 net.cpp:155] Setting up conv2
21-09-2015 03:48:13 - ERROR: I0921 15:48:13.022441 21345 net.cpp:163] Top shape: 256 48 25 25 (7680000)
21-09-2015 03:48:13 - ERROR: I0921 15:48:13.022449 21345 layer_factory.hpp:76] Creating layer relu2
21-09-2015 03:48:13 - ERROR: I0921 15:48:13.022454 21345 net.cpp:110] Creating Layer relu2
21-09-2015 03:48:13 - ERROR: I0921 15:48:13.022457 21345 net.cpp:477] relu2 <- conv2
21-09-2015 03:48:13 - ERROR: I0921 15:48:13.022461 21345 net.cpp:419] relu2 -> conv2 (in-place)
21-09-2015 03:48:13 - ERROR: I0921 15:48:13.022465 21345 net.cpp:155] Setting up relu2
21-09-2015 03:48:13 - ERROR: I0921 15:48:13.022469 21345 net.cpp:163] Top shape: 256 48 25 25 (7680000)
21-09-2015 03:48:13 - ERROR: I0921 15:48:13.022472 21345 layer_factory.hpp:76] Creating layer pool2
21-09-2015 03:48:13 - ERROR: I0921 15:48:13.022476 21345 net.cpp:110] Creating Layer pool2
21-09-2015 03:48:13 - ERROR: I0921 15:48:13.022478 21345 net.cpp:477] pool2 <- conv2
21-09-2015 03:48:13 - ERROR: I0921 15:48:13.022482 21345 net.cpp:433] pool2 -> pool2
21-09-2015 03:48:13 - ERROR: I0921 15:48:13.022490 21345 net.cpp:155] Setting up pool2
21-09-2015 03:48:13 - ERROR: I0921 15:48:13.022493 21345 net.cpp:163] Top shape: 256 48 12 12 (1769472)
21-09-2015 03:48:13 - ERROR: I0921 15:48:13.022496 21345 layer_factory.hpp:76] Creating layer fc3
21-09-2015 03:48:13 - ERROR: I0921 15:48:13.022502 21345 net.cpp:110] Creating Layer fc3
21-09-2015 03:48:13 - ERROR: I0921 15:48:13.022505 21345 net.cpp:477] fc3 <- pool2
21-09-2015 03:48:13 - ERROR: I0921 15:48:13.022510 21345 net.cpp:433] fc3 -> fc3
21-09-2015 03:48:13 - ERROR: I0921 15:48:13.268555 21345 net.cpp:155] Setting up fc3
21-09-2015 03:48:13 - ERROR: I0921 15:48:13.268648 21345 net.cpp:163] Top shape: 256 1024 (262144)
21-09-2015 03:48:13 - ERROR: I0921 15:48:13.268663 21345 layer_factory.hpp:76] Creating layer relu3
21-09-2015 03:48:13 - ERROR: I0921 15:48:13.268671 21345 net.cpp:110] Creating Layer relu3
21-09-2015 03:48:13 - ERROR: I0921 15:48:13.268676 21345 net.cpp:477] relu3 <- fc3
21-09-2015 03:48:13 - ERROR: I0921 15:48:13.268682 21345 net.cpp:419] relu3 -> fc3 (in-place)
21-09-2015 03:48:13 - ERROR: I0921 15:48:13.268689 21345 net.cpp:155] Setting up relu3
21-09-2015 03:48:13 - ERROR: I0921 15:48:13.268693 21345 net.cpp:163] Top shape: 256 1024 (262144)
21-09-2015 03:48:13 - ERROR: I0921 15:48:13.268697 21345 layer_factory.hpp:76] Creating layer fc4
21-09-2015 03:48:13 - ERROR: I0921 15:48:13.268707 21345 net.cpp:110] Creating Layer fc4
21-09-2015 03:48:13 - ERROR: I0921 15:48:13.268710 21345 net.cpp:477] fc4 <- fc3
21-09-2015 03:48:13 - ERROR: I0921 15:48:13.268715 21345 net.cpp:433] fc4 -> fc4
21-09-2015 03:48:13 - ERROR: I0921 15:48:13.268893 21345 net.cpp:155] Setting up fc4
21-09-2015 03:48:13 - ERROR: I0921 15:48:13.268901 21345 net.cpp:163] Top shape: 256 2 (512)
21-09-2015 03:48:13 - ERROR: I0921 15:48:13.268908 21345 layer_factory.hpp:76] Creating layer prob
21-09-2015 03:48:13 - ERROR: I0921 15:48:13.268913 21345 net.cpp:110] Creating Layer prob
21-09-2015 03:48:13 - ERROR: I0921 15:48:13.268916 21345 net.cpp:477] prob <- fc4
21-09-2015 03:48:13 - ERROR: I0921 15:48:13.268929 21345 net.cpp:433] prob -> prob
21-09-2015 03:48:13 - ERROR: I0921 15:48:13.268942 21345 net.cpp:155] Setting up prob
21-09-2015 03:48:13 - ERROR: I0921 15:48:13.268946 21345 net.cpp:163] Top shape: 256 2 (512)
21-09-2015 03:48:13 - ERROR: I0921 15:48:13.268949 21345 net.cpp:240] prob does not need backward computation.
21-09-2015 03:48:13 - ERROR: I0921 15:48:13.268990 21345 net.cpp:240] fc4 does not need backward computation.
21-09-2015 03:48:13 - ERROR: I0921 15:48:13.269042 21345 net.cpp:240] relu3 does not need backward computation.
21-09-2015 03:48:13 - ERROR: I0921 15:48:13.269047 21345 net.cpp:240] fc3 does not need backward computation.
…
