…
17-09-2015 09:16:37 - ERROR: I0917 09:16:37.025081 36877 net.cpp:435] Input 0 -> data
17-09-2015 09:16:37 - ERROR: I0917 09:16:37.025270 36877 layer_factory.hpp:76] Creating layer conv1
17-09-2015 09:16:37 - ERROR: I0917 09:16:37.025354 36877 net.cpp:110] Creating Layer conv1
17-09-2015 09:16:37 - ERROR: I0917 09:16:37.025367 36877 net.cpp:477] conv1 <- data
17-09-2015 09:16:37 - ERROR: I0917 09:16:37.025395 36877 net.cpp:433] conv1 -> conv1
17-09-2015 09:16:37 - ERROR: I0917 09:16:37.026389 36877 net.cpp:155] Setting up conv1
17-09-2015 09:16:37 - ERROR: I0917 09:16:37.026442 36877 net.cpp:163] Top shape: 256 12 48 48 (7077888)
17-09-2015 09:16:37 - ERROR: I0917 09:16:37.026484 36877 layer_factory.hpp:76] Creating layer relu1
17-09-2015 09:16:37 - ERROR: I0917 09:16:37.026492 36877 net.cpp:110] Creating Layer relu1
17-09-2015 09:16:37 - ERROR: I0917 09:16:37.026496 36877 net.cpp:477] relu1 <- conv1
17-09-2015 09:16:37 - ERROR: I0917 09:16:37.026500 36877 net.cpp:419] relu1 -> conv1 (in-place)
17-09-2015 09:16:37 - ERROR: I0917 09:16:37.026510 36877 net.cpp:155] Setting up relu1
17-09-2015 09:16:37 - ERROR: I0917 09:16:37.026515 36877 net.cpp:163] Top shape: 256 12 48 48 (7077888)
17-09-2015 09:16:37 - ERROR: I0917 09:16:37.026518 36877 layer_factory.hpp:76] Creating layer pool1
17-09-2015 09:16:37 - ERROR: I0917 09:16:37.026523 36877 net.cpp:110] Creating Layer pool1
17-09-2015 09:16:37 - ERROR: I0917 09:16:37.026530 36877 net.cpp:477] pool1 <- conv1
17-09-2015 09:16:37 - ERROR: I0917 09:16:37.026535 36877 net.cpp:433] pool1 -> pool1
17-09-2015 09:16:37 - ERROR: I0917 09:16:37.026607 36877 net.cpp:155] Setting up pool1
17-09-2015 09:16:37 - ERROR: I0917 09:16:37.026621 36877 net.cpp:163] Top shape: 256 12 24 24 (1769472)
17-09-2015 09:16:37 - ERROR: I0917 09:16:37.026628 36877 layer_factory.hpp:76] Creating layer conv2
17-09-2015 09:16:37 - ERROR: I0917 09:16:37.026634 36877 net.cpp:110] Creating Layer conv2
17-09-2015 09:16:37 - ERROR: I0917 09:16:37.026639 36877 net.cpp:477] conv2 <- pool1
17-09-2015 09:16:37 - ERROR: I0917 09:16:37.026645 36877 net.cpp:433] conv2 -> conv2
17-09-2015 09:16:37 - ERROR: I0917 09:16:37.027221 36877 net.cpp:155] Setting up conv2
17-09-2015 09:16:37 - ERROR: I0917 09:16:37.027267 36877 net.cpp:163] Top shape: 256 48 25 25 (7680000)
17-09-2015 09:16:37 - ERROR: I0917 09:16:37.027281 36877 layer_factory.hpp:76] Creating layer relu2
17-09-2015 09:16:37 - ERROR: I0917 09:16:37.027294 36877 net.cpp:110] Creating Layer relu2
17-09-2015 09:16:37 - ERROR: I0917 09:16:37.027298 36877 net.cpp:477] relu2 <- conv2
17-09-2015 09:16:37 - ERROR: I0917 09:16:37.027310 36877 net.cpp:419] relu2 -> conv2 (in-place)
17-09-2015 09:16:37 - ERROR: I0917 09:16:37.027357 36877 net.cpp:155] Setting up relu2
17-09-2015 09:16:37 - ERROR: I0917 09:16:37.027364 36877 net.cpp:163] Top shape: 256 48 25 25 (7680000)
17-09-2015 09:16:37 - ERROR: I0917 09:16:37.027367 36877 layer_factory.hpp:76] Creating layer pool2
17-09-2015 09:16:37 - ERROR: I0917 09:16:37.027374 36877 net.cpp:110] Creating Layer pool2
17-09-2015 09:16:37 - ERROR: I0917 09:16:37.027377 36877 net.cpp:477] pool2 <- conv2
17-09-2015 09:16:37 - ERROR: I0917 09:16:37.027420 36877 net.cpp:433] pool2 -> pool2
17-09-2015 09:16:37 - ERROR: I0917 09:16:37.027434 36877 net.cpp:155] Setting up pool2
17-09-2015 09:16:37 - ERROR: I0917 09:16:37.027482 36877 net.cpp:163] Top shape: 256 48 12 12 (1769472)
17-09-2015 09:16:37 - ERROR: I0917 09:16:37.027520 36877 layer_factory.hpp:76] Creating layer fc3
17-09-2015 09:16:37 - ERROR: I0917 09:16:37.027568 36877 net.cpp:110] Creating Layer fc3
17-09-2015 09:16:37 - ERROR: I0917 09:16:37.027611 36877 net.cpp:477] fc3 <- pool2
17-09-2015 09:16:37 - ERROR: I0917 09:16:37.027619 36877 net.cpp:433] fc3 -> fc3
17-09-2015 09:16:37 - ERROR: I0917 09:16:37.275841 36877 net.cpp:155] Setting up fc3
17-09-2015 09:16:37 - ERROR: I0917 09:16:37.275921 36877 net.cpp:163] Top shape: 256 1024 (262144)
17-09-2015 09:16:37 - ERROR: I0917 09:16:37.275935 36877 layer_factory.hpp:76] Creating layer relu3
17-09-2015 09:16:37 - ERROR: I0917 09:16:37.275943 36877 net.cpp:110] Creating Layer relu3
17-09-2015 09:16:37 - ERROR: I0917 09:16:37.275946 36877 net.cpp:477] relu3 <- fc3
17-09-2015 09:16:37 - ERROR: I0917 09:16:37.275951 36877 net.cpp:419] relu3 -> fc3 (in-place)
17-09-2015 09:16:37 - ERROR: I0917 09:16:37.275959 36877 net.cpp:155] Setting up relu3
17-09-2015 09:16:37 - ERROR: I0917 09:16:37.275962 36877 net.cpp:163] Top shape: 256 1024 (262144)
17-09-2015 09:16:37 - ERROR: I0917 09:16:37.275965 36877 layer_factory.hpp:76] Creating layer fc4
17-09-2015 09:16:37 - ERROR: I0917 09:16:37.275974 36877 net.cpp:110] Creating Layer fc4
17-09-2015 09:16:37 - ERROR: I0917 09:16:37.275976 36877 net.cpp:477] fc4 <- fc3
17-09-2015 09:16:37 - ERROR: I0917 09:16:37.275982 36877 net.cpp:433] fc4 -> fc4
17-09-2015 09:16:37 - ERROR: I0917 09:16:37.276129 36877 net.cpp:155] Setting up fc4
17-09-2015 09:16:37 - ERROR: I0917 09:16:37.276137 36877 net.cpp:163] Top shape: 256 2 (512)
17-09-2015 09:16:37 - ERROR: I0917 09:16:37.276145 36877 layer_factory.hpp:76] Creating layer prob
17-09-2015 09:16:37 - ERROR: I0917 09:16:37.276165 36877 net.cpp:110] Creating Layer prob
17-09-2015 09:16:37 - ERROR: I0917 09:16:37.276170 36877 net.cpp:477] prob <- fc4
17-09-2015 09:16:37 - ERROR: I0917 09:16:37.276175 36877 net.cpp:433] prob -> prob
17-09-2015 09:16:37 - ERROR: I0917 09:16:37.276226 36877 net.cpp:155] Setting up prob
17-09-2015 09:16:37 - ERROR: I0917 09:16:37.276233 36877 net.cpp:163] Top shape: 256 2 (512)
17-09-2015 09:16:37 - ERROR: I0917 09:16:37.276237 36877 net.cpp:240] prob does not need backward computation.
17-09-2015 09:16:37 - ERROR: I0917 09:16:37.276240 36877 net.cpp:240] fc4 does not need backward computation.
17-09-2015 09:16:37 - ERROR: I0917 09:16:37.276242 36877 net.cpp:240] relu3 does not need backward computation.
17-09-2015 09:16:37 - ERROR: I0917 09:16:37.276245 36877 net.cpp:240] fc3 does not need backward computation.
…
