…
18-09-2015 09:59:39 - ERROR: I0918 09:59:39.365249 27424 net.cpp:435] Input 0 -> data
18-09-2015 09:59:39 - ERROR: I0918 09:59:39.365341 27424 layer_factory.hpp:76] Creating layer conv1
18-09-2015 09:59:39 - ERROR: I0918 09:59:39.365367 27424 net.cpp:110] Creating Layer conv1
18-09-2015 09:59:39 - ERROR: I0918 09:59:39.365375 27424 net.cpp:477] conv1 <- data
18-09-2015 09:59:39 - ERROR: I0918 09:59:39.365386 27424 net.cpp:433] conv1 -> conv1
18-09-2015 09:59:39 - ERROR: I0918 09:59:39.366019 27424 net.cpp:155] Setting up conv1
18-09-2015 09:59:39 - ERROR: I0918 09:59:39.366055 27424 net.cpp:163] Top shape: 256 12 48 48 (7077888)
18-09-2015 09:59:39 - ERROR: I0918 09:59:39.366091 27424 layer_factory.hpp:76] Creating layer relu1
18-09-2015 09:59:39 - ERROR: I0918 09:59:39.366101 27424 net.cpp:110] Creating Layer relu1
18-09-2015 09:59:39 - ERROR: I0918 09:59:39.366104 27424 net.cpp:477] relu1 <- conv1
18-09-2015 09:59:39 - ERROR: I0918 09:59:39.366108 27424 net.cpp:419] relu1 -> conv1 (in-place)
18-09-2015 09:59:39 - ERROR: I0918 09:59:39.366118 27424 net.cpp:155] Setting up relu1
18-09-2015 09:59:39 - ERROR: I0918 09:59:39.366122 27424 net.cpp:163] Top shape: 256 12 48 48 (7077888)
18-09-2015 09:59:39 - ERROR: I0918 09:59:39.366125 27424 layer_factory.hpp:76] Creating layer pool1
18-09-2015 09:59:39 - ERROR: I0918 09:59:39.366132 27424 net.cpp:110] Creating Layer pool1
18-09-2015 09:59:39 - ERROR: I0918 09:59:39.366133 27424 net.cpp:477] pool1 <- conv1
18-09-2015 09:59:39 - ERROR: I0918 09:59:39.366138 27424 net.cpp:433] pool1 -> pool1
18-09-2015 09:59:39 - ERROR: I0918 09:59:39.366161 27424 net.cpp:155] Setting up pool1
18-09-2015 09:59:39 - ERROR: I0918 09:59:39.366171 27424 net.cpp:163] Top shape: 256 12 24 24 (1769472)
18-09-2015 09:59:39 - ERROR: I0918 09:59:39.366174 27424 layer_factory.hpp:76] Creating layer conv2
18-09-2015 09:59:39 - ERROR: I0918 09:59:39.366180 27424 net.cpp:110] Creating Layer conv2
18-09-2015 09:59:39 - ERROR: I0918 09:59:39.366183 27424 net.cpp:477] conv2 <- pool1
18-09-2015 09:59:39 - ERROR: I0918 09:59:39.366189 27424 net.cpp:433] conv2 -> conv2
18-09-2015 09:59:39 - ERROR: I0918 09:59:39.366509 27424 net.cpp:155] Setting up conv2
18-09-2015 09:59:39 - ERROR: I0918 09:59:39.366516 27424 net.cpp:163] Top shape: 256 48 25 25 (7680000)
18-09-2015 09:59:39 - ERROR: I0918 09:59:39.366523 27424 layer_factory.hpp:76] Creating layer relu2
18-09-2015 09:59:39 - ERROR: I0918 09:59:39.366528 27424 net.cpp:110] Creating Layer relu2
18-09-2015 09:59:39 - ERROR: I0918 09:59:39.366533 27424 net.cpp:477] relu2 <- conv2
18-09-2015 09:59:39 - ERROR: I0918 09:59:39.366536 27424 net.cpp:419] relu2 -> conv2 (in-place)
18-09-2015 09:59:39 - ERROR: I0918 09:59:39.366541 27424 net.cpp:155] Setting up relu2
18-09-2015 09:59:39 - ERROR: I0918 09:59:39.366544 27424 net.cpp:163] Top shape: 256 48 25 25 (7680000)
18-09-2015 09:59:39 - ERROR: I0918 09:59:39.366547 27424 layer_factory.hpp:76] Creating layer pool2
18-09-2015 09:59:39 - ERROR: I0918 09:59:39.366551 27424 net.cpp:110] Creating Layer pool2
18-09-2015 09:59:39 - ERROR: I0918 09:59:39.366554 27424 net.cpp:477] pool2 <- conv2
18-09-2015 09:59:39 - ERROR: I0918 09:59:39.366557 27424 net.cpp:433] pool2 -> pool2
18-09-2015 09:59:39 - ERROR: I0918 09:59:39.366564 27424 net.cpp:155] Setting up pool2
18-09-2015 09:59:39 - ERROR: I0918 09:59:39.366569 27424 net.cpp:163] Top shape: 256 48 12 12 (1769472)
18-09-2015 09:59:39 - ERROR: I0918 09:59:39.366570 27424 layer_factory.hpp:76] Creating layer fc3
18-09-2015 09:59:39 - ERROR: I0918 09:59:39.366577 27424 net.cpp:110] Creating Layer fc3
18-09-2015 09:59:39 - ERROR: I0918 09:59:39.366580 27424 net.cpp:477] fc3 <- pool2
18-09-2015 09:59:39 - ERROR: I0918 09:59:39.366585 27424 net.cpp:433] fc3 -> fc3
18-09-2015 09:59:39 - ERROR: I0918 09:59:39.606241 27424 net.cpp:155] Setting up fc3
18-09-2015 09:59:39 - ERROR: I0918 09:59:39.606336 27424 net.cpp:163] Top shape: 256 1024 (262144)
18-09-2015 09:59:39 - ERROR: I0918 09:59:39.606351 27424 layer_factory.hpp:76] Creating layer relu3
18-09-2015 09:59:39 - ERROR: I0918 09:59:39.606361 27424 net.cpp:110] Creating Layer relu3
18-09-2015 09:59:39 - ERROR: I0918 09:59:39.606364 27424 net.cpp:477] relu3 <- fc3
18-09-2015 09:59:39 - ERROR: I0918 09:59:39.606370 27424 net.cpp:419] relu3 -> fc3 (in-place)
18-09-2015 09:59:39 - ERROR: I0918 09:59:39.606379 27424 net.cpp:155] Setting up relu3
18-09-2015 09:59:39 - ERROR: I0918 09:59:39.606384 27424 net.cpp:163] Top shape: 256 1024 (262144)
18-09-2015 09:59:39 - ERROR: I0918 09:59:39.606386 27424 layer_factory.hpp:76] Creating layer fc4
18-09-2015 09:59:39 - ERROR: I0918 09:59:39.606395 27424 net.cpp:110] Creating Layer fc4
18-09-2015 09:59:39 - ERROR: I0918 09:59:39.606397 27424 net.cpp:477] fc4 <- fc3
18-09-2015 09:59:39 - ERROR: I0918 09:59:39.606408 27424 net.cpp:433] fc4 -> fc4
18-09-2015 09:59:39 - ERROR: I0918 09:59:39.606551 27424 net.cpp:155] Setting up fc4
18-09-2015 09:59:39 - ERROR: I0918 09:59:39.606559 27424 net.cpp:163] Top shape: 256 2 (512)
18-09-2015 09:59:39 - ERROR: I0918 09:59:39.606567 27424 layer_factory.hpp:76] Creating layer prob
18-09-2015 09:59:39 - ERROR: I0918 09:59:39.606617 27424 net.cpp:110] Creating Layer prob
18-09-2015 09:59:39 - ERROR: I0918 09:59:39.606629 27424 net.cpp:477] prob <- fc4
18-09-2015 09:59:39 - ERROR: I0918 09:59:39.606669 27424 net.cpp:433] prob -> prob
18-09-2015 09:59:39 - ERROR: I0918 09:59:39.606690 27424 net.cpp:155] Setting up prob
18-09-2015 09:59:39 - ERROR: I0918 09:59:39.606703 27424 net.cpp:163] Top shape: 256 2 (512)
18-09-2015 09:59:39 - ERROR: I0918 09:59:39.606705 27424 net.cpp:240] prob does not need backward computation.
18-09-2015 09:59:39 - ERROR: I0918 09:59:39.606709 27424 net.cpp:240] fc4 does not need backward computation.
18-09-2015 09:59:39 - ERROR: I0918 09:59:39.606729 27424 net.cpp:240] relu3 does not need backward computation.
18-09-2015 09:59:39 - ERROR: I0918 09:59:39.606770 27424 net.cpp:240] fc3 does not need backward computation.
…
