…
17-09-2015 09:21:39 - ERROR: I0917 09:21:39.978690 30516 net.cpp:435] Input 0 -> data
17-09-2015 09:21:39 - ERROR: I0917 09:21:39.979003 30516 layer_factory.hpp:76] Creating layer conv1
17-09-2015 09:21:39 - ERROR: I0917 09:21:39.979079 30516 net.cpp:110] Creating Layer conv1
17-09-2015 09:21:39 - ERROR: I0917 09:21:39.979136 30516 net.cpp:477] conv1 <- data
17-09-2015 09:21:39 - ERROR: I0917 09:21:39.979158 30516 net.cpp:433] conv1 -> conv1
17-09-2015 09:21:39 - ERROR: I0917 09:21:39.980689 30516 net.cpp:155] Setting up conv1
17-09-2015 09:21:39 - ERROR: I0917 09:21:39.980815 30516 net.cpp:163] Top shape: 256 12 48 48 (7077888)
17-09-2015 09:21:39 - ERROR: I0917 09:21:39.980974 30516 layer_factory.hpp:76] Creating layer relu1
17-09-2015 09:21:39 - ERROR: I0917 09:21:39.980988 30516 net.cpp:110] Creating Layer relu1
17-09-2015 09:21:39 - ERROR: I0917 09:21:39.980993 30516 net.cpp:477] relu1 <- conv1
17-09-2015 09:21:39 - ERROR: I0917 09:21:39.980998 30516 net.cpp:419] relu1 -> conv1 (in-place)
17-09-2015 09:21:39 - ERROR: I0917 09:21:39.981014 30516 net.cpp:155] Setting up relu1
17-09-2015 09:21:39 - ERROR: I0917 09:21:39.981020 30516 net.cpp:163] Top shape: 256 12 48 48 (7077888)
17-09-2015 09:21:39 - ERROR: I0917 09:21:39.981024 30516 layer_factory.hpp:76] Creating layer pool1
17-09-2015 09:21:39 - ERROR: I0917 09:21:39.981029 30516 net.cpp:110] Creating Layer pool1
17-09-2015 09:21:39 - ERROR: I0917 09:21:39.981031 30516 net.cpp:477] pool1 <- conv1
17-09-2015 09:21:39 - ERROR: I0917 09:21:39.981036 30516 net.cpp:433] pool1 -> pool1
17-09-2015 09:21:39 - ERROR: I0917 09:21:39.981194 30516 net.cpp:155] Setting up pool1
17-09-2015 09:21:39 - ERROR: I0917 09:21:39.981226 30516 net.cpp:163] Top shape: 256 12 24 24 (1769472)
17-09-2015 09:21:39 - ERROR: I0917 09:21:39.981267 30516 layer_factory.hpp:76] Creating layer conv2
17-09-2015 09:21:39 - ERROR: I0917 09:21:39.981274 30516 net.cpp:110] Creating Layer conv2
17-09-2015 09:21:39 - ERROR: I0917 09:21:39.981281 30516 net.cpp:477] conv2 <- pool1
17-09-2015 09:21:39 - ERROR: I0917 09:21:39.981331 30516 net.cpp:433] conv2 -> conv2
17-09-2015 09:21:39 - ERROR: I0917 09:21:39.982043 30516 net.cpp:155] Setting up conv2
17-09-2015 09:21:39 - ERROR: I0917 09:21:39.982054 30516 net.cpp:163] Top shape: 256 48 25 25 (7680000)
17-09-2015 09:21:39 - ERROR: I0917 09:21:39.982112 30516 layer_factory.hpp:76] Creating layer relu2
17-09-2015 09:21:39 - ERROR: I0917 09:21:39.982162 30516 net.cpp:110] Creating Layer relu2
17-09-2015 09:21:39 - ERROR: I0917 09:21:39.982167 30516 net.cpp:477] relu2 <- conv2
17-09-2015 09:21:39 - ERROR: I0917 09:21:39.982172 30516 net.cpp:419] relu2 -> conv2 (in-place)
17-09-2015 09:21:39 - ERROR: I0917 09:21:39.982180 30516 net.cpp:155] Setting up relu2
17-09-2015 09:21:39 - ERROR: I0917 09:21:39.982190 30516 net.cpp:163] Top shape: 256 48 25 25 (7680000)
17-09-2015 09:21:39 - ERROR: I0917 09:21:39.982194 30516 layer_factory.hpp:76] Creating layer pool2
17-09-2015 09:21:39 - ERROR: I0917 09:21:39.982202 30516 net.cpp:110] Creating Layer pool2
17-09-2015 09:21:39 - ERROR: I0917 09:21:39.982204 30516 net.cpp:477] pool2 <- conv2
17-09-2015 09:21:39 - ERROR: I0917 09:21:39.982259 30516 net.cpp:433] pool2 -> pool2
17-09-2015 09:21:39 - ERROR: I0917 09:21:39.982270 30516 net.cpp:155] Setting up pool2
17-09-2015 09:21:39 - ERROR: I0917 09:21:39.982276 30516 net.cpp:163] Top shape: 256 48 12 12 (1769472)
17-09-2015 09:21:39 - ERROR: I0917 09:21:39.982280 30516 layer_factory.hpp:76] Creating layer fc3
17-09-2015 09:21:39 - ERROR: I0917 09:21:39.982326 30516 net.cpp:110] Creating Layer fc3
17-09-2015 09:21:39 - ERROR: I0917 09:21:39.982345 30516 net.cpp:477] fc3 <- pool2
17-09-2015 09:21:39 - ERROR: I0917 09:21:39.982386 30516 net.cpp:433] fc3 -> fc3
17-09-2015 09:21:40 - ERROR: I0917 09:21:40.221349 30516 net.cpp:155] Setting up fc3
17-09-2015 09:21:40 - ERROR: I0917 09:21:40.221433 30516 net.cpp:163] Top shape: 256 1024 (262144)
17-09-2015 09:21:40 - ERROR: I0917 09:21:40.221447 30516 layer_factory.hpp:76] Creating layer relu3
17-09-2015 09:21:40 - ERROR: I0917 09:21:40.221454 30516 net.cpp:110] Creating Layer relu3
17-09-2015 09:21:40 - ERROR: I0917 09:21:40.221458 30516 net.cpp:477] relu3 <- fc3
17-09-2015 09:21:40 - ERROR: I0917 09:21:40.221464 30516 net.cpp:419] relu3 -> fc3 (in-place)
17-09-2015 09:21:40 - ERROR: I0917 09:21:40.221472 30516 net.cpp:155] Setting up relu3
17-09-2015 09:21:40 - ERROR: I0917 09:21:40.221477 30516 net.cpp:163] Top shape: 256 1024 (262144)
17-09-2015 09:21:40 - ERROR: I0917 09:21:40.221478 30516 layer_factory.hpp:76] Creating layer fc4
17-09-2015 09:21:40 - ERROR: I0917 09:21:40.221493 30516 net.cpp:110] Creating Layer fc4
17-09-2015 09:21:40 - ERROR: I0917 09:21:40.221496 30516 net.cpp:477] fc4 <- fc3
17-09-2015 09:21:40 - ERROR: I0917 09:21:40.221501 30516 net.cpp:433] fc4 -> fc4
17-09-2015 09:21:40 - ERROR: I0917 09:21:40.221652 30516 net.cpp:155] Setting up fc4
17-09-2015 09:21:40 - ERROR: I0917 09:21:40.221660 30516 net.cpp:163] Top shape: 256 2 (512)
17-09-2015 09:21:40 - ERROR: I0917 09:21:40.221667 30516 layer_factory.hpp:76] Creating layer prob
17-09-2015 09:21:40 - ERROR: I0917 09:21:40.221674 30516 net.cpp:110] Creating Layer prob
17-09-2015 09:21:40 - ERROR: I0917 09:21:40.221678 30516 net.cpp:477] prob <- fc4
17-09-2015 09:21:40 - ERROR: I0917 09:21:40.221685 30516 net.cpp:433] prob -> prob
17-09-2015 09:21:40 - ERROR: I0917 09:21:40.221703 30516 net.cpp:155] Setting up prob
17-09-2015 09:21:40 - ERROR: I0917 09:21:40.221709 30516 net.cpp:163] Top shape: 256 2 (512)
17-09-2015 09:21:40 - ERROR: I0917 09:21:40.221711 30516 net.cpp:240] prob does not need backward computation.
17-09-2015 09:21:40 - ERROR: I0917 09:21:40.221714 30516 net.cpp:240] fc4 does not need backward computation.
17-09-2015 09:21:40 - ERROR: I0917 09:21:40.221717 30516 net.cpp:240] relu3 does not need backward computation.
17-09-2015 09:21:40 - ERROR: I0917 09:21:40.221719 30516 net.cpp:240] fc3 does not need backward computation.
…
