…
2015-09-13 22:08:36 - ERROR: I0913 22:08:36.291736 29215 net.cpp:434] Input 0 -> data
2015-09-13 22:08:36 - ERROR: I0913 22:08:36.291765 29215 layer_factory.hpp:75] Creating layer conv1
2015-09-13 22:08:36 - ERROR: I0913 22:08:36.291776 29215 net.cpp:110] Creating Layer conv1
2015-09-13 22:08:36 - ERROR: I0913 22:08:36.291780 29215 net.cpp:476] conv1 <- data
2015-09-13 22:08:36 - ERROR: I0913 22:08:36.291787 29215 net.cpp:432] conv1 -> conv1
2015-09-13 22:08:36 - ERROR: I0913 22:08:36.292057 29215 net.cpp:155] Setting up conv1
2015-09-13 22:08:36 - ERROR: I0913 22:08:36.292069 29215 net.cpp:163] Top shape: 256 12 48 48 (7077888)
2015-09-13 22:08:36 - ERROR: I0913 22:08:36.292084 29215 layer_factory.hpp:75] Creating layer relu1
2015-09-13 22:08:36 - ERROR: I0913 22:08:36.292090 29215 net.cpp:110] Creating Layer relu1
2015-09-13 22:08:36 - ERROR: I0913 22:08:36.292093 29215 net.cpp:476] relu1 <- conv1
2015-09-13 22:08:36 - ERROR: I0913 22:08:36.292098 29215 net.cpp:419] relu1 -> conv1 (in-place)
2015-09-13 22:08:36 - ERROR: I0913 22:08:36.292105 29215 net.cpp:155] Setting up relu1
2015-09-13 22:08:36 - ERROR: I0913 22:08:36.292109 29215 net.cpp:163] Top shape: 256 12 48 48 (7077888)
2015-09-13 22:08:36 - ERROR: I0913 22:08:36.292111 29215 layer_factory.hpp:75] Creating layer pool1
2015-09-13 22:08:36 - ERROR: I0913 22:08:36.292115 29215 net.cpp:110] Creating Layer pool1
2015-09-13 22:08:36 - ERROR: I0913 22:08:36.292119 29215 net.cpp:476] pool1 <- conv1
2015-09-13 22:08:36 - ERROR: I0913 22:08:36.292122 29215 net.cpp:432] pool1 -> pool1
2015-09-13 22:08:36 - ERROR: I0913 22:08:36.292134 29215 net.cpp:155] Setting up pool1
2015-09-13 22:08:36 - ERROR: I0913 22:08:36.292139 29215 net.cpp:163] Top shape: 256 12 24 24 (1769472)
2015-09-13 22:08:36 - ERROR: I0913 22:08:36.292140 29215 layer_factory.hpp:75] Creating layer conv2
2015-09-13 22:08:36 - ERROR: I0913 22:08:36.292146 29215 net.cpp:110] Creating Layer conv2
2015-09-13 22:08:36 - ERROR: I0913 22:08:36.292148 29215 net.cpp:476] conv2 <- pool1
2015-09-13 22:08:36 - ERROR: I0913 22:08:36.292152 29215 net.cpp:432] conv2 -> conv2
2015-09-13 22:08:36 - ERROR: I0913 22:08:36.292284 29215 net.cpp:155] Setting up conv2
2015-09-13 22:08:36 - ERROR: I0913 22:08:36.292289 29215 net.cpp:163] Top shape: 256 48 25 25 (7680000)
2015-09-13 22:08:36 - ERROR: I0913 22:08:36.292294 29215 layer_factory.hpp:75] Creating layer relu2
2015-09-13 22:08:36 - ERROR: I0913 22:08:36.292300 29215 net.cpp:110] Creating Layer relu2
2015-09-13 22:08:36 - ERROR: I0913 22:08:36.292302 29215 net.cpp:476] relu2 <- conv2
2015-09-13 22:08:36 - ERROR: I0913 22:08:36.292306 29215 net.cpp:419] relu2 -> conv2 (in-place)
2015-09-13 22:08:36 - ERROR: I0913 22:08:36.292310 29215 net.cpp:155] Setting up relu2
2015-09-13 22:08:36 - ERROR: I0913 22:08:36.292315 29215 net.cpp:163] Top shape: 256 48 25 25 (7680000)
2015-09-13 22:08:36 - ERROR: I0913 22:08:36.292316 29215 layer_factory.hpp:75] Creating layer pool2
2015-09-13 22:08:36 - ERROR: I0913 22:08:36.292320 29215 net.cpp:110] Creating Layer pool2
2015-09-13 22:08:36 - ERROR: I0913 22:08:36.292322 29215 net.cpp:476] pool2 <- conv2
2015-09-13 22:08:36 - ERROR: I0913 22:08:36.292326 29215 net.cpp:432] pool2 -> pool2
2015-09-13 22:08:36 - ERROR: I0913 22:08:36.292333 29215 net.cpp:155] Setting up pool2
2015-09-13 22:08:36 - ERROR: I0913 22:08:36.292337 29215 net.cpp:163] Top shape: 256 48 12 12 (1769472)
2015-09-13 22:08:36 - ERROR: I0913 22:08:36.292340 29215 layer_factory.hpp:75] Creating layer fc3
2015-09-13 22:08:36 - ERROR: I0913 22:08:36.292345 29215 net.cpp:110] Creating Layer fc3
2015-09-13 22:08:36 - ERROR: I0913 22:08:36.292347 29215 net.cpp:476] fc3 <- pool2
2015-09-13 22:08:36 - ERROR: I0913 22:08:36.292352 29215 net.cpp:432] fc3 -> fc3
2015-09-13 22:08:36 - ERROR: I0913 22:08:36.374403 29215 net.cpp:155] Setting up fc3
2015-09-13 22:08:36 - ERROR: I0913 22:08:36.374430 29215 net.cpp:163] Top shape: 256 1024 (262144)
2015-09-13 22:08:36 - ERROR: I0913 22:08:36.374444 29215 layer_factory.hpp:75] Creating layer relu3
2015-09-13 22:08:36 - ERROR: I0913 22:08:36.374452 29215 net.cpp:110] Creating Layer relu3
2015-09-13 22:08:36 - ERROR: I0913 22:08:36.374455 29215 net.cpp:476] relu3 <- fc3
2015-09-13 22:08:36 - ERROR: I0913 22:08:36.374464 29215 net.cpp:419] relu3 -> fc3 (in-place)
2015-09-13 22:08:36 - ERROR: I0913 22:08:36.374472 29215 net.cpp:155] Setting up relu3
2015-09-13 22:08:36 - ERROR: I0913 22:08:36.374475 29215 net.cpp:163] Top shape: 256 1024 (262144)
2015-09-13 22:08:36 - ERROR: I0913 22:08:36.374478 29215 layer_factory.hpp:75] Creating layer fc4
2015-09-13 22:08:36 - ERROR: I0913 22:08:36.374486 29215 net.cpp:110] Creating Layer fc4
2015-09-13 22:08:36 - ERROR: I0913 22:08:36.374490 29215 net.cpp:476] fc4 <- fc3
2015-09-13 22:08:36 - ERROR: I0913 22:08:36.374495 29215 net.cpp:432] fc4 -> fc4
2015-09-13 22:08:36 - ERROR: I0913 22:08:36.374541 29215 net.cpp:155] Setting up fc4
2015-09-13 22:08:36 - ERROR: I0913 22:08:36.374547 29215 net.cpp:163] Top shape: 256 2 (512)
2015-09-13 22:08:36 - ERROR: I0913 22:08:36.374552 29215 layer_factory.hpp:75] Creating layer prob
2015-09-13 22:08:36 - ERROR: I0913 22:08:36.374557 29215 net.cpp:110] Creating Layer prob
2015-09-13 22:08:36 - ERROR: I0913 22:08:36.374559 29215 net.cpp:476] prob <- fc4
2015-09-13 22:08:36 - ERROR: I0913 22:08:36.374563 29215 net.cpp:432] prob -> prob
2015-09-13 22:08:36 - ERROR: I0913 22:08:36.374569 29215 net.cpp:155] Setting up prob
2015-09-13 22:08:36 - ERROR: I0913 22:08:36.374583 29215 net.cpp:163] Top shape: 256 2 (512)
2015-09-13 22:08:36 - ERROR: I0913 22:08:36.374585 29215 net.cpp:240] prob does not need backward computation.
2015-09-13 22:08:36 - ERROR: I0913 22:08:36.374588 29215 net.cpp:240] fc4 does not need backward computation.
2015-09-13 22:08:36 - ERROR: I0913 22:08:36.374591 29215 net.cpp:240] relu3 does not need backward computation.
2015-09-13 22:08:36 - ERROR: I0913 22:08:36.374593 29215 net.cpp:240] fc3 does not need backward computation.
…
