…
2015-09-04 22:59:07 - ERROR: I0904 22:59:07.184427  4813 net.cpp:434] Input 0 -> data
2015-09-04 22:59:07 - ERROR: I0904 22:59:07.184461  4813 layer_factory.hpp:75] Creating layer conv1
2015-09-04 22:59:07 - ERROR: I0904 22:59:07.184475  4813 net.cpp:110] Creating Layer conv1
2015-09-04 22:59:07 - ERROR: I0904 22:59:07.184481  4813 net.cpp:476] conv1 <- data
2015-09-04 22:59:07 - ERROR: I0904 22:59:07.184490  4813 net.cpp:432] conv1 -> conv1
2015-09-04 22:59:07 - ERROR: I0904 22:59:07.184892  4813 net.cpp:155] Setting up conv1
2015-09-04 22:59:07 - ERROR: I0904 22:59:07.184909  4813 net.cpp:163] Top shape: 256 12 48 48 (7077888)
2015-09-04 22:59:07 - ERROR: I0904 22:59:07.184929  4813 layer_factory.hpp:75] Creating layer relu1
2015-09-04 22:59:07 - ERROR: I0904 22:59:07.184938  4813 net.cpp:110] Creating Layer relu1
2015-09-04 22:59:07 - ERROR: I0904 22:59:07.184942  4813 net.cpp:476] relu1 <- conv1
2015-09-04 22:59:07 - ERROR: I0904 22:59:07.184948  4813 net.cpp:419] relu1 -> conv1 (in-place)
2015-09-04 22:59:07 - ERROR: I0904 22:59:07.184959  4813 net.cpp:155] Setting up relu1
2015-09-04 22:59:07 - ERROR: I0904 22:59:07.184964  4813 net.cpp:163] Top shape: 256 12 48 48 (7077888)
2015-09-04 22:59:07 - ERROR: I0904 22:59:07.184968  4813 layer_factory.hpp:75] Creating layer pool1
2015-09-04 22:59:07 - ERROR: I0904 22:59:07.184975  4813 net.cpp:110] Creating Layer pool1
2015-09-04 22:59:07 - ERROR: I0904 22:59:07.184979  4813 net.cpp:476] pool1 <- conv1
2015-09-04 22:59:07 - ERROR: I0904 22:59:07.184984  4813 net.cpp:432] pool1 -> pool1
2015-09-04 22:59:07 - ERROR: I0904 22:59:07.185000  4813 net.cpp:155] Setting up pool1
2015-09-04 22:59:07 - ERROR: I0904 22:59:07.185006  4813 net.cpp:163] Top shape: 256 12 24 24 (1769472)
2015-09-04 22:59:07 - ERROR: I0904 22:59:07.185010  4813 layer_factory.hpp:75] Creating layer conv2
2015-09-04 22:59:07 - ERROR: I0904 22:59:07.185019  4813 net.cpp:110] Creating Layer conv2
2015-09-04 22:59:07 - ERROR: I0904 22:59:07.185022  4813 net.cpp:476] conv2 <- pool1
2015-09-04 22:59:07 - ERROR: I0904 22:59:07.185029  4813 net.cpp:432] conv2 -> conv2
2015-09-04 22:59:07 - ERROR: I0904 22:59:07.185206  4813 net.cpp:155] Setting up conv2
2015-09-04 22:59:07 - ERROR: I0904 22:59:07.185215  4813 net.cpp:163] Top shape: 256 48 25 25 (7680000)
2015-09-04 22:59:07 - ERROR: I0904 22:59:07.185225  4813 layer_factory.hpp:75] Creating layer relu2
2015-09-04 22:59:07 - ERROR: I0904 22:59:07.185231  4813 net.cpp:110] Creating Layer relu2
2015-09-04 22:59:07 - ERROR: I0904 22:59:07.185235  4813 net.cpp:476] relu2 <- conv2
2015-09-04 22:59:07 - ERROR: I0904 22:59:07.185240  4813 net.cpp:419] relu2 -> conv2 (in-place)
2015-09-04 22:59:07 - ERROR: I0904 22:59:07.185246  4813 net.cpp:155] Setting up relu2
2015-09-04 22:59:07 - ERROR: I0904 22:59:07.185251  4813 net.cpp:163] Top shape: 256 48 25 25 (7680000)
2015-09-04 22:59:07 - ERROR: I0904 22:59:07.185255  4813 layer_factory.hpp:75] Creating layer pool2
2015-09-04 22:59:07 - ERROR: I0904 22:59:07.185261  4813 net.cpp:110] Creating Layer pool2
2015-09-04 22:59:07 - ERROR: I0904 22:59:07.185266  4813 net.cpp:476] pool2 <- conv2
2015-09-04 22:59:07 - ERROR: I0904 22:59:07.185271  4813 net.cpp:432] pool2 -> pool2
2015-09-04 22:59:07 - ERROR: I0904 22:59:07.185279  4813 net.cpp:155] Setting up pool2
2015-09-04 22:59:07 - ERROR: I0904 22:59:07.185294  4813 net.cpp:163] Top shape: 256 48 12 12 (1769472)
2015-09-04 22:59:07 - ERROR: I0904 22:59:07.185299  4813 layer_factory.hpp:75] Creating layer fc3
2015-09-04 22:59:07 - ERROR: I0904 22:59:07.185309  4813 net.cpp:110] Creating Layer fc3
2015-09-04 22:59:07 - ERROR: I0904 22:59:07.185314  4813 net.cpp:476] fc3 <- pool2
2015-09-04 22:59:07 - ERROR: I0904 22:59:07.185320  4813 net.cpp:432] fc3 -> fc3
2015-09-04 22:59:07 - ERROR: I0904 22:59:07.284577  4813 net.cpp:155] Setting up fc3
2015-09-04 22:59:07 - ERROR: I0904 22:59:07.284605  4813 net.cpp:163] Top shape: 256 1024 (262144)
2015-09-04 22:59:07 - ERROR: I0904 22:59:07.284620  4813 layer_factory.hpp:75] Creating layer relu3
2015-09-04 22:59:07 - ERROR: I0904 22:59:07.284632  4813 net.cpp:110] Creating Layer relu3
2015-09-04 22:59:07 - ERROR: I0904 22:59:07.284636  4813 net.cpp:476] relu3 <- fc3
2015-09-04 22:59:07 - ERROR: I0904 22:59:07.284643  4813 net.cpp:419] relu3 -> fc3 (in-place)
2015-09-04 22:59:07 - ERROR: I0904 22:59:07.284652  4813 net.cpp:155] Setting up relu3
2015-09-04 22:59:07 - ERROR: I0904 22:59:07.284657  4813 net.cpp:163] Top shape: 256 1024 (262144)
2015-09-04 22:59:07 - ERROR: I0904 22:59:07.284658  4813 layer_factory.hpp:75] Creating layer fc4
2015-09-04 22:59:07 - ERROR: I0904 22:59:07.284667  4813 net.cpp:110] Creating Layer fc4
2015-09-04 22:59:07 - ERROR: I0904 22:59:07.284670  4813 net.cpp:476] fc4 <- fc3
2015-09-04 22:59:07 - ERROR: I0904 22:59:07.284675  4813 net.cpp:432] fc4 -> fc4
2015-09-04 22:59:07 - ERROR: I0904 22:59:07.284723  4813 net.cpp:155] Setting up fc4
2015-09-04 22:59:07 - ERROR: I0904 22:59:07.284728  4813 net.cpp:163] Top shape: 256 2 (512)
2015-09-04 22:59:07 - ERROR: I0904 22:59:07.284732  4813 layer_factory.hpp:75] Creating layer prob
2015-09-04 22:59:07 - ERROR: I0904 22:59:07.284737  4813 net.cpp:110] Creating Layer prob
2015-09-04 22:59:07 - ERROR: I0904 22:59:07.284739  4813 net.cpp:476] prob <- fc4
2015-09-04 22:59:07 - ERROR: I0904 22:59:07.284744  4813 net.cpp:432] prob -> prob
2015-09-04 22:59:07 - ERROR: I0904 22:59:07.284750  4813 net.cpp:155] Setting up prob
2015-09-04 22:59:07 - ERROR: I0904 22:59:07.284754  4813 net.cpp:163] Top shape: 256 2 (512)
2015-09-04 22:59:07 - ERROR: I0904 22:59:07.284757  4813 net.cpp:240] prob does not need backward computation.
2015-09-04 22:59:07 - ERROR: I0904 22:59:07.284760  4813 net.cpp:240] fc4 does not need backward computation.
2015-09-04 22:59:07 - ERROR: I0904 22:59:07.284764  4813 net.cpp:240] relu3 does not need backward computation.
2015-09-04 22:59:07 - ERROR: I0904 22:59:07.284765  4813 net.cpp:240] fc3 does not need backward computation.
…
