…
17-09-2015 09:21:30 - ERROR: I0917 09:21:30.975332 46359 net.cpp:435] Input 0 -> data
17-09-2015 09:21:30 - ERROR: I0917 09:21:30.975680 46359 layer_factory.hpp:76] Creating layer conv1
17-09-2015 09:21:30 - ERROR: I0917 09:21:30.975795 46359 net.cpp:110] Creating Layer conv1
17-09-2015 09:21:30 - ERROR: I0917 09:21:30.975811 46359 net.cpp:477] conv1 <- data
17-09-2015 09:21:30 - ERROR: I0917 09:21:30.975834 46359 net.cpp:433] conv1 -> conv1
17-09-2015 09:21:30 - ERROR: I0917 09:21:30.977684 46359 net.cpp:155] Setting up conv1
17-09-2015 09:21:30 - ERROR: I0917 09:21:30.977807 46359 net.cpp:163] Top shape: 256 12 48 48 (7077888)
17-09-2015 09:21:30 - ERROR: I0917 09:21:30.977980 46359 layer_factory.hpp:76] Creating layer relu1
17-09-2015 09:21:30 - ERROR: I0917 09:21:30.978000 46359 net.cpp:110] Creating Layer relu1
17-09-2015 09:21:30 - ERROR: I0917 09:21:30.978003 46359 net.cpp:477] relu1 <- conv1
17-09-2015 09:21:30 - ERROR: I0917 09:21:30.978046 46359 net.cpp:419] relu1 -> conv1 (in-place)
17-09-2015 09:21:30 - ERROR: I0917 09:21:30.978101 46359 net.cpp:155] Setting up relu1
17-09-2015 09:21:30 - ERROR: I0917 09:21:30.978109 46359 net.cpp:163] Top shape: 256 12 48 48 (7077888)
17-09-2015 09:21:30 - ERROR: I0917 09:21:30.978112 46359 layer_factory.hpp:76] Creating layer pool1
17-09-2015 09:21:30 - ERROR: I0917 09:21:30.978123 46359 net.cpp:110] Creating Layer pool1
17-09-2015 09:21:30 - ERROR: I0917 09:21:30.978127 46359 net.cpp:477] pool1 <- conv1
17-09-2015 09:21:30 - ERROR: I0917 09:21:30.978142 46359 net.cpp:433] pool1 -> pool1
17-09-2015 09:21:30 - ERROR: I0917 09:21:30.978250 46359 net.cpp:155] Setting up pool1
17-09-2015 09:21:30 - ERROR: I0917 09:21:30.978272 46359 net.cpp:163] Top shape: 256 12 24 24 (1769472)
17-09-2015 09:21:30 - ERROR: I0917 09:21:30.978319 46359 layer_factory.hpp:76] Creating layer conv2
17-09-2015 09:21:30 - ERROR: I0917 09:21:30.978360 46359 net.cpp:110] Creating Layer conv2
17-09-2015 09:21:30 - ERROR: I0917 09:21:30.978369 46359 net.cpp:477] conv2 <- pool1
17-09-2015 09:21:30 - ERROR: I0917 09:21:30.978377 46359 net.cpp:433] conv2 -> conv2
17-09-2015 09:21:30 - ERROR: I0917 09:21:30.979225 46359 net.cpp:155] Setting up conv2
17-09-2015 09:21:30 - ERROR: I0917 09:21:30.979233 46359 net.cpp:163] Top shape: 256 48 25 25 (7680000)
17-09-2015 09:21:30 - ERROR: I0917 09:21:30.979251 46359 layer_factory.hpp:76] Creating layer relu2
17-09-2015 09:21:30 - ERROR: I0917 09:21:30.979303 46359 net.cpp:110] Creating Layer relu2
17-09-2015 09:21:30 - ERROR: I0917 09:21:30.979341 46359 net.cpp:477] relu2 <- conv2
17-09-2015 09:21:30 - ERROR: I0917 09:21:30.979380 46359 net.cpp:419] relu2 -> conv2 (in-place)
17-09-2015 09:21:30 - ERROR: I0917 09:21:30.979388 46359 net.cpp:155] Setting up relu2
17-09-2015 09:21:30 - ERROR: I0917 09:21:30.979393 46359 net.cpp:163] Top shape: 256 48 25 25 (7680000)
17-09-2015 09:21:30 - ERROR: I0917 09:21:30.979396 46359 layer_factory.hpp:76] Creating layer pool2
17-09-2015 09:21:30 - ERROR: I0917 09:21:30.979403 46359 net.cpp:110] Creating Layer pool2
17-09-2015 09:21:30 - ERROR: I0917 09:21:30.979405 46359 net.cpp:477] pool2 <- conv2
17-09-2015 09:21:30 - ERROR: I0917 09:21:30.979418 46359 net.cpp:433] pool2 -> pool2
17-09-2015 09:21:30 - ERROR: I0917 09:21:30.979435 46359 net.cpp:155] Setting up pool2
17-09-2015 09:21:30 - ERROR: I0917 09:21:30.979477 46359 net.cpp:163] Top shape: 256 48 12 12 (1769472)
17-09-2015 09:21:30 - ERROR: I0917 09:21:30.979519 46359 layer_factory.hpp:76] Creating layer fc3
17-09-2015 09:21:30 - ERROR: I0917 09:21:30.979532 46359 net.cpp:110] Creating Layer fc3
17-09-2015 09:21:30 - ERROR: I0917 09:21:30.979537 46359 net.cpp:477] fc3 <- pool2
17-09-2015 09:21:30 - ERROR: I0917 09:21:30.979550 46359 net.cpp:433] fc3 -> fc3
17-09-2015 09:21:31 - ERROR: I0917 09:21:31.221516 46359 net.cpp:155] Setting up fc3
17-09-2015 09:21:31 - ERROR: I0917 09:21:31.221601 46359 net.cpp:163] Top shape: 256 1024 (262144)
17-09-2015 09:21:31 - ERROR: I0917 09:21:31.221616 46359 layer_factory.hpp:76] Creating layer relu3
17-09-2015 09:21:31 - ERROR: I0917 09:21:31.221622 46359 net.cpp:110] Creating Layer relu3
17-09-2015 09:21:31 - ERROR: I0917 09:21:31.221626 46359 net.cpp:477] relu3 <- fc3
17-09-2015 09:21:31 - ERROR: I0917 09:21:31.221632 46359 net.cpp:419] relu3 -> fc3 (in-place)
17-09-2015 09:21:31 - ERROR: I0917 09:21:31.221637 46359 net.cpp:155] Setting up relu3
17-09-2015 09:21:31 - ERROR: I0917 09:21:31.221642 46359 net.cpp:163] Top shape: 256 1024 (262144)
17-09-2015 09:21:31 - ERROR: I0917 09:21:31.221644 46359 layer_factory.hpp:76] Creating layer fc4
17-09-2015 09:21:31 - ERROR: I0917 09:21:31.221657 46359 net.cpp:110] Creating Layer fc4
17-09-2015 09:21:31 - ERROR: I0917 09:21:31.221659 46359 net.cpp:477] fc4 <- fc3
17-09-2015 09:21:31 - ERROR: I0917 09:21:31.221665 46359 net.cpp:433] fc4 -> fc4
17-09-2015 09:21:31 - ERROR: I0917 09:21:31.221933 46359 net.cpp:155] Setting up fc4
17-09-2015 09:21:31 - ERROR: I0917 09:21:31.221943 46359 net.cpp:163] Top shape: 256 2 (512)
17-09-2015 09:21:31 - ERROR: I0917 09:21:31.221951 46359 layer_factory.hpp:76] Creating layer prob
17-09-2015 09:21:31 - ERROR: I0917 09:21:31.221957 46359 net.cpp:110] Creating Layer prob
17-09-2015 09:21:31 - ERROR: I0917 09:21:31.221961 46359 net.cpp:477] prob <- fc4
17-09-2015 09:21:31 - ERROR: I0917 09:21:31.221968 46359 net.cpp:433] prob -> prob
17-09-2015 09:21:31 - ERROR: I0917 09:21:31.221987 46359 net.cpp:155] Setting up prob
17-09-2015 09:21:31 - ERROR: I0917 09:21:31.221994 46359 net.cpp:163] Top shape: 256 2 (512)
17-09-2015 09:21:31 - ERROR: I0917 09:21:31.222000 46359 net.cpp:240] prob does not need backward computation.
17-09-2015 09:21:31 - ERROR: I0917 09:21:31.222046 46359 net.cpp:240] fc4 does not need backward computation.
17-09-2015 09:21:31 - ERROR: I0917 09:21:31.222053 46359 net.cpp:240] relu3 does not need backward computation.
17-09-2015 09:21:31 - ERROR: I0917 09:21:31.222055 46359 net.cpp:240] fc3 does not need backward computation.
…
