…
21-09-2015 07:57:37 - ERROR: I0921 07:57:37.541323 19770 net.cpp:435] Input 0 -> data
21-09-2015 07:57:37 - ERROR: I0921 07:57:37.541406 19770 layer_factory.hpp:76] Creating layer conv1
21-09-2015 07:57:37 - ERROR: I0921 07:57:37.541430 19770 net.cpp:110] Creating Layer conv1
21-09-2015 07:57:37 - ERROR: I0921 07:57:37.541438 19770 net.cpp:477] conv1 <- data
21-09-2015 07:57:37 - ERROR: I0921 07:57:37.541448 19770 net.cpp:433] conv1 -> conv1
21-09-2015 07:57:37 - ERROR: I0921 07:57:37.542083 19770 net.cpp:155] Setting up conv1
21-09-2015 07:57:37 - ERROR: I0921 07:57:37.542119 19770 net.cpp:163] Top shape: 256 12 48 48 (7077888)
21-09-2015 07:57:37 - ERROR: I0921 07:57:37.542153 19770 layer_factory.hpp:76] Creating layer relu1
21-09-2015 07:57:37 - ERROR: I0921 07:57:37.542162 19770 net.cpp:110] Creating Layer relu1
21-09-2015 07:57:37 - ERROR: I0921 07:57:37.542165 19770 net.cpp:477] relu1 <- conv1
21-09-2015 07:57:37 - ERROR: I0921 07:57:37.542170 19770 net.cpp:419] relu1 -> conv1 (in-place)
21-09-2015 07:57:37 - ERROR: I0921 07:57:37.542179 19770 net.cpp:155] Setting up relu1
21-09-2015 07:57:37 - ERROR: I0921 07:57:37.542183 19770 net.cpp:163] Top shape: 256 12 48 48 (7077888)
21-09-2015 07:57:37 - ERROR: I0921 07:57:37.542186 19770 layer_factory.hpp:76] Creating layer pool1
21-09-2015 07:57:37 - ERROR: I0921 07:57:37.542191 19770 net.cpp:110] Creating Layer pool1
21-09-2015 07:57:37 - ERROR: I0921 07:57:37.542193 19770 net.cpp:477] pool1 <- conv1
21-09-2015 07:57:37 - ERROR: I0921 07:57:37.542197 19770 net.cpp:433] pool1 -> pool1
21-09-2015 07:57:37 - ERROR: I0921 07:57:37.542220 19770 net.cpp:155] Setting up pool1
21-09-2015 07:57:37 - ERROR: I0921 07:57:37.542230 19770 net.cpp:163] Top shape: 256 12 24 24 (1769472)
21-09-2015 07:57:37 - ERROR: I0921 07:57:37.542233 19770 layer_factory.hpp:76] Creating layer conv2
21-09-2015 07:57:37 - ERROR: I0921 07:57:37.542238 19770 net.cpp:110] Creating Layer conv2
21-09-2015 07:57:37 - ERROR: I0921 07:57:37.542242 19770 net.cpp:477] conv2 <- pool1
21-09-2015 07:57:37 - ERROR: I0921 07:57:37.542260 19770 net.cpp:433] conv2 -> conv2
21-09-2015 07:57:37 - ERROR: I0921 07:57:37.542587 19770 net.cpp:155] Setting up conv2
21-09-2015 07:57:37 - ERROR: I0921 07:57:37.542594 19770 net.cpp:163] Top shape: 256 48 25 25 (7680000)
21-09-2015 07:57:37 - ERROR: I0921 07:57:37.542601 19770 layer_factory.hpp:76] Creating layer relu2
21-09-2015 07:57:37 - ERROR: I0921 07:57:37.542606 19770 net.cpp:110] Creating Layer relu2
21-09-2015 07:57:37 - ERROR: I0921 07:57:37.542610 19770 net.cpp:477] relu2 <- conv2
21-09-2015 07:57:37 - ERROR: I0921 07:57:37.542614 19770 net.cpp:419] relu2 -> conv2 (in-place)
21-09-2015 07:57:37 - ERROR: I0921 07:57:37.542619 19770 net.cpp:155] Setting up relu2
21-09-2015 07:57:37 - ERROR: I0921 07:57:37.542623 19770 net.cpp:163] Top shape: 256 48 25 25 (7680000)
21-09-2015 07:57:37 - ERROR: I0921 07:57:37.542625 19770 layer_factory.hpp:76] Creating layer pool2
21-09-2015 07:57:37 - ERROR: I0921 07:57:37.542629 19770 net.cpp:110] Creating Layer pool2
21-09-2015 07:57:37 - ERROR: I0921 07:57:37.542631 19770 net.cpp:477] pool2 <- conv2
21-09-2015 07:57:37 - ERROR: I0921 07:57:37.542635 19770 net.cpp:433] pool2 -> pool2
21-09-2015 07:57:37 - ERROR: I0921 07:57:37.542641 19770 net.cpp:155] Setting up pool2
21-09-2015 07:57:37 - ERROR: I0921 07:57:37.542645 19770 net.cpp:163] Top shape: 256 48 12 12 (1769472)
21-09-2015 07:57:37 - ERROR: I0921 07:57:37.542649 19770 layer_factory.hpp:76] Creating layer fc3
21-09-2015 07:57:37 - ERROR: I0921 07:57:37.542654 19770 net.cpp:110] Creating Layer fc3
21-09-2015 07:57:37 - ERROR: I0921 07:57:37.542657 19770 net.cpp:477] fc3 <- pool2
21-09-2015 07:57:37 - ERROR: I0921 07:57:37.542661 19770 net.cpp:433] fc3 -> fc3
21-09-2015 07:57:37 - ERROR: I0921 07:57:37.785709 19770 net.cpp:155] Setting up fc3
21-09-2015 07:57:37 - ERROR: I0921 07:57:37.785790 19770 net.cpp:163] Top shape: 256 1024 (262144)
21-09-2015 07:57:37 - ERROR: I0921 07:57:37.785806 19770 layer_factory.hpp:76] Creating layer relu3
21-09-2015 07:57:37 - ERROR: I0921 07:57:37.785815 19770 net.cpp:110] Creating Layer relu3
21-09-2015 07:57:37 - ERROR: I0921 07:57:37.785820 19770 net.cpp:477] relu3 <- fc3
21-09-2015 07:57:37 - ERROR: I0921 07:57:37.785825 19770 net.cpp:419] relu3 -> fc3 (in-place)
21-09-2015 07:57:37 - ERROR: I0921 07:57:37.785835 19770 net.cpp:155] Setting up relu3
21-09-2015 07:57:37 - ERROR: I0921 07:57:37.785838 19770 net.cpp:163] Top shape: 256 1024 (262144)
21-09-2015 07:57:37 - ERROR: I0921 07:57:37.785843 19770 layer_factory.hpp:76] Creating layer fc4
21-09-2015 07:57:37 - ERROR: I0921 07:57:37.785851 19770 net.cpp:110] Creating Layer fc4
21-09-2015 07:57:37 - ERROR: I0921 07:57:37.785853 19770 net.cpp:477] fc4 <- fc3
21-09-2015 07:57:37 - ERROR: I0921 07:57:37.785859 19770 net.cpp:433] fc4 -> fc4
21-09-2015 07:57:37 - ERROR: I0921 07:57:37.786002 19770 net.cpp:155] Setting up fc4
21-09-2015 07:57:37 - ERROR: I0921 07:57:37.786010 19770 net.cpp:163] Top shape: 256 2 (512)
21-09-2015 07:57:37 - ERROR: I0921 07:57:37.786015 19770 layer_factory.hpp:76] Creating layer prob
21-09-2015 07:57:37 - ERROR: I0921 07:57:37.786022 19770 net.cpp:110] Creating Layer prob
21-09-2015 07:57:37 - ERROR: I0921 07:57:37.786025 19770 net.cpp:477] prob <- fc4
21-09-2015 07:57:37 - ERROR: I0921 07:57:37.786029 19770 net.cpp:433] prob -> prob
21-09-2015 07:57:37 - ERROR: I0921 07:57:37.786041 19770 net.cpp:155] Setting up prob
21-09-2015 07:57:37 - ERROR: I0921 07:57:37.786044 19770 net.cpp:163] Top shape: 256 2 (512)
21-09-2015 07:57:37 - ERROR: I0921 07:57:37.786047 19770 net.cpp:240] prob does not need backward computation.
21-09-2015 07:57:37 - ERROR: I0921 07:57:37.786051 19770 net.cpp:240] fc4 does not need backward computation.
21-09-2015 07:57:37 - ERROR: I0921 07:57:37.786064 19770 net.cpp:240] relu3 does not need backward computation.
21-09-2015 07:57:37 - ERROR: I0921 07:57:37.786067 19770 net.cpp:240] fc3 does not need backward computation.
…
