…
2015-09-17 21:16:15 - ERROR: I0917 21:16:15.317984 23344 net.cpp:434] Input 0 -> data
2015-09-17 21:16:15 - ERROR: I0917 21:16:15.318020 23344 layer_factory.hpp:75] Creating layer conv1
2015-09-17 21:16:15 - ERROR: I0917 21:16:15.318037 23344 net.cpp:110] Creating Layer conv1
2015-09-17 21:16:15 - ERROR: I0917 21:16:15.318043 23344 net.cpp:476] conv1 <- data
2015-09-17 21:16:15 - ERROR: I0917 21:16:15.318053 23344 net.cpp:432] conv1 -> conv1
2015-09-17 21:16:15 - ERROR: I0917 21:16:15.318464 23344 net.cpp:155] Setting up conv1
2015-09-17 21:16:15 - ERROR: I0917 21:16:15.318485 23344 net.cpp:163] Top shape: 256 12 48 48 (7077888)
2015-09-17 21:16:15 - ERROR: I0917 21:16:15.318506 23344 layer_factory.hpp:75] Creating layer relu1
2015-09-17 21:16:15 - ERROR: I0917 21:16:15.318516 23344 net.cpp:110] Creating Layer relu1
2015-09-17 21:16:15 - ERROR: I0917 21:16:15.318521 23344 net.cpp:476] relu1 <- conv1
2015-09-17 21:16:15 - ERROR: I0917 21:16:15.318528 23344 net.cpp:419] relu1 -> conv1 (in-place)
2015-09-17 21:16:15 - ERROR: I0917 21:16:15.318542 23344 net.cpp:155] Setting up relu1
2015-09-17 21:16:15 - ERROR: I0917 21:16:15.318550 23344 net.cpp:163] Top shape: 256 12 48 48 (7077888)
2015-09-17 21:16:15 - ERROR: I0917 21:16:15.318555 23344 layer_factory.hpp:75] Creating layer pool1
2015-09-17 21:16:15 - ERROR: I0917 21:16:15.318563 23344 net.cpp:110] Creating Layer pool1
2015-09-17 21:16:15 - ERROR: I0917 21:16:15.318569 23344 net.cpp:476] pool1 <- conv1
2015-09-17 21:16:15 - ERROR: I0917 21:16:15.318577 23344 net.cpp:432] pool1 -> pool1
2015-09-17 21:16:15 - ERROR: I0917 21:16:15.318596 23344 net.cpp:155] Setting up pool1
2015-09-17 21:16:15 - ERROR: I0917 21:16:15.318605 23344 net.cpp:163] Top shape: 256 12 24 24 (1769472)
2015-09-17 21:16:15 - ERROR: I0917 21:16:15.318610 23344 layer_factory.hpp:75] Creating layer conv2
2015-09-17 21:16:15 - ERROR: I0917 21:16:15.318619 23344 net.cpp:110] Creating Layer conv2
2015-09-17 21:16:15 - ERROR: I0917 21:16:15.318624 23344 net.cpp:476] conv2 <- pool1
2015-09-17 21:16:15 - ERROR: I0917 21:16:15.318632 23344 net.cpp:432] conv2 -> conv2
2015-09-17 21:16:15 - ERROR: I0917 21:16:15.318814 23344 net.cpp:155] Setting up conv2
2015-09-17 21:16:15 - ERROR: I0917 21:16:15.318825 23344 net.cpp:163] Top shape: 256 48 25 25 (7680000)
2015-09-17 21:16:15 - ERROR: I0917 21:16:15.318836 23344 layer_factory.hpp:75] Creating layer relu2
2015-09-17 21:16:15 - ERROR: I0917 21:16:15.318845 23344 net.cpp:110] Creating Layer relu2
2015-09-17 21:16:15 - ERROR: I0917 21:16:15.318850 23344 net.cpp:476] relu2 <- conv2
2015-09-17 21:16:15 - ERROR: I0917 21:16:15.318857 23344 net.cpp:419] relu2 -> conv2 (in-place)
2015-09-17 21:16:15 - ERROR: I0917 21:16:15.318866 23344 net.cpp:155] Setting up relu2
2015-09-17 21:16:15 - ERROR: I0917 21:16:15.318871 23344 net.cpp:163] Top shape: 256 48 25 25 (7680000)
2015-09-17 21:16:15 - ERROR: I0917 21:16:15.318876 23344 layer_factory.hpp:75] Creating layer pool2
2015-09-17 21:16:15 - ERROR: I0917 21:16:15.318883 23344 net.cpp:110] Creating Layer pool2
2015-09-17 21:16:15 - ERROR: I0917 21:16:15.318888 23344 net.cpp:476] pool2 <- conv2
2015-09-17 21:16:15 - ERROR: I0917 21:16:15.318895 23344 net.cpp:432] pool2 -> pool2
2015-09-17 21:16:15 - ERROR: I0917 21:16:15.318907 23344 net.cpp:155] Setting up pool2
2015-09-17 21:16:15 - ERROR: I0917 21:16:15.318914 23344 net.cpp:163] Top shape: 256 48 12 12 (1769472)
2015-09-17 21:16:15 - ERROR: I0917 21:16:15.318919 23344 layer_factory.hpp:75] Creating layer fc3
2015-09-17 21:16:15 - ERROR: I0917 21:16:15.318928 23344 net.cpp:110] Creating Layer fc3
2015-09-17 21:16:15 - ERROR: I0917 21:16:15.318933 23344 net.cpp:476] fc3 <- pool2
2015-09-17 21:16:15 - ERROR: I0917 21:16:15.318941 23344 net.cpp:432] fc3 -> fc3
2015-09-17 21:16:15 - ERROR: I0917 21:16:15.444653 23344 net.cpp:155] Setting up fc3
2015-09-17 21:16:15 - ERROR: I0917 21:16:15.444686 23344 net.cpp:163] Top shape: 256 1024 (262144)
2015-09-17 21:16:15 - ERROR: I0917 21:16:15.444706 23344 layer_factory.hpp:75] Creating layer relu3
2015-09-17 21:16:15 - ERROR: I0917 21:16:15.444720 23344 net.cpp:110] Creating Layer relu3
2015-09-17 21:16:15 - ERROR: I0917 21:16:15.444726 23344 net.cpp:476] relu3 <- fc3
2015-09-17 21:16:15 - ERROR: I0917 21:16:15.444736 23344 net.cpp:419] relu3 -> fc3 (in-place)
2015-09-17 21:16:15 - ERROR: I0917 21:16:15.444746 23344 net.cpp:155] Setting up relu3
2015-09-17 21:16:15 - ERROR: I0917 21:16:15.444753 23344 net.cpp:163] Top shape: 256 1024 (262144)
2015-09-17 21:16:15 - ERROR: I0917 21:16:15.444757 23344 layer_factory.hpp:75] Creating layer fc4
2015-09-17 21:16:15 - ERROR: I0917 21:16:15.444771 23344 net.cpp:110] Creating Layer fc4
2015-09-17 21:16:15 - ERROR: I0917 21:16:15.444774 23344 net.cpp:476] fc4 <- fc3
2015-09-17 21:16:15 - ERROR: I0917 21:16:15.444782 23344 net.cpp:432] fc4 -> fc4
2015-09-17 21:16:15 - ERROR: I0917 21:16:15.444849 23344 net.cpp:155] Setting up fc4
2015-09-17 21:16:15 - ERROR: I0917 21:16:15.444857 23344 net.cpp:163] Top shape: 256 2 (512)
2015-09-17 21:16:15 - ERROR: I0917 21:16:15.444866 23344 layer_factory.hpp:75] Creating layer prob
2015-09-17 21:16:15 - ERROR: I0917 21:16:15.444874 23344 net.cpp:110] Creating Layer prob
2015-09-17 21:16:15 - ERROR: I0917 21:16:15.444878 23344 net.cpp:476] prob <- fc4
2015-09-17 21:16:15 - ERROR: I0917 21:16:15.444885 23344 net.cpp:432] prob -> prob
2015-09-17 21:16:15 - ERROR: I0917 21:16:15.444895 23344 net.cpp:155] Setting up prob
2015-09-17 21:16:15 - ERROR: I0917 21:16:15.444900 23344 net.cpp:163] Top shape: 256 2 (512)
2015-09-17 21:16:15 - ERROR: I0917 21:16:15.444905 23344 net.cpp:240] prob does not need backward computation.
2015-09-17 21:16:15 - ERROR: I0917 21:16:15.444910 23344 net.cpp:240] fc4 does not need backward computation.
2015-09-17 21:16:15 - ERROR: I0917 21:16:15.444914 23344 net.cpp:240] relu3 does not need backward computation.
2015-09-17 21:16:15 - ERROR: I0917 21:16:15.444918 23344 net.cpp:240] fc3 does not need backward computation.
…
