…
17-09-2015 09:18:28 - ERROR: I0917 09:18:28.400204 45085 net.cpp:435] Input 0 -> data
17-09-2015 09:18:28 - ERROR: I0917 09:18:28.400527 45085 layer_factory.hpp:76] Creating layer conv1
17-09-2015 09:18:28 - ERROR: I0917 09:18:28.400569 45085 net.cpp:110] Creating Layer conv1
17-09-2015 09:18:28 - ERROR: I0917 09:18:28.400622 45085 net.cpp:477] conv1 <- data
17-09-2015 09:18:28 - ERROR: I0917 09:18:28.400643 45085 net.cpp:433] conv1 -> conv1
17-09-2015 09:18:28 - ERROR: I0917 09:18:28.402243 45085 net.cpp:155] Setting up conv1
17-09-2015 09:18:28 - ERROR: I0917 09:18:28.402297 45085 net.cpp:163] Top shape: 256 12 48 48 (7077888)
17-09-2015 09:18:28 - ERROR: I0917 09:18:28.402463 45085 layer_factory.hpp:76] Creating layer relu1
17-09-2015 09:18:28 - ERROR: I0917 09:18:28.402521 45085 net.cpp:110] Creating Layer relu1
17-09-2015 09:18:28 - ERROR: I0917 09:18:28.402561 45085 net.cpp:477] relu1 <- conv1
17-09-2015 09:18:28 - ERROR: I0917 09:18:28.402614 45085 net.cpp:419] relu1 -> conv1 (in-place)
17-09-2015 09:18:28 - ERROR: I0917 09:18:28.402660 45085 net.cpp:155] Setting up relu1
17-09-2015 09:18:28 - ERROR: I0917 09:18:28.402668 45085 net.cpp:163] Top shape: 256 12 48 48 (7077888)
17-09-2015 09:18:28 - ERROR: I0917 09:18:28.402672 45085 layer_factory.hpp:76] Creating layer pool1
17-09-2015 09:18:28 - ERROR: I0917 09:18:28.402683 45085 net.cpp:110] Creating Layer pool1
17-09-2015 09:18:28 - ERROR: I0917 09:18:28.402696 45085 net.cpp:477] pool1 <- conv1
17-09-2015 09:18:28 - ERROR: I0917 09:18:28.402705 45085 net.cpp:433] pool1 -> pool1
17-09-2015 09:18:28 - ERROR: I0917 09:18:28.402884 45085 net.cpp:155] Setting up pool1
17-09-2015 09:18:28 - ERROR: I0917 09:18:28.402900 45085 net.cpp:163] Top shape: 256 12 24 24 (1769472)
17-09-2015 09:18:28 - ERROR: I0917 09:18:28.402906 45085 layer_factory.hpp:76] Creating layer conv2
17-09-2015 09:18:28 - ERROR: I0917 09:18:28.402920 45085 net.cpp:110] Creating Layer conv2
17-09-2015 09:18:28 - ERROR: I0917 09:18:28.402923 45085 net.cpp:477] conv2 <- pool1
17-09-2015 09:18:28 - ERROR: I0917 09:18:28.402930 45085 net.cpp:433] conv2 -> conv2
17-09-2015 09:18:28 - ERROR: I0917 09:18:28.403498 45085 net.cpp:155] Setting up conv2
17-09-2015 09:18:28 - ERROR: I0917 09:18:28.403507 45085 net.cpp:163] Top shape: 256 48 25 25 (7680000)
17-09-2015 09:18:28 - ERROR: I0917 09:18:28.403520 45085 layer_factory.hpp:76] Creating layer relu2
17-09-2015 09:18:28 - ERROR: I0917 09:18:28.403538 45085 net.cpp:110] Creating Layer relu2
17-09-2015 09:18:28 - ERROR: I0917 09:18:28.403543 45085 net.cpp:477] relu2 <- conv2
17-09-2015 09:18:28 - ERROR: I0917 09:18:28.403548 45085 net.cpp:419] relu2 -> conv2 (in-place)
17-09-2015 09:18:28 - ERROR: I0917 09:18:28.403589 45085 net.cpp:155] Setting up relu2
17-09-2015 09:18:28 - ERROR: I0917 09:18:28.403600 45085 net.cpp:163] Top shape: 256 48 25 25 (7680000)
17-09-2015 09:18:28 - ERROR: I0917 09:18:28.403604 45085 layer_factory.hpp:76] Creating layer pool2
17-09-2015 09:18:28 - ERROR: I0917 09:18:28.403614 45085 net.cpp:110] Creating Layer pool2
17-09-2015 09:18:28 - ERROR: I0917 09:18:28.403616 45085 net.cpp:477] pool2 <- conv2
17-09-2015 09:18:28 - ERROR: I0917 09:18:28.403659 45085 net.cpp:433] pool2 -> pool2
17-09-2015 09:18:28 - ERROR: I0917 09:18:28.403673 45085 net.cpp:155] Setting up pool2
17-09-2015 09:18:28 - ERROR: I0917 09:18:28.403679 45085 net.cpp:163] Top shape: 256 48 12 12 (1769472)
17-09-2015 09:18:28 - ERROR: I0917 09:18:28.403688 45085 layer_factory.hpp:76] Creating layer fc3
17-09-2015 09:18:28 - ERROR: I0917 09:18:28.403698 45085 net.cpp:110] Creating Layer fc3
17-09-2015 09:18:28 - ERROR: I0917 09:18:28.403702 45085 net.cpp:477] fc3 <- pool2
17-09-2015 09:18:28 - ERROR: I0917 09:18:28.403715 45085 net.cpp:433] fc3 -> fc3
17-09-2015 09:18:28 - ERROR: I0917 09:18:28.638514 45085 net.cpp:155] Setting up fc3
17-09-2015 09:18:28 - ERROR: I0917 09:18:28.638600 45085 net.cpp:163] Top shape: 256 1024 (262144)
17-09-2015 09:18:28 - ERROR: I0917 09:18:28.638615 45085 layer_factory.hpp:76] Creating layer relu3
17-09-2015 09:18:28 - ERROR: I0917 09:18:28.638622 45085 net.cpp:110] Creating Layer relu3
17-09-2015 09:18:28 - ERROR: I0917 09:18:28.638627 45085 net.cpp:477] relu3 <- fc3
17-09-2015 09:18:28 - ERROR: I0917 09:18:28.638633 45085 net.cpp:419] relu3 -> fc3 (in-place)
17-09-2015 09:18:28 - ERROR: I0917 09:18:28.638638 45085 net.cpp:155] Setting up relu3
17-09-2015 09:18:28 - ERROR: I0917 09:18:28.638643 45085 net.cpp:163] Top shape: 256 1024 (262144)
17-09-2015 09:18:28 - ERROR: I0917 09:18:28.638645 45085 layer_factory.hpp:76] Creating layer fc4
17-09-2015 09:18:28 - ERROR: I0917 09:18:28.638656 45085 net.cpp:110] Creating Layer fc4
17-09-2015 09:18:28 - ERROR: I0917 09:18:28.638659 45085 net.cpp:477] fc4 <- fc3
17-09-2015 09:18:28 - ERROR: I0917 09:18:28.638667 45085 net.cpp:433] fc4 -> fc4
17-09-2015 09:18:28 - ERROR: I0917 09:18:28.638815 45085 net.cpp:155] Setting up fc4
17-09-2015 09:18:28 - ERROR: I0917 09:18:28.638824 45085 net.cpp:163] Top shape: 256 2 (512)
17-09-2015 09:18:28 - ERROR: I0917 09:18:28.638830 45085 layer_factory.hpp:76] Creating layer prob
17-09-2015 09:18:28 - ERROR: I0917 09:18:28.638838 45085 net.cpp:110] Creating Layer prob
17-09-2015 09:18:28 - ERROR: I0917 09:18:28.638842 45085 net.cpp:477] prob <- fc4
17-09-2015 09:18:28 - ERROR: I0917 09:18:28.638849 45085 net.cpp:433] prob -> prob
17-09-2015 09:18:28 - ERROR: I0917 09:18:28.638898 45085 net.cpp:155] Setting up prob
17-09-2015 09:18:28 - ERROR: I0917 09:18:28.638911 45085 net.cpp:163] Top shape: 256 2 (512)
17-09-2015 09:18:28 - ERROR: I0917 09:18:28.638917 45085 net.cpp:240] prob does not need backward computation.
17-09-2015 09:18:28 - ERROR: I0917 09:18:28.638962 45085 net.cpp:240] fc4 does not need backward computation.
17-09-2015 09:18:28 - ERROR: I0917 09:18:28.638970 45085 net.cpp:240] relu3 does not need backward computation.
17-09-2015 09:18:28 - ERROR: I0917 09:18:28.638973 45085 net.cpp:240] fc3 does not need backward computation.
…
