…
19-09-2015 11:13:03 - ERROR: I0919 11:13:03.196939 35928 net.cpp:435] Input 0 -> data
19-09-2015 11:13:03 - ERROR: I0919 11:13:03.197021 35928 layer_factory.hpp:76] Creating layer conv1
19-09-2015 11:13:03 - ERROR: I0919 11:13:03.197043 35928 net.cpp:110] Creating Layer conv1
19-09-2015 11:13:03 - ERROR: I0919 11:13:03.197052 35928 net.cpp:477] conv1 <- data
19-09-2015 11:13:03 - ERROR: I0919 11:13:03.197060 35928 net.cpp:433] conv1 -> conv1
19-09-2015 11:13:03 - ERROR: I0919 11:13:03.197702 35928 net.cpp:155] Setting up conv1
19-09-2015 11:13:03 - ERROR: I0919 11:13:03.197738 35928 net.cpp:163] Top shape: 256 12 48 48 (7077888)
19-09-2015 11:13:03 - ERROR: I0919 11:13:03.197775 35928 layer_factory.hpp:76] Creating layer relu1
19-09-2015 11:13:03 - ERROR: I0919 11:13:03.197783 35928 net.cpp:110] Creating Layer relu1
19-09-2015 11:13:03 - ERROR: I0919 11:13:03.197788 35928 net.cpp:477] relu1 <- conv1
19-09-2015 11:13:03 - ERROR: I0919 11:13:03.197792 35928 net.cpp:419] relu1 -> conv1 (in-place)
19-09-2015 11:13:03 - ERROR: I0919 11:13:03.197801 35928 net.cpp:155] Setting up relu1
19-09-2015 11:13:03 - ERROR: I0919 11:13:03.197806 35928 net.cpp:163] Top shape: 256 12 48 48 (7077888)
19-09-2015 11:13:03 - ERROR: I0919 11:13:03.197809 35928 layer_factory.hpp:76] Creating layer pool1
19-09-2015 11:13:03 - ERROR: I0919 11:13:03.197814 35928 net.cpp:110] Creating Layer pool1
19-09-2015 11:13:03 - ERROR: I0919 11:13:03.197818 35928 net.cpp:477] pool1 <- conv1
19-09-2015 11:13:03 - ERROR: I0919 11:13:03.197821 35928 net.cpp:433] pool1 -> pool1
19-09-2015 11:13:03 - ERROR: I0919 11:13:03.197844 35928 net.cpp:155] Setting up pool1
19-09-2015 11:13:03 - ERROR: I0919 11:13:03.197854 35928 net.cpp:163] Top shape: 256 12 24 24 (1769472)
19-09-2015 11:13:03 - ERROR: I0919 11:13:03.197859 35928 layer_factory.hpp:76] Creating layer conv2
19-09-2015 11:13:03 - ERROR: I0919 11:13:03.197863 35928 net.cpp:110] Creating Layer conv2
19-09-2015 11:13:03 - ERROR: I0919 11:13:03.197866 35928 net.cpp:477] conv2 <- pool1
19-09-2015 11:13:03 - ERROR: I0919 11:13:03.197871 35928 net.cpp:433] conv2 -> conv2
19-09-2015 11:13:03 - ERROR: I0919 11:13:03.198196 35928 net.cpp:155] Setting up conv2
19-09-2015 11:13:03 - ERROR: I0919 11:13:03.198202 35928 net.cpp:163] Top shape: 256 48 25 25 (7680000)
19-09-2015 11:13:03 - ERROR: I0919 11:13:03.198210 35928 layer_factory.hpp:76] Creating layer relu2
19-09-2015 11:13:03 - ERROR: I0919 11:13:03.198215 35928 net.cpp:110] Creating Layer relu2
19-09-2015 11:13:03 - ERROR: I0919 11:13:03.198220 35928 net.cpp:477] relu2 <- conv2
19-09-2015 11:13:03 - ERROR: I0919 11:13:03.198223 35928 net.cpp:419] relu2 -> conv2 (in-place)
19-09-2015 11:13:03 - ERROR: I0919 11:13:03.198228 35928 net.cpp:155] Setting up relu2
19-09-2015 11:13:03 - ERROR: I0919 11:13:03.198231 35928 net.cpp:163] Top shape: 256 48 25 25 (7680000)
19-09-2015 11:13:03 - ERROR: I0919 11:13:03.198235 35928 layer_factory.hpp:76] Creating layer pool2
19-09-2015 11:13:03 - ERROR: I0919 11:13:03.198238 35928 net.cpp:110] Creating Layer pool2
19-09-2015 11:13:03 - ERROR: I0919 11:13:03.198240 35928 net.cpp:477] pool2 <- conv2
19-09-2015 11:13:03 - ERROR: I0919 11:13:03.198245 35928 net.cpp:433] pool2 -> pool2
19-09-2015 11:13:03 - ERROR: I0919 11:13:03.198251 35928 net.cpp:155] Setting up pool2
19-09-2015 11:13:03 - ERROR: I0919 11:13:03.198256 35928 net.cpp:163] Top shape: 256 48 12 12 (1769472)
19-09-2015 11:13:03 - ERROR: I0919 11:13:03.198258 35928 layer_factory.hpp:76] Creating layer fc3
19-09-2015 11:13:03 - ERROR: I0919 11:13:03.198264 35928 net.cpp:110] Creating Layer fc3
19-09-2015 11:13:03 - ERROR: I0919 11:13:03.198266 35928 net.cpp:477] fc3 <- pool2
19-09-2015 11:13:03 - ERROR: I0919 11:13:03.198271 35928 net.cpp:433] fc3 -> fc3
19-09-2015 11:13:03 - ERROR: I0919 11:13:03.438732 35928 net.cpp:155] Setting up fc3
19-09-2015 11:13:03 - ERROR: I0919 11:13:03.438824 35928 net.cpp:163] Top shape: 256 1024 (262144)
19-09-2015 11:13:03 - ERROR: I0919 11:13:03.438840 35928 layer_factory.hpp:76] Creating layer relu3
19-09-2015 11:13:03 - ERROR: I0919 11:13:03.438848 35928 net.cpp:110] Creating Layer relu3
19-09-2015 11:13:03 - ERROR: I0919 11:13:03.438853 35928 net.cpp:477] relu3 <- fc3
19-09-2015 11:13:03 - ERROR: I0919 11:13:03.438858 35928 net.cpp:419] relu3 -> fc3 (in-place)
19-09-2015 11:13:03 - ERROR: I0919 11:13:03.438868 35928 net.cpp:155] Setting up relu3
19-09-2015 11:13:03 - ERROR: I0919 11:13:03.438871 35928 net.cpp:163] Top shape: 256 1024 (262144)
19-09-2015 11:13:03 - ERROR: I0919 11:13:03.438874 35928 layer_factory.hpp:76] Creating layer fc4
19-09-2015 11:13:03 - ERROR: I0919 11:13:03.438882 35928 net.cpp:110] Creating Layer fc4
19-09-2015 11:13:03 - ERROR: I0919 11:13:03.438885 35928 net.cpp:477] fc4 <- fc3
19-09-2015 11:13:03 - ERROR: I0919 11:13:03.438895 35928 net.cpp:433] fc4 -> fc4
19-09-2015 11:13:03 - ERROR: I0919 11:13:03.439076 35928 net.cpp:155] Setting up fc4
19-09-2015 11:13:03 - ERROR: I0919 11:13:03.439085 35928 net.cpp:163] Top shape: 256 2 (512)
19-09-2015 11:13:03 - ERROR: I0919 11:13:03.439090 35928 layer_factory.hpp:76] Creating layer prob
19-09-2015 11:13:03 - ERROR: I0919 11:13:03.439100 35928 net.cpp:110] Creating Layer prob
19-09-2015 11:13:03 - ERROR: I0919 11:13:03.439102 35928 net.cpp:477] prob <- fc4
19-09-2015 11:13:03 - ERROR: I0919 11:13:03.439154 35928 net.cpp:433] prob -> prob
19-09-2015 11:13:03 - ERROR: I0919 11:13:03.439239 35928 net.cpp:155] Setting up prob
19-09-2015 11:13:03 - ERROR: I0919 11:13:03.439245 35928 net.cpp:163] Top shape: 256 2 (512)
19-09-2015 11:13:03 - ERROR: I0919 11:13:03.439249 35928 net.cpp:240] prob does not need backward computation.
19-09-2015 11:13:03 - ERROR: I0919 11:13:03.439252 35928 net.cpp:240] fc4 does not need backward computation.
19-09-2015 11:13:03 - ERROR: I0919 11:13:03.439270 35928 net.cpp:240] relu3 does not need backward computation.
19-09-2015 11:13:03 - ERROR: I0919 11:13:03.439277 35928 net.cpp:240] fc3 does not need backward computation.
…
