…
17-09-2015 09:17:40 - ERROR: I0917 09:17:40.808755  1714 net.cpp:435] Input 0 -> data
17-09-2015 09:17:40 - ERROR: I0917 09:17:40.808873  1714 layer_factory.hpp:76] Creating layer conv1
17-09-2015 09:17:40 - ERROR: I0917 09:17:40.808946  1714 net.cpp:110] Creating Layer conv1
17-09-2015 09:17:40 - ERROR: I0917 09:17:40.808959  1714 net.cpp:477] conv1 <- data
17-09-2015 09:17:40 - ERROR: I0917 09:17:40.808974  1714 net.cpp:433] conv1 -> conv1
17-09-2015 09:17:40 - ERROR: I0917 09:17:40.810442  1714 net.cpp:155] Setting up conv1
17-09-2015 09:17:40 - ERROR: I0917 09:17:40.810644  1714 net.cpp:163] Top shape: 256 12 48 48 (7077888)
17-09-2015 09:17:40 - ERROR: I0917 09:17:40.810797  1714 layer_factory.hpp:76] Creating layer relu1
17-09-2015 09:17:40 - ERROR: I0917 09:17:40.810842  1714 net.cpp:110] Creating Layer relu1
17-09-2015 09:17:40 - ERROR: I0917 09:17:40.810848  1714 net.cpp:477] relu1 <- conv1
17-09-2015 09:17:40 - ERROR: I0917 09:17:40.810859  1714 net.cpp:419] relu1 -> conv1 (in-place)
17-09-2015 09:17:40 - ERROR: I0917 09:17:40.810876  1714 net.cpp:155] Setting up relu1
17-09-2015 09:17:40 - ERROR: I0917 09:17:40.810881  1714 net.cpp:163] Top shape: 256 12 48 48 (7077888)
17-09-2015 09:17:40 - ERROR: I0917 09:17:40.810925  1714 layer_factory.hpp:76] Creating layer pool1
17-09-2015 09:17:40 - ERROR: I0917 09:17:40.810937  1714 net.cpp:110] Creating Layer pool1
17-09-2015 09:17:40 - ERROR: I0917 09:17:40.810946  1714 net.cpp:477] pool1 <- conv1
17-09-2015 09:17:40 - ERROR: I0917 09:17:40.810986  1714 net.cpp:433] pool1 -> pool1
17-09-2015 09:17:40 - ERROR: I0917 09:17:40.811120  1714 net.cpp:155] Setting up pool1
17-09-2015 09:17:40 - ERROR: I0917 09:17:40.811177  1714 net.cpp:163] Top shape: 256 12 24 24 (1769472)
17-09-2015 09:17:40 - ERROR: I0917 09:17:40.811187  1714 layer_factory.hpp:76] Creating layer conv2
17-09-2015 09:17:40 - ERROR: I0917 09:17:40.811231  1714 net.cpp:110] Creating Layer conv2
17-09-2015 09:17:40 - ERROR: I0917 09:17:40.811239  1714 net.cpp:477] conv2 <- pool1
17-09-2015 09:17:40 - ERROR: I0917 09:17:40.811285  1714 net.cpp:433] conv2 -> conv2
17-09-2015 09:17:40 - ERROR: I0917 09:17:40.812104  1714 net.cpp:155] Setting up conv2
17-09-2015 09:17:40 - ERROR: I0917 09:17:40.812114  1714 net.cpp:163] Top shape: 256 48 25 25 (7680000)
17-09-2015 09:17:40 - ERROR: I0917 09:17:40.812121  1714 layer_factory.hpp:76] Creating layer relu2
17-09-2015 09:17:40 - ERROR: I0917 09:17:40.812129  1714 net.cpp:110] Creating Layer relu2
17-09-2015 09:17:40 - ERROR: I0917 09:17:40.812137  1714 net.cpp:477] relu2 <- conv2
17-09-2015 09:17:40 - ERROR: I0917 09:17:40.812142  1714 net.cpp:419] relu2 -> conv2 (in-place)
17-09-2015 09:17:40 - ERROR: I0917 09:17:40.812149  1714 net.cpp:155] Setting up relu2
17-09-2015 09:17:40 - ERROR: I0917 09:17:40.812152  1714 net.cpp:163] Top shape: 256 48 25 25 (7680000)
17-09-2015 09:17:40 - ERROR: I0917 09:17:40.812155  1714 layer_factory.hpp:76] Creating layer pool2
17-09-2015 09:17:40 - ERROR: I0917 09:17:40.812162  1714 net.cpp:110] Creating Layer pool2
17-09-2015 09:17:40 - ERROR: I0917 09:17:40.812165  1714 net.cpp:477] pool2 <- conv2
17-09-2015 09:17:40 - ERROR: I0917 09:17:40.812209  1714 net.cpp:433] pool2 -> pool2
17-09-2015 09:17:40 - ERROR: I0917 09:17:40.812232  1714 net.cpp:155] Setting up pool2
17-09-2015 09:17:40 - ERROR: I0917 09:17:40.812242  1714 net.cpp:163] Top shape: 256 48 12 12 (1769472)
17-09-2015 09:17:40 - ERROR: I0917 09:17:40.812283  1714 layer_factory.hpp:76] Creating layer fc3
17-09-2015 09:17:40 - ERROR: I0917 09:17:40.812300  1714 net.cpp:110] Creating Layer fc3
17-09-2015 09:17:40 - ERROR: I0917 09:17:40.812304  1714 net.cpp:477] fc3 <- pool2
17-09-2015 09:17:40 - ERROR: I0917 09:17:40.812309  1714 net.cpp:433] fc3 -> fc3
17-09-2015 09:17:41 - ERROR: I0917 09:17:41.049470  1714 net.cpp:155] Setting up fc3
17-09-2015 09:17:41 - ERROR: I0917 09:17:41.049559  1714 net.cpp:163] Top shape: 256 1024 (262144)
17-09-2015 09:17:41 - ERROR: I0917 09:17:41.049574  1714 layer_factory.hpp:76] Creating layer relu3
17-09-2015 09:17:41 - ERROR: I0917 09:17:41.049582  1714 net.cpp:110] Creating Layer relu3
17-09-2015 09:17:41 - ERROR: I0917 09:17:41.049624  1714 net.cpp:477] relu3 <- fc3
17-09-2015 09:17:41 - ERROR: I0917 09:17:41.049639  1714 net.cpp:419] relu3 -> fc3 (in-place)
17-09-2015 09:17:41 - ERROR: I0917 09:17:41.049651  1714 net.cpp:155] Setting up relu3
17-09-2015 09:17:41 - ERROR: I0917 09:17:41.049657  1714 net.cpp:163] Top shape: 256 1024 (262144)
17-09-2015 09:17:41 - ERROR: I0917 09:17:41.049660  1714 layer_factory.hpp:76] Creating layer fc4
17-09-2015 09:17:41 - ERROR: I0917 09:17:41.049669  1714 net.cpp:110] Creating Layer fc4
17-09-2015 09:17:41 - ERROR: I0917 09:17:41.049672  1714 net.cpp:477] fc4 <- fc3
17-09-2015 09:17:41 - ERROR: I0917 09:17:41.049681  1714 net.cpp:433] fc4 -> fc4
17-09-2015 09:17:41 - ERROR: I0917 09:17:41.049947  1714 net.cpp:155] Setting up fc4
17-09-2015 09:17:41 - ERROR: I0917 09:17:41.049993  1714 net.cpp:163] Top shape: 256 2 (512)
17-09-2015 09:17:41 - ERROR: I0917 09:17:41.050036  1714 layer_factory.hpp:76] Creating layer prob
17-09-2015 09:17:41 - ERROR: I0917 09:17:41.050052  1714 net.cpp:110] Creating Layer prob
17-09-2015 09:17:41 - ERROR: I0917 09:17:41.050056  1714 net.cpp:477] prob <- fc4
17-09-2015 09:17:41 - ERROR: I0917 09:17:41.050109  1714 net.cpp:433] prob -> prob
17-09-2015 09:17:41 - ERROR: I0917 09:17:41.050132  1714 net.cpp:155] Setting up prob
17-09-2015 09:17:41 - ERROR: I0917 09:17:41.050178  1714 net.cpp:163] Top shape: 256 2 (512)
17-09-2015 09:17:41 - ERROR: I0917 09:17:41.050181  1714 net.cpp:240] prob does not need backward computation.
17-09-2015 09:17:41 - ERROR: I0917 09:17:41.050187  1714 net.cpp:240] fc4 does not need backward computation.
17-09-2015 09:17:41 - ERROR: I0917 09:17:41.050190  1714 net.cpp:240] relu3 does not need backward computation.
17-09-2015 09:17:41 - ERROR: I0917 09:17:41.050197  1714 net.cpp:240] fc3 does not need backward computation.
…
