…
21-09-2015 03:48:16 - ERROR: I0921 15:48:16.758497 38783 net.cpp:435] Input 0 -> data
21-09-2015 03:48:16 - ERROR: I0921 15:48:16.758574 38783 layer_factory.hpp:76] Creating layer conv1
21-09-2015 03:48:16 - ERROR: I0921 15:48:16.758596 38783 net.cpp:110] Creating Layer conv1
21-09-2015 03:48:16 - ERROR: I0921 15:48:16.758605 38783 net.cpp:477] conv1 <- data
21-09-2015 03:48:16 - ERROR: I0921 15:48:16.758613 38783 net.cpp:433] conv1 -> conv1
21-09-2015 03:48:16 - ERROR: I0921 15:48:16.759228 38783 net.cpp:155] Setting up conv1
21-09-2015 03:48:16 - ERROR: I0921 15:48:16.759263 38783 net.cpp:163] Top shape: 256 12 48 48 (7077888)
21-09-2015 03:48:16 - ERROR: I0921 15:48:16.759297 38783 layer_factory.hpp:76] Creating layer relu1
21-09-2015 03:48:16 - ERROR: I0921 15:48:16.759305 38783 net.cpp:110] Creating Layer relu1
21-09-2015 03:48:16 - ERROR: I0921 15:48:16.759309 38783 net.cpp:477] relu1 <- conv1
21-09-2015 03:48:16 - ERROR: I0921 15:48:16.759313 38783 net.cpp:419] relu1 -> conv1 (in-place)
21-09-2015 03:48:16 - ERROR: I0921 15:48:16.759322 38783 net.cpp:155] Setting up relu1
21-09-2015 03:48:16 - ERROR: I0921 15:48:16.759326 38783 net.cpp:163] Top shape: 256 12 48 48 (7077888)
21-09-2015 03:48:16 - ERROR: I0921 15:48:16.759330 38783 layer_factory.hpp:76] Creating layer pool1
21-09-2015 03:48:16 - ERROR: I0921 15:48:16.759335 38783 net.cpp:110] Creating Layer pool1
21-09-2015 03:48:16 - ERROR: I0921 15:48:16.759337 38783 net.cpp:477] pool1 <- conv1
21-09-2015 03:48:16 - ERROR: I0921 15:48:16.759341 38783 net.cpp:433] pool1 -> pool1
21-09-2015 03:48:16 - ERROR: I0921 15:48:16.759364 38783 net.cpp:155] Setting up pool1
21-09-2015 03:48:16 - ERROR: I0921 15:48:16.759374 38783 net.cpp:163] Top shape: 256 12 24 24 (1769472)
21-09-2015 03:48:16 - ERROR: I0921 15:48:16.759377 38783 layer_factory.hpp:76] Creating layer conv2
21-09-2015 03:48:16 - ERROR: I0921 15:48:16.759383 38783 net.cpp:110] Creating Layer conv2
21-09-2015 03:48:16 - ERROR: I0921 15:48:16.759387 38783 net.cpp:477] conv2 <- pool1
21-09-2015 03:48:16 - ERROR: I0921 15:48:16.759392 38783 net.cpp:433] conv2 -> conv2
21-09-2015 03:48:16 - ERROR: I0921 15:48:16.759692 38783 net.cpp:155] Setting up conv2
21-09-2015 03:48:16 - ERROR: I0921 15:48:16.759699 38783 net.cpp:163] Top shape: 256 48 25 25 (7680000)
21-09-2015 03:48:16 - ERROR: I0921 15:48:16.759706 38783 layer_factory.hpp:76] Creating layer relu2
21-09-2015 03:48:16 - ERROR: I0921 15:48:16.759711 38783 net.cpp:110] Creating Layer relu2
21-09-2015 03:48:16 - ERROR: I0921 15:48:16.759716 38783 net.cpp:477] relu2 <- conv2
21-09-2015 03:48:16 - ERROR: I0921 15:48:16.759719 38783 net.cpp:419] relu2 -> conv2 (in-place)
21-09-2015 03:48:16 - ERROR: I0921 15:48:16.759723 38783 net.cpp:155] Setting up relu2
21-09-2015 03:48:16 - ERROR: I0921 15:48:16.759727 38783 net.cpp:163] Top shape: 256 48 25 25 (7680000)
21-09-2015 03:48:16 - ERROR: I0921 15:48:16.759729 38783 layer_factory.hpp:76] Creating layer pool2
21-09-2015 03:48:16 - ERROR: I0921 15:48:16.759733 38783 net.cpp:110] Creating Layer pool2
21-09-2015 03:48:16 - ERROR: I0921 15:48:16.759737 38783 net.cpp:477] pool2 <- conv2
21-09-2015 03:48:16 - ERROR: I0921 15:48:16.759739 38783 net.cpp:433] pool2 -> pool2
21-09-2015 03:48:16 - ERROR: I0921 15:48:16.759747 38783 net.cpp:155] Setting up pool2
21-09-2015 03:48:16 - ERROR: I0921 15:48:16.759750 38783 net.cpp:163] Top shape: 256 48 12 12 (1769472)
21-09-2015 03:48:16 - ERROR: I0921 15:48:16.759753 38783 layer_factory.hpp:76] Creating layer fc3
21-09-2015 03:48:16 - ERROR: I0921 15:48:16.759759 38783 net.cpp:110] Creating Layer fc3
21-09-2015 03:48:16 - ERROR: I0921 15:48:16.759762 38783 net.cpp:477] fc3 <- pool2
21-09-2015 03:48:16 - ERROR: I0921 15:48:16.759765 38783 net.cpp:433] fc3 -> fc3
21-09-2015 03:48:16 - ERROR: I0921 15:48:16.997959 38783 net.cpp:155] Setting up fc3
21-09-2015 03:48:16 - ERROR: I0921 15:48:16.998044 38783 net.cpp:163] Top shape: 256 1024 (262144)
21-09-2015 03:48:16 - ERROR: I0921 15:48:16.998059 38783 layer_factory.hpp:76] Creating layer relu3
21-09-2015 03:48:16 - ERROR: I0921 15:48:16.998067 38783 net.cpp:110] Creating Layer relu3
21-09-2015 03:48:16 - ERROR: I0921 15:48:16.998071 38783 net.cpp:477] relu3 <- fc3
21-09-2015 03:48:16 - ERROR: I0921 15:48:16.998077 38783 net.cpp:419] relu3 -> fc3 (in-place)
21-09-2015 03:48:16 - ERROR: I0921 15:48:16.998086 38783 net.cpp:155] Setting up relu3
21-09-2015 03:48:16 - ERROR: I0921 15:48:16.998090 38783 net.cpp:163] Top shape: 256 1024 (262144)
21-09-2015 03:48:16 - ERROR: I0921 15:48:16.998093 38783 layer_factory.hpp:76] Creating layer fc4
21-09-2015 03:48:16 - ERROR: I0921 15:48:16.998105 38783 net.cpp:110] Creating Layer fc4
21-09-2015 03:48:16 - ERROR: I0921 15:48:16.998106 38783 net.cpp:477] fc4 <- fc3
21-09-2015 03:48:16 - ERROR: I0921 15:48:16.998112 38783 net.cpp:433] fc4 -> fc4
21-09-2015 03:48:16 - ERROR: I0921 15:48:16.998296 38783 net.cpp:155] Setting up fc4
21-09-2015 03:48:16 - ERROR: I0921 15:48:16.998333 38783 net.cpp:163] Top shape: 256 2 (512)
21-09-2015 03:48:16 - ERROR: I0921 15:48:16.998342 38783 layer_factory.hpp:76] Creating layer prob
21-09-2015 03:48:16 - ERROR: I0921 15:48:16.998358 38783 net.cpp:110] Creating Layer prob
21-09-2015 03:48:16 - ERROR: I0921 15:48:16.998360 38783 net.cpp:477] prob <- fc4
21-09-2015 03:48:16 - ERROR: I0921 15:48:16.998402 38783 net.cpp:433] prob -> prob
21-09-2015 03:48:16 - ERROR: I0921 15:48:16.998476 38783 net.cpp:155] Setting up prob
21-09-2015 03:48:16 - ERROR: I0921 15:48:16.998520 38783 net.cpp:163] Top shape: 256 2 (512)
21-09-2015 03:48:16 - ERROR: I0921 15:48:16.998530 38783 net.cpp:240] prob does not need backward computation.
21-09-2015 03:48:16 - ERROR: I0921 15:48:16.998565 38783 net.cpp:240] fc4 does not need backward computation.
21-09-2015 03:48:16 - ERROR: I0921 15:48:16.998580 38783 net.cpp:240] relu3 does not need backward computation.
21-09-2015 03:48:16 - ERROR: I0921 15:48:16.998584 38783 net.cpp:240] fc3 does not need backward computation.
…
