…
2015-09-13 22:10:06 - ERROR: I0913 22:10:06.821676 29305 net.cpp:434] Input 0 -> data
2015-09-13 22:10:06 - ERROR: I0913 22:10:06.821713 29305 layer_factory.hpp:75] Creating layer conv1
2015-09-13 22:10:06 - ERROR: I0913 22:10:06.821730 29305 net.cpp:110] Creating Layer conv1
2015-09-13 22:10:06 - ERROR: I0913 22:10:06.821738 29305 net.cpp:476] conv1 <- data
2015-09-13 22:10:06 - ERROR: I0913 22:10:06.821749 29305 net.cpp:432] conv1 -> conv1
2015-09-13 22:10:06 - ERROR: I0913 22:10:06.822146 29305 net.cpp:155] Setting up conv1
2015-09-13 22:10:06 - ERROR: I0913 22:10:06.822166 29305 net.cpp:163] Top shape: 256 12 48 48 (7077888)
2015-09-13 22:10:06 - ERROR: I0913 22:10:06.822190 29305 layer_factory.hpp:75] Creating layer relu1
2015-09-13 22:10:06 - ERROR: I0913 22:10:06.822199 29305 net.cpp:110] Creating Layer relu1
2015-09-13 22:10:06 - ERROR: I0913 22:10:06.822204 29305 net.cpp:476] relu1 <- conv1
2015-09-13 22:10:06 - ERROR: I0913 22:10:06.822211 29305 net.cpp:419] relu1 -> conv1 (in-place)
2015-09-13 22:10:06 - ERROR: I0913 22:10:06.822224 29305 net.cpp:155] Setting up relu1
2015-09-13 22:10:06 - ERROR: I0913 22:10:06.822232 29305 net.cpp:163] Top shape: 256 12 48 48 (7077888)
2015-09-13 22:10:06 - ERROR: I0913 22:10:06.822237 29305 layer_factory.hpp:75] Creating layer pool1
2015-09-13 22:10:06 - ERROR: I0913 22:10:06.822247 29305 net.cpp:110] Creating Layer pool1
2015-09-13 22:10:06 - ERROR: I0913 22:10:06.822252 29305 net.cpp:476] pool1 <- conv1
2015-09-13 22:10:06 - ERROR: I0913 22:10:06.822259 29305 net.cpp:432] pool1 -> pool1
2015-09-13 22:10:06 - ERROR: I0913 22:10:06.822278 29305 net.cpp:155] Setting up pool1
2015-09-13 22:10:06 - ERROR: I0913 22:10:06.822285 29305 net.cpp:163] Top shape: 256 12 24 24 (1769472)
2015-09-13 22:10:06 - ERROR: I0913 22:10:06.822289 29305 layer_factory.hpp:75] Creating layer conv2
2015-09-13 22:10:06 - ERROR: I0913 22:10:06.822299 29305 net.cpp:110] Creating Layer conv2
2015-09-13 22:10:06 - ERROR: I0913 22:10:06.822304 29305 net.cpp:476] conv2 <- pool1
2015-09-13 22:10:06 - ERROR: I0913 22:10:06.822311 29305 net.cpp:432] conv2 -> conv2
2015-09-13 22:10:06 - ERROR: I0913 22:10:06.822506 29305 net.cpp:155] Setting up conv2
2015-09-13 22:10:06 - ERROR: I0913 22:10:06.822517 29305 net.cpp:163] Top shape: 256 48 25 25 (7680000)
2015-09-13 22:10:06 - ERROR: I0913 22:10:06.822530 29305 layer_factory.hpp:75] Creating layer relu2
2015-09-13 22:10:06 - ERROR: I0913 22:10:06.822538 29305 net.cpp:110] Creating Layer relu2
2015-09-13 22:10:06 - ERROR: I0913 22:10:06.822543 29305 net.cpp:476] relu2 <- conv2
2015-09-13 22:10:06 - ERROR: I0913 22:10:06.822553 29305 net.cpp:419] relu2 -> conv2 (in-place)
2015-09-13 22:10:06 - ERROR: I0913 22:10:06.822562 29305 net.cpp:155] Setting up relu2
2015-09-13 22:10:06 - ERROR: I0913 22:10:06.822569 29305 net.cpp:163] Top shape: 256 48 25 25 (7680000)
2015-09-13 22:10:06 - ERROR: I0913 22:10:06.822574 29305 layer_factory.hpp:75] Creating layer pool2
2015-09-13 22:10:06 - ERROR: I0913 22:10:06.822582 29305 net.cpp:110] Creating Layer pool2
2015-09-13 22:10:06 - ERROR: I0913 22:10:06.822587 29305 net.cpp:476] pool2 <- conv2
2015-09-13 22:10:06 - ERROR: I0913 22:10:06.822594 29305 net.cpp:432] pool2 -> pool2
2015-09-13 22:10:06 - ERROR: I0913 22:10:06.822605 29305 net.cpp:155] Setting up pool2
2015-09-13 22:10:06 - ERROR: I0913 22:10:06.822613 29305 net.cpp:163] Top shape: 256 48 12 12 (1769472)
2015-09-13 22:10:06 - ERROR: I0913 22:10:06.822618 29305 layer_factory.hpp:75] Creating layer fc3
2015-09-13 22:10:06 - ERROR: I0913 22:10:06.822628 29305 net.cpp:110] Creating Layer fc3
2015-09-13 22:10:06 - ERROR: I0913 22:10:06.822633 29305 net.cpp:476] fc3 <- pool2
2015-09-13 22:10:06 - ERROR: I0913 22:10:06.822643 29305 net.cpp:432] fc3 -> fc3
2015-09-13 22:10:06 - ERROR: I0913 22:10:06.950767 29305 net.cpp:155] Setting up fc3
2015-09-13 22:10:06 - ERROR: I0913 22:10:06.950790 29305 net.cpp:163] Top shape: 256 1024 (262144)
2015-09-13 22:10:06 - ERROR: I0913 22:10:06.950814 29305 layer_factory.hpp:75] Creating layer relu3
2015-09-13 22:10:06 - ERROR: I0913 22:10:06.950822 29305 net.cpp:110] Creating Layer relu3
2015-09-13 22:10:06 - ERROR: I0913 22:10:06.950826 29305 net.cpp:476] relu3 <- fc3
2015-09-13 22:10:06 - ERROR: I0913 22:10:06.950832 29305 net.cpp:419] relu3 -> fc3 (in-place)
2015-09-13 22:10:06 - ERROR: I0913 22:10:06.950841 29305 net.cpp:155] Setting up relu3
2015-09-13 22:10:06 - ERROR: I0913 22:10:06.950845 29305 net.cpp:163] Top shape: 256 1024 (262144)
2015-09-13 22:10:06 - ERROR: I0913 22:10:06.950847 29305 layer_factory.hpp:75] Creating layer fc4
2015-09-13 22:10:06 - ERROR: I0913 22:10:06.950857 29305 net.cpp:110] Creating Layer fc4
2015-09-13 22:10:06 - ERROR: I0913 22:10:06.950860 29305 net.cpp:476] fc4 <- fc3
2015-09-13 22:10:06 - ERROR: I0913 22:10:06.950865 29305 net.cpp:432] fc4 -> fc4
2015-09-13 22:10:06 - ERROR: I0913 22:10:06.950906 29305 net.cpp:155] Setting up fc4
2015-09-13 22:10:06 - ERROR: I0913 22:10:06.950909 29305 net.cpp:163] Top shape: 256 2 (512)
2015-09-13 22:10:06 - ERROR: I0913 22:10:06.950914 29305 layer_factory.hpp:75] Creating layer prob
2015-09-13 22:10:06 - ERROR: I0913 22:10:06.950920 29305 net.cpp:110] Creating Layer prob
2015-09-13 22:10:06 - ERROR: I0913 22:10:06.950923 29305 net.cpp:476] prob <- fc4
2015-09-13 22:10:06 - ERROR: I0913 22:10:06.950927 29305 net.cpp:432] prob -> prob
2015-09-13 22:10:06 - ERROR: I0913 22:10:06.950933 29305 net.cpp:155] Setting up prob
2015-09-13 22:10:06 - ERROR: I0913 22:10:06.950937 29305 net.cpp:163] Top shape: 256 2 (512)
2015-09-13 22:10:06 - ERROR: I0913 22:10:06.950939 29305 net.cpp:240] prob does not need backward computation.
2015-09-13 22:10:06 - ERROR: I0913 22:10:06.950942 29305 net.cpp:240] fc4 does not need backward computation.
2015-09-13 22:10:06 - ERROR: I0913 22:10:06.950945 29305 net.cpp:240] relu3 does not need backward computation.
2015-09-13 22:10:06 - ERROR: I0913 22:10:06.950947 29305 net.cpp:240] fc3 does not need backward computation.
…
