…
2015-09-10 23:00:34 - ERROR: I0910 23:00:34.980873 13014 net.cpp:434] Input 0 -> data
2015-09-10 23:00:34 - ERROR: I0910 23:00:34.980952 13014 layer_factory.hpp:75] Creating layer conv1
2015-09-10 23:00:34 - ERROR: I0910 23:00:34.981004 13014 net.cpp:110] Creating Layer conv1
2015-09-10 23:00:34 - ERROR: I0910 23:00:34.981045 13014 net.cpp:476] conv1 <- data
2015-09-10 23:00:34 - ERROR: I0910 23:00:34.981092 13014 net.cpp:432] conv1 -> conv1
2015-09-10 23:00:34 - ERROR: I0910 23:00:34.981570 13014 net.cpp:155] Setting up conv1
2015-09-10 23:00:34 - ERROR: I0910 23:00:34.986116 13014 net.cpp:163] Top shape: 256 12 48 48 (7077888)
2015-09-10 23:00:34 - ERROR: I0910 23:00:34.986189 13014 layer_factory.hpp:75] Creating layer relu1
2015-09-10 23:00:34 - ERROR: I0910 23:00:34.986238 13014 net.cpp:110] Creating Layer relu1
2015-09-10 23:00:34 - ERROR: I0910 23:00:34.986274 13014 net.cpp:476] relu1 <- conv1
2015-09-10 23:00:34 - ERROR: I0910 23:00:34.986318 13014 net.cpp:419] relu1 -> conv1 (in-place)
2015-09-10 23:00:34 - ERROR: I0910 23:00:34.986367 13014 net.cpp:155] Setting up relu1
2015-09-10 23:00:34 - ERROR: I0910 23:00:34.986407 13014 net.cpp:163] Top shape: 256 12 48 48 (7077888)
2015-09-10 23:00:34 - ERROR: I0910 23:00:34.986448 13014 layer_factory.hpp:75] Creating layer pool1
2015-09-10 23:00:34 - ERROR: I0910 23:00:34.986488 13014 net.cpp:110] Creating Layer pool1
2015-09-10 23:00:34 - ERROR: I0910 23:00:34.986526 13014 net.cpp:476] pool1 <- conv1
2015-09-10 23:00:34 - ERROR: I0910 23:00:34.986563 13014 net.cpp:432] pool1 -> pool1
2015-09-10 23:00:34 - ERROR: I0910 23:00:34.986618 13014 net.cpp:155] Setting up pool1
2015-09-10 23:00:34 - ERROR: I0910 23:00:34.986657 13014 net.cpp:163] Top shape: 256 12 24 24 (1769472)
2015-09-10 23:00:34 - ERROR: I0910 23:00:34.986692 13014 layer_factory.hpp:75] Creating layer conv2
2015-09-10 23:00:34 - ERROR: I0910 23:00:34.986733 13014 net.cpp:110] Creating Layer conv2
2015-09-10 23:00:34 - ERROR: I0910 23:00:34.986768 13014 net.cpp:476] conv2 <- pool1
2015-09-10 23:00:34 - ERROR: I0910 23:00:34.986804 13014 net.cpp:432] conv2 -> conv2
2015-09-10 23:00:34 - ERROR: I0910 23:00:34.987036 13014 net.cpp:155] Setting up conv2
2015-09-10 23:00:34 - ERROR: I0910 23:00:34.987082 13014 net.cpp:163] Top shape: 256 48 25 25 (7680000)
2015-09-10 23:00:34 - ERROR: I0910 23:00:34.987128 13014 layer_factory.hpp:75] Creating layer relu2
2015-09-10 23:00:34 - ERROR: I0910 23:00:34.987169 13014 net.cpp:110] Creating Layer relu2
2015-09-10 23:00:34 - ERROR: I0910 23:00:34.987205 13014 net.cpp:476] relu2 <- conv2
2015-09-10 23:00:34 - ERROR: I0910 23:00:34.987243 13014 net.cpp:419] relu2 -> conv2 (in-place)
2015-09-10 23:00:34 - ERROR: I0910 23:00:34.987282 13014 net.cpp:155] Setting up relu2
2015-09-10 23:00:34 - ERROR: I0910 23:00:34.987318 13014 net.cpp:163] Top shape: 256 48 25 25 (7680000)
2015-09-10 23:00:34 - ERROR: I0910 23:00:34.987354 13014 layer_factory.hpp:75] Creating layer pool2
2015-09-10 23:00:34 - ERROR: I0910 23:00:34.987390 13014 net.cpp:110] Creating Layer pool2
2015-09-10 23:00:34 - ERROR: I0910 23:00:34.987426 13014 net.cpp:476] pool2 <- conv2
2015-09-10 23:00:34 - ERROR: I0910 23:00:34.987462 13014 net.cpp:432] pool2 -> pool2
2015-09-10 23:00:34 - ERROR: I0910 23:00:34.987504 13014 net.cpp:155] Setting up pool2
2015-09-10 23:00:34 - ERROR: I0910 23:00:34.987540 13014 net.cpp:163] Top shape: 256 48 12 12 (1769472)
2015-09-10 23:00:34 - ERROR: I0910 23:00:34.987574 13014 layer_factory.hpp:75] Creating layer fc3
2015-09-10 23:00:34 - ERROR: I0910 23:00:34.987613 13014 net.cpp:110] Creating Layer fc3
2015-09-10 23:00:34 - ERROR: I0910 23:00:34.987648 13014 net.cpp:476] fc3 <- pool2
2015-09-10 23:00:34 - ERROR: I0910 23:00:34.987686 13014 net.cpp:432] fc3 -> fc3
2015-09-10 23:00:35 - ERROR: I0910 23:00:35.143082 13014 net.cpp:155] Setting up fc3
2015-09-10 23:00:35 - ERROR: I0910 23:00:35.143213 13014 net.cpp:163] Top shape: 256 1024 (262144)
2015-09-10 23:00:35 - ERROR: I0910 23:00:35.143270 13014 layer_factory.hpp:75] Creating layer relu3
2015-09-10 23:00:35 - ERROR: I0910 23:00:35.143317 13014 net.cpp:110] Creating Layer relu3
2015-09-10 23:00:35 - ERROR: I0910 23:00:35.143355 13014 net.cpp:476] relu3 <- fc3
2015-09-10 23:00:35 - ERROR: I0910 23:00:35.143394 13014 net.cpp:419] relu3 -> fc3 (in-place)
2015-09-10 23:00:35 - ERROR: I0910 23:00:35.143436 13014 net.cpp:155] Setting up relu3
2015-09-10 23:00:35 - ERROR: I0910 23:00:35.143472 13014 net.cpp:163] Top shape: 256 1024 (262144)
2015-09-10 23:00:35 - ERROR: I0910 23:00:35.143507 13014 layer_factory.hpp:75] Creating layer fc4
2015-09-10 23:00:35 - ERROR: I0910 23:00:35.143553 13014 net.cpp:110] Creating Layer fc4
2015-09-10 23:00:35 - ERROR: I0910 23:00:35.143589 13014 net.cpp:476] fc4 <- fc3
2015-09-10 23:00:35 - ERROR: I0910 23:00:35.143625 13014 net.cpp:432] fc4 -> fc4
2015-09-10 23:00:35 - ERROR: I0910 23:00:35.143713 13014 net.cpp:155] Setting up fc4
2015-09-10 23:00:35 - ERROR: I0910 23:00:35.143753 13014 net.cpp:163] Top shape: 256 2 (512)
2015-09-10 23:00:35 - ERROR: I0910 23:00:35.143800 13014 layer_factory.hpp:75] Creating layer prob
2015-09-10 23:00:35 - ERROR: I0910 23:00:35.143838 13014 net.cpp:110] Creating Layer prob
2015-09-10 23:00:35 - ERROR: I0910 23:00:35.143882 13014 net.cpp:476] prob <- fc4
2015-09-10 23:00:35 - ERROR: I0910 23:00:35.143920 13014 net.cpp:432] prob -> prob
2015-09-10 23:00:35 - ERROR: I0910 23:00:35.143964 13014 net.cpp:155] Setting up prob
2015-09-10 23:00:35 - ERROR: I0910 23:00:35.144001 13014 net.cpp:163] Top shape: 256 2 (512)
2015-09-10 23:00:35 - ERROR: I0910 23:00:35.144037 13014 net.cpp:240] prob does not need backward computation.
2015-09-10 23:00:35 - ERROR: I0910 23:00:35.144074 13014 net.cpp:240] fc4 does not need backward computation.
2015-09-10 23:00:35 - ERROR: I0910 23:00:35.144110 13014 net.cpp:240] relu3 does not need backward computation.
2015-09-10 23:00:35 - ERROR: I0910 23:00:35.144145 13014 net.cpp:240] fc3 does not need backward computation.
…
