…
2015-09-11 22:31:24 - ERROR: I0911 22:31:24.997308 14178 net.cpp:434] Input 0 -> data
2015-09-11 22:31:24 - ERROR: I0911 22:31:24.997486 14178 layer_factory.hpp:75] Creating layer conv1
2015-09-11 22:31:24 - ERROR: I0911 22:31:24.997545 14178 net.cpp:110] Creating Layer conv1
2015-09-11 22:31:24 - ERROR: I0911 22:31:24.997583 14178 net.cpp:476] conv1 <- data
2015-09-11 22:31:24 - ERROR: I0911 22:31:24.997622 14178 net.cpp:432] conv1 -> conv1
2015-09-11 22:31:24 - ERROR: I0911 22:31:24.998090 14178 net.cpp:155] Setting up conv1
2015-09-11 22:31:24 - ERROR: I0911 22:31:24.998142 14178 net.cpp:163] Top shape: 256 12 48 48 (7077888)
2015-09-11 22:31:24 - ERROR: I0911 22:31:24.998193 14178 layer_factory.hpp:75] Creating layer relu1
2015-09-11 22:31:24 - ERROR: I0911 22:31:24.998235 14178 net.cpp:110] Creating Layer relu1
2015-09-11 22:31:24 - ERROR: I0911 22:31:24.998273 14178 net.cpp:476] relu1 <- conv1
2015-09-11 22:31:24 - ERROR: I0911 22:31:24.998319 14178 net.cpp:419] relu1 -> conv1 (in-place)
2015-09-11 22:31:24 - ERROR: I0911 22:31:24.998368 14178 net.cpp:155] Setting up relu1
2015-09-11 22:31:24 - ERROR: I0911 22:31:24.998404 14178 net.cpp:163] Top shape: 256 12 48 48 (7077888)
2015-09-11 22:31:24 - ERROR: I0911 22:31:24.998436 14178 layer_factory.hpp:75] Creating layer pool1
2015-09-11 22:31:24 - ERROR: I0911 22:31:24.998471 14178 net.cpp:110] Creating Layer pool1
2015-09-11 22:31:24 - ERROR: I0911 22:31:24.998502 14178 net.cpp:476] pool1 <- conv1
2015-09-11 22:31:24 - ERROR: I0911 22:31:24.998534 14178 net.cpp:432] pool1 -> pool1
2015-09-11 22:31:24 - ERROR: I0911 22:31:24.998579 14178 net.cpp:155] Setting up pool1
2015-09-11 22:31:24 - ERROR: I0911 22:31:24.998615 14178 net.cpp:163] Top shape: 256 12 24 24 (1769472)
2015-09-11 22:31:24 - ERROR: I0911 22:31:24.998646 14178 layer_factory.hpp:75] Creating layer conv2
2015-09-11 22:31:24 - ERROR: I0911 22:31:24.998682 14178 net.cpp:110] Creating Layer conv2
2015-09-11 22:31:24 - ERROR: I0911 22:31:24.998714 14178 net.cpp:476] conv2 <- pool1
2015-09-11 22:31:24 - ERROR: I0911 22:31:24.998749 14178 net.cpp:432] conv2 -> conv2
2015-09-11 22:31:24 - ERROR: I0911 22:31:24.998986 14178 net.cpp:155] Setting up conv2
2015-09-11 22:31:24 - ERROR: I0911 22:31:24.999027 14178 net.cpp:163] Top shape: 256 48 25 25 (7680000)
2015-09-11 22:31:24 - ERROR: I0911 22:31:24.999064 14178 layer_factory.hpp:75] Creating layer relu2
2015-09-11 22:31:24 - ERROR: I0911 22:31:24.999100 14178 net.cpp:110] Creating Layer relu2
2015-09-11 22:31:24 - ERROR: I0911 22:31:24.999132 14178 net.cpp:476] relu2 <- conv2
2015-09-11 22:31:24 - ERROR: I0911 22:31:24.999166 14178 net.cpp:419] relu2 -> conv2 (in-place)
2015-09-11 22:31:24 - ERROR: I0911 22:31:24.999202 14178 net.cpp:155] Setting up relu2
2015-09-11 22:31:24 - ERROR: I0911 22:31:24.999236 14178 net.cpp:163] Top shape: 256 48 25 25 (7680000)
2015-09-11 22:31:24 - ERROR: I0911 22:31:24.999269 14178 layer_factory.hpp:75] Creating layer pool2
2015-09-11 22:31:24 - ERROR: I0911 22:31:24.999303 14178 net.cpp:110] Creating Layer pool2
2015-09-11 22:31:24 - ERROR: I0911 22:31:24.999335 14178 net.cpp:476] pool2 <- conv2
2015-09-11 22:31:24 - ERROR: I0911 22:31:24.999372 14178 net.cpp:432] pool2 -> pool2
2015-09-11 22:31:24 - ERROR: I0911 22:31:24.999413 14178 net.cpp:155] Setting up pool2
2015-09-11 22:31:24 - ERROR: I0911 22:31:24.999449 14178 net.cpp:163] Top shape: 256 48 12 12 (1769472)
2015-09-11 22:31:24 - ERROR: I0911 22:31:24.999481 14178 layer_factory.hpp:75] Creating layer fc3
2015-09-11 22:31:24 - ERROR: I0911 22:31:24.999516 14178 net.cpp:110] Creating Layer fc3
2015-09-11 22:31:24 - ERROR: I0911 22:31:24.999552 14178 net.cpp:476] fc3 <- pool2
2015-09-11 22:31:24 - ERROR: I0911 22:31:24.999585 14178 net.cpp:432] fc3 -> fc3
2015-09-11 22:31:25 - ERROR: I0911 22:31:25.154070 14178 net.cpp:155] Setting up fc3
2015-09-11 22:31:25 - ERROR: I0911 22:31:25.154198 14178 net.cpp:163] Top shape: 256 1024 (262144)
2015-09-11 22:31:25 - ERROR: I0911 22:31:25.154248 14178 layer_factory.hpp:75] Creating layer relu3
2015-09-11 22:31:25 - ERROR: I0911 22:31:25.154291 14178 net.cpp:110] Creating Layer relu3
2015-09-11 22:31:25 - ERROR: I0911 22:31:25.154325 14178 net.cpp:476] relu3 <- fc3
2015-09-11 22:31:25 - ERROR: I0911 22:31:25.154361 14178 net.cpp:419] relu3 -> fc3 (in-place)
2015-09-11 22:31:25 - ERROR: I0911 22:31:25.154399 14178 net.cpp:155] Setting up relu3
2015-09-11 22:31:25 - ERROR: I0911 22:31:25.154431 14178 net.cpp:163] Top shape: 256 1024 (262144)
2015-09-11 22:31:25 - ERROR: I0911 22:31:25.154463 14178 layer_factory.hpp:75] Creating layer fc4
2015-09-11 22:31:25 - ERROR: I0911 22:31:25.154500 14178 net.cpp:110] Creating Layer fc4
2015-09-11 22:31:25 - ERROR: I0911 22:31:25.154532 14178 net.cpp:476] fc4 <- fc3
2015-09-11 22:31:25 - ERROR: I0911 22:31:25.154568 14178 net.cpp:432] fc4 -> fc4
2015-09-11 22:31:25 - ERROR: I0911 22:31:25.154659 14178 net.cpp:155] Setting up fc4
2015-09-11 22:31:25 - ERROR: I0911 22:31:25.154693 14178 net.cpp:163] Top shape: 256 2 (512)
2015-09-11 22:31:25 - ERROR: I0911 22:31:25.154734 14178 layer_factory.hpp:75] Creating layer prob
2015-09-11 22:31:25 - ERROR: I0911 22:31:25.154770 14178 net.cpp:110] Creating Layer prob
2015-09-11 22:31:25 - ERROR: I0911 22:31:25.154801 14178 net.cpp:476] prob <- fc4
2015-09-11 22:31:25 - ERROR: I0911 22:31:25.154834 14178 net.cpp:432] prob -> prob
2015-09-11 22:31:25 - ERROR: I0911 22:31:25.154881 14178 net.cpp:155] Setting up prob
2015-09-11 22:31:25 - ERROR: I0911 22:31:25.154917 14178 net.cpp:163] Top shape: 256 2 (512)
2015-09-11 22:31:25 - ERROR: I0911 22:31:25.154947 14178 net.cpp:240] prob does not need backward computation.
2015-09-11 22:31:25 - ERROR: I0911 22:31:25.154979 14178 net.cpp:240] fc4 does not need backward computation.
2015-09-11 22:31:25 - ERROR: I0911 22:31:25.155009 14178 net.cpp:240] relu3 does not need backward computation.
2015-09-11 22:31:25 - ERROR: I0911 22:31:25.155040 14178 net.cpp:240] fc3 does not need backward computation.
…
