…
17-09-2015 09:17:54 - ERROR: I0917 09:17:54.775566 41378 net.cpp:435] Input 0 -> data
17-09-2015 09:17:54 - ERROR: I0917 09:17:54.775782 41378 layer_factory.hpp:76] Creating layer conv1
17-09-2015 09:17:54 - ERROR: I0917 09:17:54.775897 41378 net.cpp:110] Creating Layer conv1
17-09-2015 09:17:54 - ERROR: I0917 09:17:54.775914 41378 net.cpp:477] conv1 <- data
17-09-2015 09:17:54 - ERROR: I0917 09:17:54.775928 41378 net.cpp:433] conv1 -> conv1
17-09-2015 09:17:54 - ERROR: I0917 09:17:54.777405 41378 net.cpp:155] Setting up conv1
17-09-2015 09:17:54 - ERROR: I0917 09:17:54.777495 41378 net.cpp:163] Top shape: 256 12 48 48 (7077888)
17-09-2015 09:17:54 - ERROR: I0917 09:17:54.777745 41378 layer_factory.hpp:76] Creating layer relu1
17-09-2015 09:17:54 - ERROR: I0917 09:17:54.777791 41378 net.cpp:110] Creating Layer relu1
17-09-2015 09:17:54 - ERROR: I0917 09:17:54.777876 41378 net.cpp:477] relu1 <- conv1
17-09-2015 09:17:54 - ERROR: I0917 09:17:54.777894 41378 net.cpp:419] relu1 -> conv1 (in-place)
17-09-2015 09:17:54 - ERROR: I0917 09:17:54.777922 41378 net.cpp:155] Setting up relu1
17-09-2015 09:17:54 - ERROR: I0917 09:17:54.777967 41378 net.cpp:163] Top shape: 256 12 48 48 (7077888)
17-09-2015 09:17:54 - ERROR: I0917 09:17:54.777973 41378 layer_factory.hpp:76] Creating layer pool1
17-09-2015 09:17:54 - ERROR: I0917 09:17:54.777981 41378 net.cpp:110] Creating Layer pool1
17-09-2015 09:17:54 - ERROR: I0917 09:17:54.777987 41378 net.cpp:477] pool1 <- conv1
17-09-2015 09:17:54 - ERROR: I0917 09:17:54.777997 41378 net.cpp:433] pool1 -> pool1
17-09-2015 09:17:54 - ERROR: I0917 09:17:54.778110 41378 net.cpp:155] Setting up pool1
17-09-2015 09:17:54 - ERROR: I0917 09:17:54.778138 41378 net.cpp:163] Top shape: 256 12 24 24 (1769472)
17-09-2015 09:17:54 - ERROR: I0917 09:17:54.778143 41378 layer_factory.hpp:76] Creating layer conv2
17-09-2015 09:17:54 - ERROR: I0917 09:17:54.778152 41378 net.cpp:110] Creating Layer conv2
17-09-2015 09:17:54 - ERROR: I0917 09:17:54.778192 41378 net.cpp:477] conv2 <- pool1
17-09-2015 09:17:54 - ERROR: I0917 09:17:54.778245 41378 net.cpp:433] conv2 -> conv2
17-09-2015 09:17:54 - ERROR: I0917 09:17:54.778951 41378 net.cpp:155] Setting up conv2
17-09-2015 09:17:54 - ERROR: I0917 09:17:54.778997 41378 net.cpp:163] Top shape: 256 48 25 25 (7680000)
17-09-2015 09:17:54 - ERROR: I0917 09:17:54.779083 41378 layer_factory.hpp:76] Creating layer relu2
17-09-2015 09:17:54 - ERROR: I0917 09:17:54.779137 41378 net.cpp:110] Creating Layer relu2
17-09-2015 09:17:54 - ERROR: I0917 09:17:54.779173 41378 net.cpp:477] relu2 <- conv2
17-09-2015 09:17:54 - ERROR: I0917 09:17:54.779216 41378 net.cpp:419] relu2 -> conv2 (in-place)
17-09-2015 09:17:54 - ERROR: I0917 09:17:54.779227 41378 net.cpp:155] Setting up relu2
17-09-2015 09:17:54 - ERROR: I0917 09:17:54.779232 41378 net.cpp:163] Top shape: 256 48 25 25 (7680000)
17-09-2015 09:17:54 - ERROR: I0917 09:17:54.779278 41378 layer_factory.hpp:76] Creating layer pool2
17-09-2015 09:17:54 - ERROR: I0917 09:17:54.779286 41378 net.cpp:110] Creating Layer pool2
17-09-2015 09:17:54 - ERROR: I0917 09:17:54.779289 41378 net.cpp:477] pool2 <- conv2
17-09-2015 09:17:54 - ERROR: I0917 09:17:54.779299 41378 net.cpp:433] pool2 -> pool2
17-09-2015 09:17:54 - ERROR: I0917 09:17:54.779309 41378 net.cpp:155] Setting up pool2
17-09-2015 09:17:54 - ERROR: I0917 09:17:54.779317 41378 net.cpp:163] Top shape: 256 48 12 12 (1769472)
17-09-2015 09:17:54 - ERROR: I0917 09:17:54.779320 41378 layer_factory.hpp:76] Creating layer fc3
17-09-2015 09:17:54 - ERROR: I0917 09:17:54.779371 41378 net.cpp:110] Creating Layer fc3
17-09-2015 09:17:54 - ERROR: I0917 09:17:54.779374 41378 net.cpp:477] fc3 <- pool2
17-09-2015 09:17:54 - ERROR: I0917 09:17:54.779381 41378 net.cpp:433] fc3 -> fc3
17-09-2015 09:17:55 - ERROR: I0917 09:17:55.012364 41378 net.cpp:155] Setting up fc3
17-09-2015 09:17:55 - ERROR: I0917 09:17:55.012446 41378 net.cpp:163] Top shape: 256 1024 (262144)
17-09-2015 09:17:55 - ERROR: I0917 09:17:55.012460 41378 layer_factory.hpp:76] Creating layer relu3
17-09-2015 09:17:55 - ERROR: I0917 09:17:55.012469 41378 net.cpp:110] Creating Layer relu3
17-09-2015 09:17:55 - ERROR: I0917 09:17:55.012472 41378 net.cpp:477] relu3 <- fc3
17-09-2015 09:17:55 - ERROR: I0917 09:17:55.012478 41378 net.cpp:419] relu3 -> fc3 (in-place)
17-09-2015 09:17:55 - ERROR: I0917 09:17:55.012485 41378 net.cpp:155] Setting up relu3
17-09-2015 09:17:55 - ERROR: I0917 09:17:55.012490 41378 net.cpp:163] Top shape: 256 1024 (262144)
17-09-2015 09:17:55 - ERROR: I0917 09:17:55.012492 41378 layer_factory.hpp:76] Creating layer fc4
17-09-2015 09:17:55 - ERROR: I0917 09:17:55.012501 41378 net.cpp:110] Creating Layer fc4
17-09-2015 09:17:55 - ERROR: I0917 09:17:55.012503 41378 net.cpp:477] fc4 <- fc3
17-09-2015 09:17:55 - ERROR: I0917 09:17:55.012511 41378 net.cpp:433] fc4 -> fc4
17-09-2015 09:17:55 - ERROR: I0917 09:17:55.012728 41378 net.cpp:155] Setting up fc4
17-09-2015 09:17:55 - ERROR: I0917 09:17:55.012742 41378 net.cpp:163] Top shape: 256 2 (512)
17-09-2015 09:17:55 - ERROR: I0917 09:17:55.012748 41378 layer_factory.hpp:76] Creating layer prob
17-09-2015 09:17:55 - ERROR: I0917 09:17:55.012755 41378 net.cpp:110] Creating Layer prob
17-09-2015 09:17:55 - ERROR: I0917 09:17:55.012758 41378 net.cpp:477] prob <- fc4
17-09-2015 09:17:55 - ERROR: I0917 09:17:55.012763 41378 net.cpp:433] prob -> prob
17-09-2015 09:17:55 - ERROR: I0917 09:17:55.012820 41378 net.cpp:155] Setting up prob
17-09-2015 09:17:55 - ERROR: I0917 09:17:55.012862 41378 net.cpp:163] Top shape: 256 2 (512)
17-09-2015 09:17:55 - ERROR: I0917 09:17:55.012867 41378 net.cpp:240] prob does not need backward computation.
17-09-2015 09:17:55 - ERROR: I0917 09:17:55.012873 41378 net.cpp:240] fc4 does not need backward computation.
17-09-2015 09:17:55 - ERROR: I0917 09:17:55.012876 41378 net.cpp:240] relu3 does not need backward computation.
17-09-2015 09:17:55 - ERROR: I0917 09:17:55.012883 41378 net.cpp:240] fc3 does not need backward computation.
…
