…
21-09-2015 07:58:38 - ERROR: I0921 07:58:38.731768 45893 net.cpp:435] Input 0 -> data
21-09-2015 07:58:38 - ERROR: I0921 07:58:38.731844 45893 layer_factory.hpp:76] Creating layer conv1
21-09-2015 07:58:38 - ERROR: I0921 07:58:38.731868 45893 net.cpp:110] Creating Layer conv1
21-09-2015 07:58:38 - ERROR: I0921 07:58:38.731875 45893 net.cpp:477] conv1 <- data
21-09-2015 07:58:38 - ERROR: I0921 07:58:38.731884 45893 net.cpp:433] conv1 -> conv1
21-09-2015 07:58:38 - ERROR: I0921 07:58:38.732501 45893 net.cpp:155] Setting up conv1
21-09-2015 07:58:38 - ERROR: I0921 07:58:38.732535 45893 net.cpp:163] Top shape: 256 12 48 48 (7077888)
21-09-2015 07:58:38 - ERROR: I0921 07:58:38.732571 45893 layer_factory.hpp:76] Creating layer relu1
21-09-2015 07:58:38 - ERROR: I0921 07:58:38.732579 45893 net.cpp:110] Creating Layer relu1
21-09-2015 07:58:38 - ERROR: I0921 07:58:38.732583 45893 net.cpp:477] relu1 <- conv1
21-09-2015 07:58:38 - ERROR: I0921 07:58:38.732588 45893 net.cpp:419] relu1 -> conv1 (in-place)
21-09-2015 07:58:38 - ERROR: I0921 07:58:38.732596 45893 net.cpp:155] Setting up relu1
21-09-2015 07:58:38 - ERROR: I0921 07:58:38.732600 45893 net.cpp:163] Top shape: 256 12 48 48 (7077888)
21-09-2015 07:58:38 - ERROR: I0921 07:58:38.732604 45893 layer_factory.hpp:76] Creating layer pool1
21-09-2015 07:58:38 - ERROR: I0921 07:58:38.732609 45893 net.cpp:110] Creating Layer pool1
21-09-2015 07:58:38 - ERROR: I0921 07:58:38.732611 45893 net.cpp:477] pool1 <- conv1
21-09-2015 07:58:38 - ERROR: I0921 07:58:38.732615 45893 net.cpp:433] pool1 -> pool1
21-09-2015 07:58:38 - ERROR: I0921 07:58:38.732638 45893 net.cpp:155] Setting up pool1
21-09-2015 07:58:38 - ERROR: I0921 07:58:38.732648 45893 net.cpp:163] Top shape: 256 12 24 24 (1769472)
21-09-2015 07:58:38 - ERROR: I0921 07:58:38.732651 45893 layer_factory.hpp:76] Creating layer conv2
21-09-2015 07:58:38 - ERROR: I0921 07:58:38.732657 45893 net.cpp:110] Creating Layer conv2
21-09-2015 07:58:38 - ERROR: I0921 07:58:38.732661 45893 net.cpp:477] conv2 <- pool1
21-09-2015 07:58:38 - ERROR: I0921 07:58:38.732664 45893 net.cpp:433] conv2 -> conv2
21-09-2015 07:58:38 - ERROR: I0921 07:58:38.732966 45893 net.cpp:155] Setting up conv2
21-09-2015 07:58:38 - ERROR: I0921 07:58:38.732974 45893 net.cpp:163] Top shape: 256 48 25 25 (7680000)
21-09-2015 07:58:38 - ERROR: I0921 07:58:38.732980 45893 layer_factory.hpp:76] Creating layer relu2
21-09-2015 07:58:38 - ERROR: I0921 07:58:38.732985 45893 net.cpp:110] Creating Layer relu2
21-09-2015 07:58:38 - ERROR: I0921 07:58:38.732990 45893 net.cpp:477] relu2 <- conv2
21-09-2015 07:58:38 - ERROR: I0921 07:58:38.732993 45893 net.cpp:419] relu2 -> conv2 (in-place)
21-09-2015 07:58:38 - ERROR: I0921 07:58:38.732998 45893 net.cpp:155] Setting up relu2
21-09-2015 07:58:38 - ERROR: I0921 07:58:38.733001 45893 net.cpp:163] Top shape: 256 48 25 25 (7680000)
21-09-2015 07:58:38 - ERROR: I0921 07:58:38.733005 45893 layer_factory.hpp:76] Creating layer pool2
21-09-2015 07:58:38 - ERROR: I0921 07:58:38.733008 45893 net.cpp:110] Creating Layer pool2
21-09-2015 07:58:38 - ERROR: I0921 07:58:38.733011 45893 net.cpp:477] pool2 <- conv2
21-09-2015 07:58:38 - ERROR: I0921 07:58:38.733014 45893 net.cpp:433] pool2 -> pool2
21-09-2015 07:58:38 - ERROR: I0921 07:58:38.733021 45893 net.cpp:155] Setting up pool2
21-09-2015 07:58:38 - ERROR: I0921 07:58:38.733026 45893 net.cpp:163] Top shape: 256 48 12 12 (1769472)
21-09-2015 07:58:38 - ERROR: I0921 07:58:38.733027 45893 layer_factory.hpp:76] Creating layer fc3
21-09-2015 07:58:38 - ERROR: I0921 07:58:38.733033 45893 net.cpp:110] Creating Layer fc3
21-09-2015 07:58:38 - ERROR: I0921 07:58:38.733036 45893 net.cpp:477] fc3 <- pool2
21-09-2015 07:58:38 - ERROR: I0921 07:58:38.733041 45893 net.cpp:433] fc3 -> fc3
21-09-2015 07:58:38 - ERROR: I0921 07:58:38.968200 45893 net.cpp:155] Setting up fc3
21-09-2015 07:58:38 - ERROR: I0921 07:58:38.968300 45893 net.cpp:163] Top shape: 256 1024 (262144)
21-09-2015 07:58:38 - ERROR: I0921 07:58:38.968317 45893 layer_factory.hpp:76] Creating layer relu3
21-09-2015 07:58:38 - ERROR: I0921 07:58:38.968364 45893 net.cpp:110] Creating Layer relu3
21-09-2015 07:58:38 - ERROR: I0921 07:58:38.968374 45893 net.cpp:477] relu3 <- fc3
21-09-2015 07:58:38 - ERROR: I0921 07:58:38.968384 45893 net.cpp:419] relu3 -> fc3 (in-place)
21-09-2015 07:58:38 - ERROR: I0921 07:58:38.968430 45893 net.cpp:155] Setting up relu3
21-09-2015 07:58:38 - ERROR: I0921 07:58:38.968437 45893 net.cpp:163] Top shape: 256 1024 (262144)
21-09-2015 07:58:38 - ERROR: I0921 07:58:38.968441 45893 layer_factory.hpp:76] Creating layer fc4
21-09-2015 07:58:38 - ERROR: I0921 07:58:38.968452 45893 net.cpp:110] Creating Layer fc4
21-09-2015 07:58:38 - ERROR: I0921 07:58:38.968461 45893 net.cpp:477] fc4 <- fc3
21-09-2015 07:58:38 - ERROR: I0921 07:58:38.968479 45893 net.cpp:433] fc4 -> fc4
21-09-2015 07:58:38 - ERROR: I0921 07:58:38.968672 45893 net.cpp:155] Setting up fc4
21-09-2015 07:58:38 - ERROR: I0921 07:58:38.968680 45893 net.cpp:163] Top shape: 256 2 (512)
21-09-2015 07:58:38 - ERROR: I0921 07:58:38.968688 45893 layer_factory.hpp:76] Creating layer prob
21-09-2015 07:58:38 - ERROR: I0921 07:58:38.968695 45893 net.cpp:110] Creating Layer prob
21-09-2015 07:58:38 - ERROR: I0921 07:58:38.968698 45893 net.cpp:477] prob <- fc4
21-09-2015 07:58:38 - ERROR: I0921 07:58:38.968744 45893 net.cpp:433] prob -> prob
21-09-2015 07:58:38 - ERROR: I0921 07:58:38.968782 45893 net.cpp:155] Setting up prob
21-09-2015 07:58:38 - ERROR: I0921 07:58:38.968789 45893 net.cpp:163] Top shape: 256 2 (512)
21-09-2015 07:58:38 - ERROR: I0921 07:58:38.968793 45893 net.cpp:240] prob does not need backward computation.
21-09-2015 07:58:38 - ERROR: I0921 07:58:38.968796 45893 net.cpp:240] fc4 does not need backward computation.
21-09-2015 07:58:38 - ERROR: I0921 07:58:38.968809 45893 net.cpp:240] relu3 does not need backward computation.
21-09-2015 07:58:38 - ERROR: I0921 07:58:38.968812 45893 net.cpp:240] fc3 does not need backward computation.
…
