…
2015-09-07 14:48:18 - ERROR: I0907 14:48:18.328091 15906 net.cpp:434] Input 0 -> data
2015-09-07 14:48:18 - ERROR: I0907 14:48:18.328152 15906 layer_factory.hpp:75] Creating layer conv1
2015-09-07 14:48:18 - ERROR: I0907 14:48:18.328181 15906 net.cpp:110] Creating Layer conv1
2015-09-07 14:48:18 - ERROR: I0907 14:48:18.328189 15906 net.cpp:476] conv1 <- data
2015-09-07 14:48:18 - ERROR: I0907 14:48:18.328212 15906 net.cpp:432] conv1 -> conv1
2015-09-07 14:48:18 - ERROR: I0907 14:48:18.328655 15906 net.cpp:155] Setting up conv1
2015-09-07 14:48:18 - ERROR: I0907 14:48:18.328680 15906 net.cpp:163] Top shape: 256 12 48 48 (7077888)
2015-09-07 14:48:18 - ERROR: I0907 14:48:18.328707 15906 layer_factory.hpp:75] Creating layer relu1
2015-09-07 14:48:18 - ERROR: I0907 14:48:18.328719 15906 net.cpp:110] Creating Layer relu1
2015-09-07 14:48:18 - ERROR: I0907 14:48:18.328724 15906 net.cpp:476] relu1 <- conv1
2015-09-07 14:48:18 - ERROR: I0907 14:48:18.328732 15906 net.cpp:419] relu1 -> conv1 (in-place)
2015-09-07 14:48:18 - ERROR: I0907 14:48:18.328745 15906 net.cpp:155] Setting up relu1
2015-09-07 14:48:18 - ERROR: I0907 14:48:18.328752 15906 net.cpp:163] Top shape: 256 12 48 48 (7077888)
2015-09-07 14:48:18 - ERROR: I0907 14:48:18.328758 15906 layer_factory.hpp:75] Creating layer pool1
2015-09-07 14:48:18 - ERROR: I0907 14:48:18.328766 15906 net.cpp:110] Creating Layer pool1
2015-09-07 14:48:18 - ERROR: I0907 14:48:18.328771 15906 net.cpp:476] pool1 <- conv1
2015-09-07 14:48:18 - ERROR: I0907 14:48:18.328779 15906 net.cpp:432] pool1 -> pool1
2015-09-07 14:48:18 - ERROR: I0907 14:48:18.328797 15906 net.cpp:155] Setting up pool1
2015-09-07 14:48:18 - ERROR: I0907 14:48:18.328805 15906 net.cpp:163] Top shape: 256 12 24 24 (1769472)
2015-09-07 14:48:18 - ERROR: I0907 14:48:18.328810 15906 layer_factory.hpp:75] Creating layer conv2
2015-09-07 14:48:18 - ERROR: I0907 14:48:18.328819 15906 net.cpp:110] Creating Layer conv2
2015-09-07 14:48:18 - ERROR: I0907 14:48:18.328824 15906 net.cpp:476] conv2 <- pool1
2015-09-07 14:48:18 - ERROR: I0907 14:48:18.328830 15906 net.cpp:432] conv2 -> conv2
2015-09-07 14:48:18 - ERROR: I0907 14:48:18.329015 15906 net.cpp:155] Setting up conv2
2015-09-07 14:48:18 - ERROR: I0907 14:48:18.329025 15906 net.cpp:163] Top shape: 256 48 25 25 (7680000)
2015-09-07 14:48:18 - ERROR: I0907 14:48:18.329037 15906 layer_factory.hpp:75] Creating layer relu2
2015-09-07 14:48:18 - ERROR: I0907 14:48:18.329046 15906 net.cpp:110] Creating Layer relu2
2015-09-07 14:48:18 - ERROR: I0907 14:48:18.329051 15906 net.cpp:476] relu2 <- conv2
2015-09-07 14:48:18 - ERROR: I0907 14:48:18.329059 15906 net.cpp:419] relu2 -> conv2 (in-place)
2015-09-07 14:48:18 - ERROR: I0907 14:48:18.329067 15906 net.cpp:155] Setting up relu2
2015-09-07 14:48:18 - ERROR: I0907 14:48:18.329074 15906 net.cpp:163] Top shape: 256 48 25 25 (7680000)
2015-09-07 14:48:18 - ERROR: I0907 14:48:18.329079 15906 layer_factory.hpp:75] Creating layer pool2
2015-09-07 14:48:18 - ERROR: I0907 14:48:18.329087 15906 net.cpp:110] Creating Layer pool2
2015-09-07 14:48:18 - ERROR: I0907 14:48:18.329092 15906 net.cpp:476] pool2 <- conv2
2015-09-07 14:48:18 - ERROR: I0907 14:48:18.329098 15906 net.cpp:432] pool2 -> pool2
2015-09-07 14:48:18 - ERROR: I0907 14:48:18.329109 15906 net.cpp:155] Setting up pool2
2015-09-07 14:48:18 - ERROR: I0907 14:48:18.329118 15906 net.cpp:163] Top shape: 256 48 12 12 (1769472)
2015-09-07 14:48:18 - ERROR: I0907 14:48:18.329123 15906 layer_factory.hpp:75] Creating layer fc3
2015-09-07 14:48:18 - ERROR: I0907 14:48:18.329131 15906 net.cpp:110] Creating Layer fc3
2015-09-07 14:48:18 - ERROR: I0907 14:48:18.329136 15906 net.cpp:476] fc3 <- pool2
2015-09-07 14:48:18 - ERROR: I0907 14:48:18.329144 15906 net.cpp:432] fc3 -> fc3
2015-09-07 14:48:18 - ERROR: I0907 14:48:18.413259 15906 net.cpp:155] Setting up fc3
2015-09-07 14:48:18 - ERROR: I0907 14:48:18.413287 15906 net.cpp:163] Top shape: 256 1024 (262144)
2015-09-07 14:48:18 - ERROR: I0907 14:48:18.413301 15906 layer_factory.hpp:75] Creating layer relu3
2015-09-07 14:48:18 - ERROR: I0907 14:48:18.413312 15906 net.cpp:110] Creating Layer relu3
2015-09-07 14:48:18 - ERROR: I0907 14:48:18.413316 15906 net.cpp:476] relu3 <- fc3
2015-09-07 14:48:18 - ERROR: I0907 14:48:18.413322 15906 net.cpp:419] relu3 -> fc3 (in-place)
2015-09-07 14:48:18 - ERROR: I0907 14:48:18.413331 15906 net.cpp:155] Setting up relu3
2015-09-07 14:48:18 - ERROR: I0907 14:48:18.413334 15906 net.cpp:163] Top shape: 256 1024 (262144)
2015-09-07 14:48:18 - ERROR: I0907 14:48:18.413337 15906 layer_factory.hpp:75] Creating layer fc4
2015-09-07 14:48:18 - ERROR: I0907 14:48:18.413349 15906 net.cpp:110] Creating Layer fc4
2015-09-07 14:48:18 - ERROR: I0907 14:48:18.413352 15906 net.cpp:476] fc4 <- fc3
2015-09-07 14:48:18 - ERROR: I0907 14:48:18.413357 15906 net.cpp:432] fc4 -> fc4
2015-09-07 14:48:18 - ERROR: I0907 14:48:18.413411 15906 net.cpp:155] Setting up fc4
2015-09-07 14:48:18 - ERROR: I0907 14:48:18.413419 15906 net.cpp:163] Top shape: 256 2 (512)
2015-09-07 14:48:18 - ERROR: I0907 14:48:18.413427 15906 layer_factory.hpp:75] Creating layer prob
2015-09-07 14:48:18 - ERROR: I0907 14:48:18.413435 15906 net.cpp:110] Creating Layer prob
2015-09-07 14:48:18 - ERROR: I0907 14:48:18.413441 15906 net.cpp:476] prob <- fc4
2015-09-07 14:48:18 - ERROR: I0907 14:48:18.413447 15906 net.cpp:432] prob -> prob
2015-09-07 14:48:18 - ERROR: I0907 14:48:18.413457 15906 net.cpp:155] Setting up prob
2015-09-07 14:48:18 - ERROR: I0907 14:48:18.413465 15906 net.cpp:163] Top shape: 256 2 (512)
2015-09-07 14:48:18 - ERROR: I0907 14:48:18.413470 15906 net.cpp:240] prob does not need backward computation.
2015-09-07 14:48:18 - ERROR: I0907 14:48:18.413475 15906 net.cpp:240] fc4 does not need backward computation.
2015-09-07 14:48:18 - ERROR: I0907 14:48:18.413478 15906 net.cpp:240] relu3 does not need backward computation.
2015-09-07 14:48:18 - ERROR: I0907 14:48:18.413483 15906 net.cpp:240] fc3 does not need backward computation.
…
