…
2015-09-07 17:41:29 - ERROR: I0907 17:41:29.026798 22774 net.cpp:434] Input 0 -> data
2015-09-07 17:41:29 - ERROR: I0907 17:41:29.026835 22774 layer_factory.hpp:75] Creating layer conv1
2015-09-07 17:41:29 - ERROR: I0907 17:41:29.026851 22774 net.cpp:110] Creating Layer conv1
2015-09-07 17:41:29 - ERROR: I0907 17:41:29.026857 22774 net.cpp:476] conv1 <- data
2015-09-07 17:41:29 - ERROR: I0907 17:41:29.026867 22774 net.cpp:432] conv1 -> conv1
2015-09-07 17:41:29 - ERROR: I0907 17:41:29.027214 22774 net.cpp:155] Setting up conv1
2015-09-07 17:41:29 - ERROR: I0907 17:41:29.027231 22774 net.cpp:163] Top shape: 256 12 48 48 (7077888)
2015-09-07 17:41:29 - ERROR: I0907 17:41:29.027250 22774 layer_factory.hpp:75] Creating layer relu1
2015-09-07 17:41:29 - ERROR: I0907 17:41:29.027257 22774 net.cpp:110] Creating Layer relu1
2015-09-07 17:41:29 - ERROR: I0907 17:41:29.027261 22774 net.cpp:476] relu1 <- conv1
2015-09-07 17:41:29 - ERROR: I0907 17:41:29.027266 22774 net.cpp:419] relu1 -> conv1 (in-place)
2015-09-07 17:41:29 - ERROR: I0907 17:41:29.027277 22774 net.cpp:155] Setting up relu1
2015-09-07 17:41:29 - ERROR: I0907 17:41:29.027282 22774 net.cpp:163] Top shape: 256 12 48 48 (7077888)
2015-09-07 17:41:29 - ERROR: I0907 17:41:29.027287 22774 layer_factory.hpp:75] Creating layer pool1
2015-09-07 17:41:29 - ERROR: I0907 17:41:29.027293 22774 net.cpp:110] Creating Layer pool1
2015-09-07 17:41:29 - ERROR: I0907 17:41:29.027297 22774 net.cpp:476] pool1 <- conv1
2015-09-07 17:41:29 - ERROR: I0907 17:41:29.027302 22774 net.cpp:432] pool1 -> pool1
2015-09-07 17:41:29 - ERROR: I0907 17:41:29.027318 22774 net.cpp:155] Setting up pool1
2015-09-07 17:41:29 - ERROR: I0907 17:41:29.027323 22774 net.cpp:163] Top shape: 256 12 24 24 (1769472)
2015-09-07 17:41:29 - ERROR: I0907 17:41:29.027328 22774 layer_factory.hpp:75] Creating layer conv2
2015-09-07 17:41:29 - ERROR: I0907 17:41:29.027333 22774 net.cpp:110] Creating Layer conv2
2015-09-07 17:41:29 - ERROR: I0907 17:41:29.027338 22774 net.cpp:476] conv2 <- pool1
2015-09-07 17:41:29 - ERROR: I0907 17:41:29.027343 22774 net.cpp:432] conv2 -> conv2
2015-09-07 17:41:29 - ERROR: I0907 17:41:29.027524 22774 net.cpp:155] Setting up conv2
2015-09-07 17:41:29 - ERROR: I0907 17:41:29.027532 22774 net.cpp:163] Top shape: 256 48 25 25 (7680000)
2015-09-07 17:41:29 - ERROR: I0907 17:41:29.027542 22774 layer_factory.hpp:75] Creating layer relu2
2015-09-07 17:41:29 - ERROR: I0907 17:41:29.027549 22774 net.cpp:110] Creating Layer relu2
2015-09-07 17:41:29 - ERROR: I0907 17:41:29.027554 22774 net.cpp:476] relu2 <- conv2
2015-09-07 17:41:29 - ERROR: I0907 17:41:29.027560 22774 net.cpp:419] relu2 -> conv2 (in-place)
2015-09-07 17:41:29 - ERROR: I0907 17:41:29.027567 22774 net.cpp:155] Setting up relu2
2015-09-07 17:41:29 - ERROR: I0907 17:41:29.027573 22774 net.cpp:163] Top shape: 256 48 25 25 (7680000)
2015-09-07 17:41:29 - ERROR: I0907 17:41:29.027577 22774 layer_factory.hpp:75] Creating layer pool2
2015-09-07 17:41:29 - ERROR: I0907 17:41:29.027583 22774 net.cpp:110] Creating Layer pool2
2015-09-07 17:41:29 - ERROR: I0907 17:41:29.027587 22774 net.cpp:476] pool2 <- conv2
2015-09-07 17:41:29 - ERROR: I0907 17:41:29.027593 22774 net.cpp:432] pool2 -> pool2
2015-09-07 17:41:29 - ERROR: I0907 17:41:29.027602 22774 net.cpp:155] Setting up pool2
2015-09-07 17:41:29 - ERROR: I0907 17:41:29.027609 22774 net.cpp:163] Top shape: 256 48 12 12 (1769472)
2015-09-07 17:41:29 - ERROR: I0907 17:41:29.027613 22774 layer_factory.hpp:75] Creating layer fc3
2015-09-07 17:41:29 - ERROR: I0907 17:41:29.027621 22774 net.cpp:110] Creating Layer fc3
2015-09-07 17:41:29 - ERROR: I0907 17:41:29.027626 22774 net.cpp:476] fc3 <- pool2
2015-09-07 17:41:29 - ERROR: I0907 17:41:29.027631 22774 net.cpp:432] fc3 -> fc3
2015-09-07 17:41:29 - ERROR: I0907 17:41:29.177258 22774 net.cpp:155] Setting up fc3
2015-09-07 17:41:29 - ERROR: I0907 17:41:29.177389 22774 net.cpp:163] Top shape: 256 1024 (262144)
2015-09-07 17:41:29 - ERROR: I0907 17:41:29.177441 22774 layer_factory.hpp:75] Creating layer relu3
2015-09-07 17:41:29 - ERROR: I0907 17:41:29.177484 22774 net.cpp:110] Creating Layer relu3
2015-09-07 17:41:29 - ERROR: I0907 17:41:29.177517 22774 net.cpp:476] relu3 <- fc3
2015-09-07 17:41:29 - ERROR: I0907 17:41:29.177556 22774 net.cpp:419] relu3 -> fc3 (in-place)
2015-09-07 17:41:29 - ERROR: I0907 17:41:29.177597 22774 net.cpp:155] Setting up relu3
2015-09-07 17:41:29 - ERROR: I0907 17:41:29.177631 22774 net.cpp:163] Top shape: 256 1024 (262144)
2015-09-07 17:41:29 - ERROR: I0907 17:41:29.177662 22774 layer_factory.hpp:75] Creating layer fc4
2015-09-07 17:41:29 - ERROR: I0907 17:41:29.177702 22774 net.cpp:110] Creating Layer fc4
2015-09-07 17:41:29 - ERROR: I0907 17:41:29.177736 22774 net.cpp:476] fc4 <- fc3
2015-09-07 17:41:29 - ERROR: I0907 17:41:29.177772 22774 net.cpp:432] fc4 -> fc4
2015-09-07 17:41:29 - ERROR: I0907 17:41:29.177861 22774 net.cpp:155] Setting up fc4
2015-09-07 17:41:29 - ERROR: I0907 17:41:29.177899 22774 net.cpp:163] Top shape: 256 2 (512)
2015-09-07 17:41:29 - ERROR: I0907 17:41:29.177942 22774 layer_factory.hpp:75] Creating layer prob
2015-09-07 17:41:29 - ERROR: I0907 17:41:29.177978 22774 net.cpp:110] Creating Layer prob
2015-09-07 17:41:29 - ERROR: I0907 17:41:29.178009 22774 net.cpp:476] prob <- fc4
2015-09-07 17:41:29 - ERROR: I0907 17:41:29.178045 22774 net.cpp:432] prob -> prob
2015-09-07 17:41:29 - ERROR: I0907 17:41:29.178081 22774 net.cpp:155] Setting up prob
2015-09-07 17:41:29 - ERROR: I0907 17:41:29.178117 22774 net.cpp:163] Top shape: 256 2 (512)
2015-09-07 17:41:29 - ERROR: I0907 17:41:29.178150 22774 net.cpp:240] prob does not need backward computation.
2015-09-07 17:41:29 - ERROR: I0907 17:41:29.178182 22774 net.cpp:240] fc4 does not need backward computation.
2015-09-07 17:41:29 - ERROR: I0907 17:41:29.178215 22774 net.cpp:240] relu3 does not need backward computation.
2015-09-07 17:41:29 - ERROR: I0907 17:41:29.178246 22774 net.cpp:240] fc3 does not need backward computation.
…
